DNN11model.pth (torch, 735846 bytes, 6 tensors)

fc1.weight f4 [128, 1300]
00000000: bb84 b9bb d371 763c 8dda 863c 4f39 ccbc
00000010: 21c4 87bc f0ce d8bb 4383 85bc 50b8 b3bb
00000020: a00d 803c 82dd 1cbc c3b2 f43b 2583 abbb
00000030: e845 a03b 119a ac3c de61 d5bc 905a 00bb
00000040: 5d17 d03b c77b 9bbc fdd2 9fbb bac0 253c
00000050: 533a ea3b c748 1dbc d6f7 dcbb b75f 243c
00000060: 6b11 26bc 605c 8cbb 6d4e 8abb 6a80 dd3b
00000070: 9412 e63c 5a28 123a c313 373b e877 ebbc
00000080: 8a6d bfbc 1c62 6f3c e7c4 903c 0b73 37bc
00000090: fedf 753c d19c a7bb 4033 81bc 4e82 a43c
000000a0: 0e7f a03a 9b19 cc3c 73ac d2bc e81b 61bc
000000b0: dba5 20bc 0ee1 09bd eebc fcbc 42fb bebc
000000c0: 6fb5 673c b145 863b 7ffa 6b3c 092e d13c
000000d0: ca14 32bc 174e 63bc d3ae 583c cf53 b6bc
000000e0: 8628 423c 218a 643c 9942 42bc 0550 13bc
000000f0: d8df afbb c97f b3bb 061d 0bbc f258 b23c
00000100: bc1c 94bc f10d a7bc adf3 793c dd3a 82bc
00000110: f42e 00bd 8be2 9abc 897e f7ba 6462 a13c
00000120: 2f53 8a3c 6036 6639 fb18 07bd eb24 acba
00000130: 6b62 05bd 2756 403b 3145 93bc 0537 c63c
00000140: 10ea e8bb 70d7 03bc a42a 3b3c ad5f dabc
00000150: 008e e2bb c5f8 2b3c 344a 6b3a 4f1c a93c
00000160: 682b 90bc 228c 493c abc7 823b 6ccb b5bc
00000170: 97d4 a03c 45b0 ccbc 180f cc3b e9d8 b0bc
00000180: 8422 f8bc c401 5f3b 78cc 12bd fa32 9e3c
00000190: ccf5 203c f9ff 8ebc f57d 0ebd 6ccc a83c
000001a0: 519a 833c ad3f b73c 94ce 1ebd a38a 963c
000001b0: 0919 04bc 02f7 9ebc a4d5 22bb 53ce efbc
000001c0: cce8 df3b cef5 30bc 9c09 acba b9bf beba
000001d0: 31c3 2abc bd59 b53c f0d2 f8bb 4111 9fba
000001e0: c262 bfbc 8215 0abb 83b1 573c fc16 943b
000001f0: c671 4dbc e903 323c 0025 713c d1eb ecbc
00000200: 139a 8bbc 224e d2bb 084c b23b 1aad 003c
00000210: 5392 20bb 14db 58bc 0dc6 ab3a d43e cb3b
00000220: 86af d03c 4499 683b 6c97 90bc 94e3 c3bb
00000230: 6b16 223c dd44 fabb 6dd9 5ebc 7da8 afbb
00000240: 17d0 35bc 1d0c 343c a471 61bc c7a2 d7bb
00000250: e6ee 71bc ed1e c33c c2fb 893b 8957 67bc
00000260: 44b8 0ebd 29da b4bc c150 7c3c 104d ec3b
00000270: d681 343c 14fe bbbc 92ea a83c 91ca f63b
00000280: c24a a23c d023 203c 38b3 8b3b f905 05bd
00000290: a40a afbb afb2 473c ac43 babc 6402 d6bb
000002a0: 8489 76bc 0cd6 603c fcb6 0b3c 801d 703b
000002b0: 2d51 103b cff5 c4ba 6e1f ab3c 4eca 2ebc
000002c0: 6780 603c 37d9 d1bc 0f69 95bc 1ea9 16bc
000002d0: 2693 05bd 3115 8dbb 3d8d 993c c0e7 a83a
000002e0: dd0e 83ba fa03 d13c b837 063c 5d18 0f3c
000002f0: 3417 f53b 88e2 54bc a8e9 6e3c c533 07b8
00000300: b500 77bc db66 d2bb 1a79 60bc 2ebb 4fbc
00000310: bfeb 933c 7022 0fbc beec 0e3c 5ad8 84bc
00000320: 305f 9b3c af06 cabc 55d8 e03b 223a 0d3c
00000330: 0969 603a 3add 90bc f0d8 70ba 079e 01bd
00000340: 328f 3fbc 1f01 253c a6aa 08bd b5a9 e7bb
00000350: 1a8e 153d 2cd9 94bb 19e5 97bb 0ca7 3f3b
00000360: 9d1a 933c a1e0 69bb dffd 3bbc f6e4 43bc
00000370: 079f 813c 315d a63c 4257 a03c 2a86 f1bc
00000380: 1d38 d83c a093 8cba bd2c a8bc a123 31bc
00000390: d9fe 423c f8d1 853c 3b5d 85bb 79e8 c03c
000003a0: 6082 b63c 8d34 a03c d8ab 51bc 694b b6bc
000003b0: d9ce 9cbc 4791 41bc a0ad 003d 4959 04bd
000003c0: 7e90 993c d9f6 ae3b 9b62 eebb 168f 52bb
000003d0: 4e08 323c 7779 353b 006a f4bc 4a15 d1bc
000003e0: a3c9 4d3b 4ee4 10bc 0e7b 82bb b9b9 fc3c
000003f0: 9d34 9a3c 0e19 d2bb 987a 90bb 2d7c f2ba
-0.0056615747 0.015041786 0.016461635 -0.02492967 -0.016573014 -0.0066164657 -0.016297942 -0.0054846182
0.015631497 -0.009574296 0.007467599 -0.0052341395 0.004891146 0.021069558 -0.026047643 -0.001958523
0.0063504414 -0.01897992 -0.0048774467 0.01011675 0.007148066 -0.009599871 -0.0067434115 0.010032586
-0.010135989 -0.004283473 -0.004220775 0.006759693 0.02808503 0.0005575471 0.0027935363 -0.0287437
-0.023367662 0.014610793 0.017672015 -0.011196862 0.015007017 -0.0051151295 -0.015771508 0.020081665
0.0012244896 0.024914553 -0.025716996 -0.0137395635 -0.009805168 -0.033661895 -0.030851807 -0.023313168
0.014142378 0.0040976633 0.014402985 0.025534647 -0.010869214 -0.013873599 0.013225275 -0.02225676
0.011850482 0.013948948 -0.011856698 -0.008991246 -0.0053672604 -0.0054778797 -0.008490806 0.021770928
-0.018080108 -0.02039239 0.015255851 -0.015897209 -0.031294778 -0.018906852 -0.0018882315 0.019700237
0.016885368 0.00021954766 -0.032982808 -0.0013133561 -0.03256456 0.0029348226 -0.017977329 0.024196157
-0.0071079805 -0.00804697 0.011423741 -0.02665695 -0.0069139004 0.010496323 0.00089755957 0.020643381
-0.017598823 0.012301477 0.0039910874 -0.022191726 0.01963262 -0.024986396 0.0062273853 -0.021587806
-0.030289896 0.0034028152 -0.035839528 0.019311417 0.009824228 -0.017456042 -0.03478809 0.020605288
0.016064795 0.02236923 -0.038771227 0.018376654 -0.0080626095 -0.019404892 -0.0024846578 -0.029273188
0.0068331715 -0.010800792 -0.0013125422 -0.0014552987 -0.010422514 0.022137517 -0.007593505 -0.0012135879
-0.023362521 -0.0021069949 0.013164881 0.0045193415 -0.012539333 0.01086519 0.014718294 -0.02892104
-0.017041242 -0.0064180056 0.0054411925 0.007853771 -0.0024501279 -0.013235826 0.0013105288 0.006202558
0.025474321 0.0035491744 -0.017650329 -0.005978057 0.00989304 -0.0076376037 -0.013601643 -0.0053606615
-0.011096976 0.010989216 -0.013760004 -0.006580684 -0.0147664305 0.023818457 0.00421092 -0.014119991
-0.0348437 -0.022076683 0.015400113 0.007211335 0.011017283 -0.022948302 0.020619664 0.007531472
0.019811038 0.009774163 0.004263308 -0.0324764 -0.0053418446 0.012188598 -0.022737347 -0.0065310467
-0.015047435 0.013722908 0.008527514 0.0036638677 0.002202104 -0.001502687 0.02088901 -0.01066835
0.0137024885 -0.025616271 -0.018238572 -0.009195594 -0.032611035 -0.0043055047 0.018744105 0.001288645
-0.0009998936 0.025514591 0.008191995 0.008733836 0.0074795727 -0.012993462 0.014582075 -3.2234722e-05
-0.015075852 -0.0064209527 -0.013700748 -0.012678904 0.018056748 -0.008736238 0.008723436 -0.016216446
0.018966287 -0.02466139 0.0068617263 0.008619817 0.00085605733 -0.017683614 -0.00091875996 -0.031644847
-0.011691855 0.010071068 -0.033365868 -0.007069791 0.03651247 -0.0045424905 -0.004635465 0.0029243855
0.017957026 -0.0035686868 -0.011474102 -0.011956444 0.0158229 0.020308109 0.019572858 -0.02948292
0.026393944 -0.0010725148 -0.020529145 -0.010811717 0.011901581 0.016335472 -0.004069952 0.023548352
0.022278965 0.019556308 -0.012797318 -0.022252755 -0.019141601 -0.011814422 0.03141558 -0.03231171
0.018745657 0.005339485 -0.0072749383 -0.0032128743 0.010866238 0.0027690807 -0.029835701 -0.025522847
0.0031400702 -0.008843495 -0.0039819544 0.030850278 0.018823916 -0.006411678 -0.0044091456 -0.0018500142

fc1.bias f4 [128]
00000000: 6fbc d6bc a7b4 62bb 7c15 8f3b 923e 2abc
00000010: 992c adbc 70fb 7f3c 0349 6a3c 39c8 49bc
00000020: 323d 8abc d6ba 97bb 1570 79bc 18a3 efbb
00000030: 504b 803c d53d b3bc f139 28bc a4ad b8bc
00000040: c3ae 7abc d913 8c3c 72c6 9d3c 752e 673c
00000050: 058b a43c f407 eebc 256b b2bc 6b78 86bc
00000060: be9f 36bc 00ef 77bc 78c3 a63b 64a1 733c
00000070: 147f 3d3c 506c 173c 4556 d1bc e3b5 61bc
00000080: d037 f5bc 1cee 893c 0a5f 8e3c 9140 6fbc
00000090: 0da2 89bc a6c9 283b 13cc c8bc f0a7 cfba
000000a0: 8230 8e3c e77a 5ebc e47b 3ebc ecbb b7bc
000000b0: a131 c33b 1e2a edbc 3470 9ebc 9745 a03c
000000c0: 9ebf d13c ff27 fdbb d04d acbc 33e5 0abc
000000d0: ee22 f23b f955 d83b 04b9 2d3c 12e4 ccbc
000000e0: 5c4f 2ebc 5992 ccbc b4f7 31bc 3436 26bc
000000f0: 1a0d a1bc f83c 4dbc 3045 86bc e81b 77bb
00000100: 5875 d83b 5575 d3bb 2abc 13bb ce1e cb3c
00000110: 55bd 263c 7471 97bc f363 6b3b 6800 123c
00000120: 8117 edb9 4c28 893c 78bc e7bb ee43 43bc
00000130: b80d 843c ddfc 33bc 407e ab3c b69e 9fbc
00000140: 3ed8 443b b120 163c 10f9 6a3b d7b2 d4bb
00000150: 6acb 01bd 6eac 36bc 000c 6e3a 57a7 6ebc
00000160: 230a 9b3c 2550 733c 1006 8a3c 7c14 c8bc
00000170: 626b 8ebc f772 01bc 5c6a 873c a983 a73c
00000180: bd6e 02bd 1e71 b33c b502 01bd f311 70bc
00000190: 2cde c0bc d452 c4bc b8f5 71bc 0e1c 683c
000001a0: 0f32 96bb 8d7a e3bc e657 01ba 3aeb 133c
000001b0: 9030 693c ec7e 063c 6b20 79bc 4f00 a23a
000001c0: 8d46 84bc daf1 953c 19e0 b6bc 2638 a1bc
000001d0: 67b6 413b 0cc5 21bc fffb b03c 096a 9abc
000001e0: ae73 3abc f96c a2bc 9bc1 66bc 0f1f 2ebc
000001f0: 71ac 50bc a40b a6bb 0b98 bebc a00c 1bbc
-0.026212899 -0.003459254 0.004366575 -0.0103908945 -0.02113943 0.015623912 0.014299634 -0.012315803
-0.016874883 -0.004630427 -0.015224476 -0.0073131435 0.015660912 -0.02188007 -0.010267721 -0.022543736
-0.0153004555 0.017099308 0.019259665 0.014110197 0.02008582 -0.029056527 -0.021779606 -0.016414842
-0.011146484 -0.015132666 0.0050892197 0.0148700215 0.011565942 0.009242132 -0.025553832 -0.013776275
-0.02993384 0.016837172 0.017379303 -0.014602796 -0.016800905 0.0025754957 -0.024511373 -0.0015842896
0.017357115 -0.013579107 -0.0116262175 -0.022428475 0.005956844 -0.028950747 -0.019340612 0.019564433
0.025604066 -0.007725715 -0.021033198 -0.008477497 0.007389418 0.0066020456 0.010603193 -0.025011096
-0.010639038 -0.024972128 -0.01086228 -0.010144759 -0.019659568 -0.012526743 -0.016390413 -0.0037705842
0.0066057853 -0.006453196 -0.0022542574 0.024794962 0.010176976 -0.018486716 0.0035917729 0.00891123
-0.00045221674 0.016742848 -0.007072028 -0.011918051 0.016119823 -0.01098558 0.020934224 -0.019484859
0.0030036117 0.009163068 0.003585402 -0.006491046 -0.03168813 -0.011149509 0.00090807676 -0.014566264
0.018925732 0.014850651 0.016848594 -0.02442383 -0.017385188 -0.007900945 0.016530208 0.020448523
-0.03184389 0.021904524 -0.031496722 -0.014652717 -0.02354344 -0.023965277 -0.014768057 0.014166845
-0.004583604 -0.027768398 -0.00049340574 0.00902825 0.01423277 0.0082089715 -0.015205483 0.0012359711
-0.016146922 0.0183038 -0.022323655 -0.019680094 0.0029558183 -0.00987364 0.021604536 -0.01884939
-0.011380119 -0.019827353 -0.014084245 -0.010627522 -0.012736426 -0.0050673056 -0.02326586 -0.009463459

fc2.weight f4 [128, 128]
00000000: ea48 03bd ae53 81bd 40b9 4abb 86d1 4abd
00000010: 6819 c6bc ce3f 4b3d 30bd 10bd 9bdb 8fbd
00000020: 6634 753d 2c66 6cbd d8ea a93d fe44 763d
00000030: e095 8f3b 9583 813d dcc1 2dba 188e 84bd
00000040: f0e1 073b abb4 f03b eed6 cdbc 835d 843d
00000050: 1050 8d3c 9247 6f3d 73cd a93d 5538 a73c
00000060: 47bb 6abd ba14 6f3d 92c8 96bd 008d f93b
00000070: f368 afbd f90b b43d d3e1 95bd ae71 9e3d
00000080: eeab 8fbd 20ab 63bb 14cd 55bd 4dfb 24bd
00000090: 330d 8b3d 079d 7a3d 6d4f 8abd 2347 a33d
000000a0: 800a 1dbb 6b8f 82bc f065 02bc 0fb7 a43d
000000b0: e36c a83d 463c 683d 35b6 3cbd d4a2 38bd
000000c0: 9f72 2cbd 0e9b 6b3d c26c b5bc 5a87 9fbd
000000d0: 5b3b 4abb 6392 dfbc 46a9 233d c731 953d
000000e0: e73b aabd dfd8 8b3d 7573 003d a5f7 d7bc
000000f0: 42cb 383d 50dd 443c c99b 213d 6e62 043d
00000100: aec6 313d 8c20 d2bc c0d1 a83d 9ee9 243d
00000110: 3b20 4abd d3fa 503d fbc0 7e3d 0fda ac3d
00000120: d6fc 22bd 1b7e 07bd ad15 8abd dc75 d43c
00000130: 7c59 803d 6a9f 273d 8400 8fbc b8b6 babd
00000140: 265c b1bc d806 a03c b94d 9d3d 607f 5c3c
00000150: 8266 57bd 0122 843d 74aa fdbc 1e09 71bd
00000160: 06d0 a43d 5058 b0bd 71df 2dbd 1f30 933d
00000170: 58d2 36bc e2cd 4c3d fe06 92bd 610e 003d
00000180: aa17 c83c 9d83 64bd b7f9 adbd ff8b 603d
00000190: ea7d 453d ce90 ebbc 386b 9cbc b004 81bd
000001a0: 51ee 4cbc ff9a 57bd 5f34 273c baf4 473d
000001b0: 3a42 aabd 8307 923d 7852 d9bc aa69 2f3c
000001c0: 2e74 da3c 45b1 a7bd 3131 47bd f033 cdbc
000001d0: ff17 813d b475 9c3d bb8e 3ebd b085 5b3c
000001e0: ce74 9abd 8d69 973d 572d 433d 00a3 a7bc
000001f0: c618 163b 1857 843c f078 cebb 3721 53bd
00000200: 2c5f 0a3d 9e5b b83b 7e63 4a3d 84c2 b3bc
00000210: 271f 90bd 8e95 8fbd f03d b83d 3a44 97bd
00000220: b27f a4bd e4b5 9dbc 815a 61bd e737 913d
00000230: 207c ab3c 35c5 9b3d 1da8 023d 80ad 2fbc
00000240: 0bfe b13b c044 adbd d93b 2bbd 6e94 203d
00000250: d8ad 7ebd 3578 32bd ca3b 663d daf4 ffbc
00000260: d57f abbd 473f 97bd d818 b03c 24b7 b2bc
00000270: 5051 8d3d 6296 173d 253c a13c 2b6c f83b
00000280: 26f5 cb3c fc58 b13c c57d 10bd 5a8e 513d
00000290: a058 83bd 65f8 95bd 499b 0cbd d82d 6dbd
000002a0: c445 9abc 7cd6 c93c 4946 62bd a63f 673d
000002b0: 46c8 26bd fda9 fdbc c3f5 053c f019 1ebd
000002c0: 9aca 613d 9aba 7c3d 46f1 6d3d 8ee2 0a3d
000002d0: 5f15 463c 3ede 213d f8c2 10bc b1a5 6abc
000002e0: ce0a 593d efc9 9a3d 4aec 363d 7951 943b
000002f0: 484d 713c 73c5 893d 3956 353b b73c a73b
00000300: c8de 5d3c 40a3 9d3c f7a5 723d 7c89 82bd
00000310: 2db0 47bd bf24 983d 80bf a43d 62c6 94bd
00000320: a379 37bd 8049 073d 5070 99bb 209b 83bd
00000330: 24cf 2fbc 231f c93c 348d 18bd 81da c3bc
00000340: 16e0 a23d fca0 993d 6f5f 62bd 2900 27bd
00000350: 8d3b bcbc b049 62bd c062 f5bb 6539 74bd
00000360: 6a9a 453d c32b efbc 74f1 863c 3a86 283d
00000370: 07f8 9f3d 00b1 bcba 6eff 3a3b 3991 b93d
00000380: eabb e63c 58e6 ab3c 8e84 0b3b 69cf 2cbd
00000390: 0e6f 61bd 0c28 73bd eef8 f6bc 87a2 503d
000003a0: 3274 023d 6a76 a53d f53c 9ebc ea30 25bd
000003b0: 3e92 4bbc dabe a2bd 7e1a 1f3d b566 9ebd
000003c0: 5611 92bb b0b1 7cbd 6091 f8bc 5d20 dabc
000003d0: 1cdc a73c 9c45 66bd be3e 1f3d 1d1c 3ebd
000003e0: 7067 a0bd 9b78 01bd b972 a5bc 01d3 e13c
000003f0: 33c8 7cbd 72c4 573d 8786 a53b 029a 40bd
-0.03205196 -0.06314789 -0.0030933172 -0.049516223 -0.024182037 0.049621396 -0.035336673 -0.07024308
0.059864424 -0.057714626 0.08296746 0.06012439 0.00438188 0.063239254 -0.00066283136 -0.06472415
0.0020734034 0.007345756 -0.0251269 0.064631484 0.01725009 0.058417864 0.082911395 0.020412603
-0.057307508 0.058369376 -0.073624745 0.0076156855 -0.08564939 0.08791346 -0.07318463 0.077365264
-0.07015215 -0.003473945 -0.05219753 -0.04027872 0.06789627 0.06118491 -0.067534305 0.079725526
-0.0023962557 -0.015937528 -0.007958874 0.08042728 0.082238935 0.056698106 -0.046072204 -0.04507716
-0.0421015 0.05752092 -0.022146586 -0.07789488 -0.0030858133 -0.027291482 0.039956354 0.07284885
-0.08312207 0.06828474 0.03136011 -0.026363203 0.045115717 0.012015656 0.03945521 0.032320432
0.043402366 -0.025650285 0.08243132 0.040261857 -0.049347144 0.051020455 0.06219576 0.08440029
-0.039791904 -0.033079248 -0.067424156 0.025935106 0.06267068 0.040923513 -0.0174563 -0.09116882
-0.021650385 0.019534513 0.0768084 0.013458103 -0.052587993 0.06451798 -0.030965067 -0.058846585
0.0804749 -0.08610594 -0.04244942 0.07186913 -0.011158548 0.050001033 -0.0713024 0.031263713
0.024425346 -0.05578958 -0.08494895 0.05482101 0.048215784 -0.028755572 -0.019094095 -0.06299722
-0.012507991 -0.05263805 0.010205357 0.048817374 -0.08313413 0.07130339 -0.026528582 0.010706345
0.026666727 -0.08188108 -0.048630897 -0.02504918 0.06303405 0.076396376 -0.046522837 0.013398573
-0.0754181 0.07393179 0.04765066 -0.020463467 0.002290295 0.01615481 -0.006301038 -0.051545348
0.03378217 0.005626156 0.04941129 -0.021943338 -0.07037192 -0.07010947 0.08996189 -0.0738606
-0.080321684 -0.019251771 -0.055017952 0.07090741 0.02093321 0.07605974 0.031898607 -0.010722518
0.0054318956 -0.08460379 -0.041805122 0.039204054 -0.06217751 -0.04357167 0.056209363 -0.031244684
-0.083739914 -0.07385116 0.021496221 -0.021815844 0.06900275 0.03700865 0.019682 0.007581254
0.02489717 0.021648876 -0.035276193 0.051161148 -0.06413388 -0.07322768 -0.03432778 -0.057905048
-0.018832095 0.024638407 -0.05524281 0.056457184 -0.04071834 -0.030964846 0.00817627 -0.038598955
0.055124857 0.061701395 0.058091424 0.033907466 0.012090056 0.039518587 -0.008835547 -0.0143217305
0.05298882 0.07558047 0.044658937 0.004526314 0.014727898 0.067271136 0.00276698 0.0051036733
0.013541885 0.019242883 0.059240308 -0.06373879 -0.048752 0.07428884 0.08044338 -0.07264401
-0.044793736 0.03302908 -0.004682578 -0.06426072 -0.0107305385 0.02455098 -0.037244037 -0.023907902
0.07952897 0.075014085 -0.055266794 -0.040771637 -0.022977615 -0.055246055 -0.0074885786 -0.05962505
0.048242964 -0.029195672 0.016472556 0.041143633 0.07810979 -0.0014396012 0.0028533596 0.09060902
0.028165776 0.02098386 0.0021288726 -0.04218999 -0.05503755 -0.059364364 -0.030147996 0.05093625
0.031849094 0.08079226 -0.019316176 -0.04032985 -0.012425004 -0.07946558 0.038843624 -0.077344336
-0.004457633 -0.061692894 -0.030342758 -0.02662676 0.020490699 -0.05621873 0.038878195 -0.04641353
-0.07832229 -0.03160916 -0.020196306 0.027566435 -0.061714362 0.05267758 0.0050514373 -0.047021873

fc2.bias f4 [128]
00000000: bea0 a7bd 2b07 a6bd f43f 94bc c035 44bd
00000010: b4f5 06bd c2dc abbd 4ced b5bc 5367 9c3d
00000020: d330 f7bc 7b95 583d 9762 98bd 7dcf b9bc
00000030: 9915 acbc 1fde 2cbb dc98 04bd 537c 81bd
00000040: 2458 a1bc c2e3 823d 51fc 44bd e1f8 173d
00000050: a5bf 8b3d ace2 59bd 03ee 9ab9 9a0b 7b3d
00000060: 949d b2bd 31da 4d3d 4bb0 893d 1b02 6c3d
00000070: 091c d4bc fd13 3b3d 9de6 993d 6f55 273d
00000080: ca63 0b3d ad60 04bd 4c46 b8bb aa50 b43d
00000090: f931 18bd e1f8 ebbc 48c2 bc3d 54bd a4bd
000000a0: 2654 bb3c 658d 113d b93f 2f3d f29d 0d3d
000000b0: 91b5 b13d 390d 6abd f2dd b0bd 0787 18bd
000000c0: 1aba a33d b2f7 97bd 951f 53bc 5cdb 79bb
000000d0: f83a c03c 0b3c 24bd b139 1a3d 2398 f5bc
000000e0: a1ae 583b 65a3 a3bc 4197 023d c84e 2bbb
000000f0: 7fc5 8d3c 0455 babd ec36 8a3d 132c 3dbd
00000100: d15a 913c ec18 373d f53e d8bc de8f a1bd
00000110: d646 0abc b6df 46bc f155 8fbc 04b0 8c3d
00000120: 200e db3b 4269 173d ebee 31bc 6864 1f3d
00000130: c834 67bd beb4 963c 13ee 923d f7ed 2a3c
00000140: b3e8 a1bd 6cb4 81bd a421 c93b 8628 b53d
00000150: 0691 83bd fba0 90bd c76b 3fbd 4e83 3dbb
00000160: 4010 ac3d bda9 4c3d c1d3 5b3b 03b9 1fbd
00000170: e896 98bc f53f b7bd 4a3b 64bd 179b 43bc
00000180: 660e 9e3d 8135 4d3c 25e9 67bd 8693 773d
00000190: 2f39 c43c 98b7 c8bc aa3d 2d3d 1f72 4a3d
000001a0: 5162 913d 3a2f 81bc 6a3e 8c3d 74d5 f43c
000001b0: 90f3 c2bc 8e6c 92bc 94a7 443d 6f42 d53b
000001c0: de91 92bb d2e3 3e3d 1431 e23c cee6 a8bd
000001d0: 16f8 f6bc 928b 26bd ef76 b6bd eb79 83bb
000001e0: bc8d 44bc 8ee8 843d 0773 f53c 7188 1e3d
000001f0: 068e 6bbd 0aed 7ebd 0d80 a23d 3bbb 9c3d
-0.08184956 -0.08106836 -0.018096901 -0.047902822 -0.032949165 -0.083917156 -0.022207879 0.07636895
-0.030174648 0.05287693 -0.074406795 -0.022681946 -0.021006392 -0.0026377512 -0.03237234 -0.06322541
-0.019695349 0.063910976 -0.04809219 0.037102584 0.06823663 -0.053194687 -0.00029550501 0.06129036
-0.08721462 0.05025691 0.06723078 0.057619195 -0.025892274 0.04567336 0.07514689 0.04085296
0.034030713 -0.03231876 -0.0056236144 0.08804448 -0.037157033 -0.028805198 0.09216744 -0.08043924
0.022867274 0.035535235 0.04278538 0.034574457 0.08677209 -0.057141516 -0.08636083 -0.037238147
0.079944804 -0.07420291 -0.012885948 -0.0038125133 0.023465618 -0.040096324 0.037652675 -0.029979771
0.0033063071 -0.019975374 0.03188253 -0.0026139487 0.017306088 -0.09098247 0.06748757 -0.04618461
0.0177435 0.0447015 -0.026397208 -0.078887686 -0.00843974 -0.012138298 -0.017497035 0.0686951
0.0066850334 0.036965616 -0.010860185 0.038914114 -0.05644682 0.018396731 0.07174315 0.010432712
-0.07905712 -0.06333241 0.0061380435 0.0884562 -0.064241454 -0.070619546 -0.046733644 -0.0028917375
0.08401537 0.049966563 0.0033542963 -0.0389948 -0.018626645 -0.08947746 -0.055720605 -0.011938832
0.0771759 0.012524963 -0.05661883 0.060443424 0.023953049 -0.024501607 0.042295136 0.04942524
0.070988305 -0.01576959 0.06847842 0.029886939 -0.02379778 -0.017874029 0.048011377 0.0065081636
-0.004472955 0.046603985 0.027611293 -0.082471475 -0.030147593 -0.04066045 -0.089094035 -0.0040123365
-0.011996683 0.06489669 0.029962076 0.03870434 -0.05750849 -0.062237777 0.0793458 0.07652899

fc3.weight f4 [2, 128]
00000000: 1d82 ba3c 3358 87bd 80bd 07bd a57c d43c
00000010: 51be 8bbc 0036 43bd 6b5b 0b3d 43e3 883b
00000020: 171e 033d 0b96 75bd 4ce8 8b3c c442 2fbd
00000030: 814a 893d d3dd 6d3c 59c5 c3bb 0179 acbd
00000040: 1eb3 81bd 80c6 93bd f6eb 93bd 5f25 9fbd
00000050: fbe5 87bb 0f4a 37bc 81cd 67bc d982 b33d
00000060: 2d20 e43c 4cc0 73bd 9b0f aabd e709 4a3d
00000070: bde6 b23d 6f2c 293d d109 3dbc 73ba 18bc
00000080: 4155 a23d 528d ca3c 855f b0bc 1d4f b6bc
00000090: 4835 56ba bc0e b3bc a2d4 263d 7f4b 1bbc
000000a0: 13b9 6ebd cb97 09bd 0d12 bc3c 79c3 823d
000000b0: 217a 6b3d 22bc 8cbd 95af 8b3d 4248 903d
000000c0: 22de 1cbd 8107 77bd 96b6 7f3d f98b 60bc
000000d0: 9724 1abc 59ac 383d cdd3 d43c 70f3 713b
000000e0: 7f7e 143d 970e b23d a4dd 34bd c6c8 633d
000000f0: 0c5b 5d3d 4fd1 aabd 29ea c1bc eb96 49bd
00000100: 63a6 1cbd 6f97 873d 347a 7b3d 7e5f 4dbd
00000110: c6d7 f3bc f06c 573d 391c d93c 477a b23c
00000120: f4a9 1cbd 566b 363d 6459 913c b3cc b23d
00000130: 2bbe a3bd f6d5 6e3d 5c22 943d 5815 003d
00000140: 22cb e33b 5267 823d 79b0 a53d cad8 8dbd
00000150: edae 8dbd 6668 ea39 8516 b63d 0a35 cebc
00000160: 1c1b 9abd 554f da3c 2b6e 8abd ea50 8cbd
00000170: 41f9 dd3a 8679 02bd c67b 8f3d 342d 68bd
00000180: 06c0 5a3d e177 08bd e6b1 163d 3351 61bd
00000190: af58 7abd f928 5c3d 7b54 5abd 6b58 8a3d
000001a0: 71b8 b53d 6afc 4dbc a607 353d 7437 79bd
000001b0: ea4f 29bd 40c1 dabc ccd3 8fbd e5e5 3bbd
000001c0: c8f4 6e3c 4039 d2b8 1ee9 edbc 4287 e8bc
000001d0: a7d6 5a3b 9046 c33c 3cbe 5bbd f20f f6bc
000001e0: d400 67bd 77e5 c33b 4df8 54b9 ee4e 9d3d
000001f0: e2b6 563d a270 9fbb 6636 a3bd a54b 35bd
00000200: d490 383d d97b 80bb 3b8b e3ba 294a 833d
00000210: 7084 433d ba0b 713d a6aa 223d c807 853d
00000220: e4bd a83c d9f6 a33d ff92 aa3d da25 713d
00000230: 2671 823c 0b46 93bc 4539 283c 1643 453d
00000240: b238 213c c6e0 b7bc f36a 6d3d 5305 4fbd
00000250: 60ea d5bc 6f1c 9cbd 5fba 2cbd 5bdf 81bd
00000260: ba29 a13d bea8 003c ba9d 2d3d 3c48 763d
00000270: f15a 7a3d 4d2d 0d3d 4a26 4d3c 94c7 0cbc
00000280: 2204 14bd c002 9ebd 1db9 893d 82e3 51bd
00000290: baff b63c a0b1 823c ad06 adbc 8dc2 b0bd
000002a0: ca81 87bc fc35 67bd 7c6e 25bd c110 8fbd
000002b0: 9737 d6bc 6cf5 4d3d 3a8d e7bc e92e 2a3d
000002c0: a045 7fbc 5a52 2d3c d670 8dbc cd2a 173d
000002d0: 3855 81bc bbc2 31bd b68b 84bd f85f 853b
000002e0: 7744 0c3d 7bbd 71bd 0ece 9c3d efee 193c
000002f0: d66d edbc 689e 113d b9f0 e33c b16d 50bd
00000300: 7bc9 62bc b49a 803d c50d 5dbc d94a 0b3a
00000310: 3c68 55bc a30c 58bb 8c02 8dbd 0214 82bc
00000320: f848 9cbc 9a32 89bd 4dee 0a3d 098f a4bd
00000330: e76f 83bd 7377 10bd 0092 a3ba cdae 6e3c
00000340: 0b56 95bd 434a 02bc a940 153d 8b49 afbd
00000350: a8d5 bf3d 12a0 73bb 437b 973c eedb 833c
00000360: 4be0 b33d 3bca 693d 1e25 3a3d c08b a83d
00000370: 950d 4dbd 5778 45ba 2570 1fbd a2c9 6bbd
00000380: 667a aa3c 3e3f 84bd 3d99 9c3d 840a 823c
00000390: c60b dc3c fc1d 9fbd cf92 9b3b 8512 5d3d
000003a0: e46f bc3c 6054 26bd 5833 c3bc 4008 50bd
000003b0: 0b12 5ebd 7979 693d b51c 3a3b 0a39 063d
000003c0: 0361 36bd b2f9 41ba 9bc1 fc3c 00e7 8cbc
000003d0: daa0 37bd fe17 39bd f7e0 6b3b 9258 1abd
000003e0: e56b 80bd de79 8bbd 7b3d 7fbd d566 c63a
000003f0: c703 35bd b787 40bd 8fac fc3c 8807 bd3c
0.022767121 -0.066086195 -0.033139706 0.025938341 -0.017058523 -0.04765892 0.03402273 0.0041774823
0.032011118 -0.059957545 0.017078541 -0.042788282 0.067036636 0.014518219 -0.0059744534 -0.08421517
-0.06332992 -0.07215595 -0.0722274 -0.077708 -0.004147289 -0.011187091 -0.014148117 0.087651916
0.027847374 -0.05950956 -0.08303758 0.04932585 0.08735416 0.04130214 -0.011537985 -0.009321797
0.07926417 0.02472559 -0.021529922 -0.022254521 -0.00081713917 -0.021857612 0.040730126 -0.009478449
-0.05828197 -0.033592027 0.022957826 0.0638494 0.057489518 -0.06871821 0.06820599 0.07045032
-0.03829778 -0.06030989 0.062429987 -0.013705247 -0.009408138 0.04508624 0.0259799 0.0036918782
0.03625345 0.08694189 -0.044156685 0.055611394 0.054041907 -0.08340704 -0.023671227 -0.049216192
-0.038244616 0.066206805 0.06139584 -0.050139897 -0.029765975 0.052594125 0.026502715 0.021786822
-0.038248017 0.044535957 0.01774282 0.087304495 -0.07995256 0.058309518 0.07233116 0.031270355
0.0069517056 0.06367363 0.080903 -0.06926115 -0.0691813 0.0004470974 0.08891014 -0.025171775
-0.07524702 0.026649157 -0.06759294 -0.06851371 0.0016935245 -0.031854175 0.0700603 -0.056683734
0.053405784 -0.03331745 0.03679075 -0.05500908 -0.06111973 0.053750012 -0.053303223 0.06755146
0.0887307 -0.012572387 0.044196747 -0.0608439 -0.041335978 -0.026703477 -0.07022819 -0.04587354
0.014584728 -0.00010024244 -0.029041823 -0.028384808 0.0033392103 0.023837358 -0.05364822 -0.0300369
-0.056397274 0.005978282 -0.00020310395 0.0768107 0.052420504 -0.004865722 -0.0796936 -0.044261593
0.045059994 -0.003921014 -0.001736022 0.06410629 0.047733724 0.058849074 0.039713524 0.06495625
0.02059836 0.08006067 0.083288185 0.05887399 0.015923094 -0.017977735 0.01026756 0.04815968
0.009840177 -0.022446048 0.057963323 -0.050542187 -0.026112735 -0.07622611 -0.042169925 -0.0634143
0.07869287 0.007852731 0.042386748 0.06012748 0.061121885 0.03446703 0.012521336 -0.008592505
-0.036136754 -0.07715368 0.06724761 -0.05124236 0.022338737 0.015953839 -0.021121347 -0.086308576
-0.01654138 -0.056447968 -0.04038857 -0.069856174 -0.026149554 0.05028288 -0.028265584 0.041548643
-0.015580565 0.010578716 -0.017265718 0.036906052 -0.015787706 -0.0433986 -0.0647196 0.0040702783
0.03424498 -0.059018593 0.07656489 0.009395345 -0.028983038 0.03555146 0.027824746 -0.05088586
-0.013841982 0.06279507 -0.013492052 0.00053135824 -0.01302534 -0.0032966516 -0.068852514 -0.015878681
-0.019077763 -0.066991046 0.033918668 -0.08035094 -0.06417828 -0.035270166 -0.0012479424 0.014568043
-0.07291802 -0.007952276 0.036438618 -0.08558949 0.093669236 -0.0037174267 0.018491393 0.016096082
0.08783015 0.057077628 0.045445554 0.0822978 -0.05006178 -0.00075328856 -0.03892531 -0.05756534
0.020810317 -0.06457375 0.076464154 0.015874155 0.026861083 -0.07769391 0.0047477256 0.05397274
0.023002572 -0.04060781 -0.023828194 -0.050789118 -0.054216426 0.05700061 0.0028398458 0.03276924
-0.04452611 -0.0007399573 0.030854037 -0.017199993 -0.044831134 -0.045188896 0.0035992244 -0.037682123
-0.06270579 -0.06810354 -0.06231449 0.0015136848 -0.044193055 -0.047004428 0.030844001 0.02307488

fc3.bias f4 [2]
00000000: 88ca 773d daa0 0a3d
0.060495883 0.033844806
