DNNmodel.pth (torch, 736338 bytes, 6 tensors)

fc1.weight f4 [128, 1300]
00000000: dcde 1c3c 4a82 dfbc 7ef8 9bbc 32d4 8fbc
00000010: d055 bebb ae1a d83c 8e1f de3c 5fae d6bc
00000020: e071 b93c 177e 4dbc d0e5 f1ba 4099 83bc
00000030: 8430 a1bb c250 8f3c c4e6 42bc ec96 453c
00000040: 8426 06bc 164f e2bc 7047 fb3b a8f6 9f3b
00000050: 71ec 95bc ca5c bebc 2c97 c2bc 5809 4abb
00000060: 88d2 cf3c d69a b53c 6896 73bb 5ca8 3cbc
00000070: c0f0 9b3a ded2 c0bc e012 d33c b079 123c
00000080: 943d 283c 3899 d8bb 5053 183b cc6a 9abb
00000090: 2a84 a1bc f1f3 79bc 80fc 1339 0451 223c
000000a0: 9c86 be3c 0cf0 91bc 14dc b4bc e8b7 b4bb
000000b0: 8014 543a 2985 73bc 2870 1fbb 302c eb3b
000000c0: f846 2ebb e2d1 9c3c 56e5 b63c 525b c9bc
000000d0: ceee 24bc e08d c93b 54b5 373c 640d ad3c
000000e0: 28e4 933c 077a d6bc 28ed b4bb 22ee 89bc
000000f0: 904b cebb d21b 91bc 0847 613c 8485 0abc
00000100: a8e2 e83b 9803 b6bc 181b 313c 283d 15bb
00000110: 86d2 8c3c 0b25 78bc 00a1 703b 60b5 bdbc
00000120: 109f 84bc 9853 f93b fe35 d6bc 50ee efbb
00000130: eac0 bd3c 5bf2 c9bc 363e c03c 7c1d 103c
00000140: 00b2 953c 72e7 21bc 309c bc3b 9abf 883c
00000150: 70ac 973a 7051 363c c099 df3c bc31 c5bc
00000160: 001d ec39 78db f83b 802f abbb 1f28 c3bc
00000170: b0c5 a3ba 3a2f c73c ec0d babb 3c36 543c
00000180: 1ca7 1f3c 7088 39bb ec53 303c d401 aabc
00000190: 3a9c 993c b0c1 683b a6c4 41bc ccbe 16bc
000001a0: 6e42 2abc 5860 b63b 50dc d63a 2084 66bb
000001b0: 70b5 9a3b b2b5 c83c b3da a4bc 8037 ebb9
000001c0: 03c7 d9bc a849 fcbb a85a d83c 98f9 69bb
000001d0: 989f 453c fe4a 85bc d09a b33b 8f1d 94bc
000001e0: 527b 1abc 7a18 883c 5292 903c 40a6 d83b
000001f0: aa8d 9c3c 7cb9 acbc 10dd 07bc 783a 8cbc
00000200: 0858 ce3b 56fd 9b3c 3a2d a23c 8321 a2bc
00000210: 0ca7 1cbc 70ea e03a d8ba b53c ca68 a73c
00000220: c5e6 d0bc 8501 bcbc 3043 21bc 0db7 bcbc
00000230: 2be8 c5bc 5745 b8bc 1c37 dabc 247c 44bc
00000240: 78cc cabb 42d2 973c f65b a83c d05b 613c
00000250: 582b 393b 20bf ce3c feaf a93c c464 213c
00000260: 006e 643a b80f 8e3c 2c5d 643c f440 1d3c
00000270: 501f 023c 7897 ff3b 4ccc d53c 30d6 c4bb
00000280: c833 ba3b 9022 9abc 0e77 57bc 8240 32bc
00000290: 9075 943b 6aac bcbc 6095 0f3a 16a2 91bc
000002a0: 2c67 423c d0aa b53b 94e2 a93c e5e0 6cbc
000002b0: fcc0 7a3c 4092 b03b f6a5 a03c 1abc 833c
000002c0: 0427 e8bb ce3d 8f3c 82da d3bc f858 d63b
000002d0: 03cd 95bc 9d3f 63bc aa5f a8bc 6056 57bb
000002e0: 48ac cf3b cc29 8ebc a070 6f3c 50bf 46bb
000002f0: f8fe 733c 6586 65bc 28af 4cbc 68de 92bc
00000300: 1c11 05bc a46a d6bc c0e5 b5ba 0ad5 b3bc
00000310: 85ca 79bc f076 eabb 3807 043b 1881 0d3b
00000320: e8f4 d03b b087 d63c cc96 49bc 58ff 263c
00000330: 66cd 0bbc 2046 18ba 8211 d23c e68b 833c
00000340: 3c97 58bc 7b8a a1bc 50e2 ac3a f013 c63a
00000350: 805a 0f3c 88de 3bbc c078 003c d816 433c
00000360: 2cb0 f5bb facc 6abc 4c99 c43c a02c 46ba
00000370: 909c 2d3b 98b4 78bb 803d 5c3a b828 933b
00000380: 0026 76bb 9472 de3c 1c97 2ebc 28cd 6c3c
00000390: 52c5 a2bc a093 aebc ac3d 8fbc 80e8 453a
000003a0: 3a79 a03c fec6 b03c db50 d0bc 20da debc
000003b0: a886 5e3c 906d c13a 8024 db3a 385f 72bb
000003c0: 50b1 65bb accd b7bb 7c1e 7b3c f03c 4cbb
000003d0: a41c 3abc 487a 1dbb 6ef0 b6bc 1085 5c3b
000003e0: 023a 88bc 021b 62bc f0d6 a5bc 5a5d a4bc
000003f0: b04c 7d3b a86d 44bc 04ac 2e3c 3fc0 7dbc
0.009574618 -0.027283806 -0.019039389 -0.017557237 -0.0058085695 0.02637991 0.027114656 -0.026206193
0.022637308 -0.012542269 -0.001845533 -0.016064286 -0.0049191136 0.017494563 -0.011895839 0.012059908
-0.008187894 -0.027625602 0.007668428 0.0048816986 -0.01830122 -0.023237605 -0.023753725 -0.0030828323
0.025368944 0.022168558 -0.0037168507 -0.011514749 0.0011897311 -0.02353805 0.025765836 0.008940145
0.010268588 -0.006610062 0.0023243017 -0.004712438 -0.019716341 -0.015255914 0.00014113076 0.009907011
0.023257546 -0.017814659 -0.022077598 -0.0055150874 0.0008090213 -0.014863291 -0.0024328325 0.0071768984
-0.0026592594 0.019143049 0.022326153 -0.024579678 -0.010066701 0.006150946 0.011212666 0.02112455
0.01805313 -0.026181234 -0.0055214353 -0.016837183 -0.006295629 -0.017713461 0.013749845 -0.008454684
0.0071070977 -0.02221851 0.010809682 -0.0022772048 0.01719023 -0.0151455505 0.0036717057 -0.023157775
-0.016189128 0.007608842 -0.026148792 -0.0073221102 0.023163278 -0.024651697 0.023467164 0.008796092
0.018273354 -0.009881841 0.0057559237 0.016692925 0.0011571776 0.011127815 0.027294993 -0.024071567
0.00045035034 0.007594522 -0.0052241683 -0.023822842 -0.0012494829 0.024314512 -0.005677929 0.012952384
0.009744432 -0.0028310083 0.010762196 -0.020752825 0.018751252 0.0035515837 -0.01182667 -0.009200763
-0.010391815 0.0055656843 0.0016392563 -0.0035173967 0.004721336 0.024500702 -0.020123815 -0.00044864044
-0.026584154 -0.00769921 0.026410416 -0.0035701748 0.012061976 -0.01627111 0.0054811016 -0.0180805
-0.009428816 0.016613234 0.017647896 0.0066116154 0.01911052 -0.02108454 -0.0082924515 -0.017117724
0.0062971152 0.019041698 0.019796956 -0.01979137 -0.009561311 0.0017159712 0.02218382 0.02043571
-0.025500664 -0.022949943 -0.009842679 -0.023036504 -0.024158558 -0.022494001 -0.026637606 -0.011992488
-0.0061889254 0.018532876 0.020551663 0.0137548 0.0028254595 0.02523762 0.020713802 0.009850685
0.0008713901 0.01734148 0.0139382295 0.009598006 0.007942036 0.007800039 0.026098393 -0.0060069785
0.0056824423 -0.018815309 -0.013150943 -0.010879638 0.004530616 -0.023031432 0.00054772757 -0.017777484
0.011865418 0.005544044 0.020737924 -0.014457916 0.0153048 0.005388528 0.019610386 0.016080905
-0.007084729 0.017485525 -0.025861029 0.0065413676 -0.018286234 -0.013870147 -0.020553429 -0.003285788
0.006337676 -0.017353915 0.014614254 -0.0030326433 0.014892332 -0.014009093 -0.012492932 -0.017928317
-0.008121755 -0.026173897 -0.0013877675 -0.02195217 -0.015246038 -0.0071552917 0.0020145904 0.0021591838
0.0063768514 0.026187748 -0.012304019 0.010192715 -0.0085328575 -0.0005808789 0.025643114 0.01605792
-0.013219651 -0.019719353 0.0013190005 0.0015112143 0.008749604 -0.01146663 0.007841289 0.011907302
-0.007497808 -0.014331097 0.023998879 -0.000755975 0.0026491024 -0.003794944 0.0008401498 0.004490938
-0.003755927 0.027154244 -0.0106561445 0.01445321 -0.01986948 -0.021310627 -0.017485462 0.0007549599
0.019589055 0.021579262 -0.02542918 -0.02720362 0.013581909 0.0014757384 0.0016719252 -0.0036983024
-0.0035048313 -0.005609235 0.015327092 -0.0031164251 -0.0113593675 -0.0024029184 -0.022331443 0.0033648647
-0.016629223 -0.0138003845 -0.020244092 -0.020064045 0.0038650446 -0.011989035 0.010661129 -0.01548773

fc1.bias f4 [128]
00000000: b229 ce3c c8ef 123c e0ff 663b 3015 a8ba
00000010: 423d d43c 11b4 39bb 880d f6bb 18bd 8dbc
00000020: 4a42 c03c edf6 913c 2e89 ad3c b9e9 13bc
00000030: 6fcb e5bc 70ed d1ba e80d 9dbc 1a6e 993c
00000040: d7e5 7f3b 0317 05bd 9212 9fbc 61ed 3d3b
00000050: d0b6 783c 38a3 75bc cf33 52bc c056 51bb
00000060: 8108 833c 4bdb 67bb 18fb 8dbc 8cc6 5cbc
00000070: b501 883c 14db 29bb 4220 46bc fc11 16bc
00000080: be2e 883a 30f8 00bd 3610 9cbc d782 c9bc
00000090: 6ff0 763c 406f 753b 265f d93c 17a7 d6bc
000000a0: e29d a13c 62a1 25ba 8b58 eabb 547f 9a3c
000000b0: 864b d83b 0e1e 263b ee07 c0bc a8fa cdbc
000000c0: 2ce2 d9bb d1a4 d23c 8280 13bd 071f d3bb
000000d0: 547b 073c c749 963c c515 aebc d919 02bc
000000e0: f08e 0dbd be03 f2bc 0863 cbbc 047d 1abc
000000f0: 24d4 773b 7b6f 9ebc 13ed e6bc c7c1 89bc
00000100: 0ea1 e8bc 3dec 653c 5207 5fbc 6a85 703c
00000110: c184 01bd c012 ac3a f444 b83c 3df2 65bb
00000120: 8ec8 1bb9 6034 983c 1d38 9cbc 3588 163a
00000130: 6898 ddbb 6369 a0bc 6830 e33b 2ef5 1e3c
00000140: 5cac 8bbc e250 4f3b 3817 e53b 50e1 d93c
00000150: a003 b5bc d937 203b b435 a13c ef2c 87bc
00000160: 58fb a33b 7af7 d1bc e06a e03a 46a5 8f3b
00000170: e695 2abc 964c 28bc c641 b43c b8c0 c9bc
00000180: 24af 2c3c 4326 1bbc 34e0 a6bc d54a 7cbc
00000190: a866 8a39 44f4 91bc 5e36 ff3b bf8a 55bc
000001a0: d61d 753c e0fb cb3c 20c7 aabc d01b 863c
000001b0: 22f2 34bc 9544 aa3c d636 863c e82d 64bc
000001c0: b582 d63c 002e a13b 7d1c 773b 5d5a 9a3c
000001d0: 9ea6 913b 97f8 9e39 b54f 41bb 367a a0bc
000001e0: 2b95 c7bc da40 42bb 9eb3 ad3c e561 92bc
000001f0: fa46 613c 350d e33b deed 633c 738e c13b
0.025166366 0.008968301 0.0035247728 -0.0012823697 0.025908116 -0.0028336088 -0.0075089373 -0.017302081
0.02346911 0.017817939 0.021183576 -0.009027892 -0.028051106 -0.0016016196 -0.01917167 0.018729258
0.0039046907 -0.03249265 -0.019418035 0.00289806 0.015180305 -0.014992528 -0.012829735 -0.0031942576
0.015995266 -0.0035378512 -0.017331645 -0.013475072 0.016602376 -0.0025917934 -0.012092652 -0.009159561
0.0010389907 -0.03148669 -0.019050699 -0.024598522 0.015071972 0.0037450343 0.026534628 -0.026202722
0.019728605 -0.00063182984 -0.0071516684 0.018859543 0.0066008 0.0025347504 -0.023441281 -0.025143936
-0.0066492762 0.025713356 -0.036011226 -0.0064429077 0.00826915 0.018345727 -0.021250615 -0.007940733
-0.034560144 -0.0295428 -0.024827495 -0.00942922 0.0037815655 -0.019340267 -0.028189218 -0.016816033
-0.02839711 0.014033374 -0.013612585 0.014680246 -0.031620745 0.0013128147 0.022493817 -0.0035087012
-0.00014856664 0.018579662 -0.019069726 0.00057423423 -0.006762553 -0.019581502 0.0069332607 0.00970201
-0.01704996 0.0031633903 0.0069912933 0.026596695 -0.022096455 0.002444735 0.019678928 -0.016500918
0.0050043277 -0.025630701 0.0017121695 0.004383716 -0.010411715 -0.010272166 0.02200402 -0.024628028
0.010539804 -0.0094695715 -0.02037058 -0.015398701 0.00026397896 -0.01781667 0.0077884635 -0.013033568
0.014960727 0.024900377 -0.020846903 0.016370684 -0.011044057 0.020784656 0.01638357 -0.0139269605
0.026185373 0.0049188137 0.003770619 0.018841917 0.004444911 0.00030321322 -0.0029496972 -0.019589525
-0.024363121 -0.0029640705 0.021203812 -0.017868945 0.013749832 0.0069290646 0.013911692 0.005906874

fc2.weight f4 [128, 128]
00000000: 40a3 ef3b b25d 72bd 406d 9cbc 9a26 493d
00000010: 289a a63d 71a3 0ebd 5b5e 37bd 6a4f a5bc
00000020: e0be 133d aff2 98bd 7133 933d 8f0c 5b3d
00000030: 9304 8b3c 85e3 b13d 8b9a a03d 1887 ab3c
00000040: 7c96 533d 5892 ac3c 4a38 27bc 7c3b 29bd
00000050: c3f5 9a3d 80c0 39bd 3ceb d53c 08a6 2c3c
00000060: c8e5 98bc a882 86bd 1d25 04bd 986f f13b
00000070: da28 8fbd 35f0 fb3b 0e23 2c3d 39ca 113d
00000080: f994 123c a7b0 7dbd f019 863d 189a ccbc
00000090: 3cc7 393d 7637 393d 0e18 3e3d 80b8 d8bc
000000a0: 650a afbc 1a90 8c3d 86dc 9b3d cbec aebd
000000b0: a193 68bd 1172 c23c e8d2 8d3d 529e 9fbd
000000c0: 0dba 4dbd 001f 9abd bd95 85bc d97e 61bb
000000d0: e77f 38bd a553 8b3c 77cf afbd b2c5 b23d
000000e0: 9fe9 8ebd df9d 31bc 2954 b2bd 57ac a5bd
000000f0: 4feb a93d 5205 07ba a2c1 3a3d ab5d 4d3d
00000100: e8aa a2bd be73 89bd b5a6 7ebd 0365 6e3d
00000110: efcc 92bd 9aee 4c3d 06b3 373d 75f0 6c3d
00000120: d76b 0dbd 0d78 a93d 3c2d 363d 309a bbbd
00000130: d82f 93bd 6cb1 eebc 90de 743c d4d2 0abc
00000140: b0d7 ce3b 8e79 24bc c0e2 7f3b 0480 093d
00000150: ce9d a43d a78c f3bc 3237 9b3d f1a8 a2bd
00000160: 8513 a73a 4099 91bd 81b8 9ebd 3dab 74bd
00000170: ca4e 4d3d 27af 363d 6a3d 09bd 192f 03bd
00000180: d000 3abc ec9d 96bd 4423 9dbc 04a2 39bd
00000190: 005b ec3c 1bbf 2dbd 6457 40bd c93d 053d
000001a0: 6ffc 393d 3fb4 e4bc 54af 243d ec4c 8fbd
000001b0: 68f9 a63d 20ea 6bbd 0b4c 9f3d b7ce 94bd
000001c0: d06a bdbd e6c1 583d 147c ac3d 9d25 32bd
000001d0: 3084 3b3c 32de 6abd 59bd 59bd 7bde aebd
000001e0: c72e 053d 9f12 a63d 9899 0fbd c887 363c
000001f0: 191c 5ebc deca fdbc ad14 ba3d 4719 aa3b
00000200: 4975 843d 2275 ed3c 044e aa3c ce7e 023d
00000210: 0379 dbbc c25d d9bc 32bb 513d 4006 7b3c
00000220: 20aa 1b3c 6a08 ad3d 16e6 383d 485a abbc
00000230: e094 7cbd ede0 07bd 6e0f 2c3d 4f1e 9bbd
00000240: 5176 9cbd 5038 0f3c 6494 1f3d be3b a0bb
00000250: 9624 723d 8cfc 54bc ea4f f6bc 6cee b93c
00000260: e652 9b3d 9672 003d 5544 a23d 07b9 9abd
00000270: 9a24 e6bc cc36 91bc e2d2 513d fbfa a5bd
00000280: 6a73 f4bc 1b49 f6bc 900a b93b 9a41 423d
00000290: 31a4 483d 26d7 473d 8fa3 893d d944 99bd
000002a0: 7f28 ad3d bb97 51bc fbf3 84bd e81b 793d
000002b0: 0962 863d 34d7 6fbd d0a6 87bb 56b7 433d
000002c0: 1d4a 52bd 4229 81bd c6c7 42bd a845 94bc
000002d0: a86d 99bd 2b02 973d fbd0 393d 86e2 6abd
000002e0: d347 8d3d 35bc 9abb 33b0 b03d 9e4f 183d
000002f0: 0c50 6bbd 1cbf 6e3d 7fcc abbd a30b c6bc
00000300: 0acf 63bd 9ee7 9b3d 29ca e23c ccf7 c83c
00000310: 9dcf 82bd 7b8d 89bd 20ac a93b 161b 3d3d
00000320: ea97 813d 8298 5abd 11ae 27bd 8e79 d43c
00000330: 18e5 56bc d2ad 6d3d b6e0 173d 1828 c2bc
00000340: 16d0 afbd 4e65 4b3d d456 09bd d820 013d
00000350: 7852 083d cd26 3abd 52d4 a4bd b0de b33b
00000360: de2a 663d 30f7 633d 763e aebd fe90 ffbc
00000370: 694d 813d 8187 adbd 32f2 ddbb 7c29 9e3c
00000380: ae00 ad3b aef3 9ebd 9856 33bc 9c23 bebd
00000390: 2c76 6f3d 46ef 1b3d a745 a03d 1d13 9fbc
000003a0: a441 343d 2a19 b93b 91ed 8fbd 39a3 87bd
000003b0: 06c8 a3bd ca94 823c 6bbc 8b3d ffa0 5a3d
000003c0: f148 aa3d f074 473c 3967 2bbd 0dbc 1f3d
000003d0: 9943 7dbc 068a 5abd 3386 afbd f0c2 d23c
000003e0: e13d 6dbc 810c babc b08f 8fbd 5bb4 ab3d
000003f0: 4d49 0cbd cfba 41bd a5fc a23d daa4 95bd
0.007313162 -0.059171386 -0.019095063 0.04910908 0.08134872 -0.03482384 -0.04476772 -0.02017947
0.036070704 -0.07468163 0.07187546 0.053478774 0.016969955 0.08685974 0.07841977 0.020938441
0.051657185 0.021065876 -0.010206291 -0.041316494 0.075664066 -0.045349598 0.026113145 0.010537632
-0.018664256 -0.065678895 -0.032261956 0.0073680393 -0.06990214 0.007688547 0.04202562 0.035593245
0.008946651 -0.061936047 0.06547916 -0.024975821 0.04535602 0.045218907 0.04640966 -0.026455164
-0.021367261 0.06863423 0.07610421 -0.085412584 -0.056781415 0.023736032 0.06924993 -0.07793869
-0.05022626 -0.07525444 -0.016306752 -0.0034407882 -0.045043852 0.017007658 -0.08584493 0.08729114
-0.069781534 -0.010840862 -0.087074585 -0.08089512 0.08296835 -0.0005150634 0.04559482 0.050138157
-0.07942754 -0.06711529 -0.062170703 0.0582018 -0.07167994 0.050032236 0.044848464 0.057846505
-0.034526672 0.08274851 0.044476733 -0.09160268 -0.0718686 -0.029137336 0.014945641 -0.008473117
0.006312333 -0.0100387465 0.0039045066 0.03356935 0.08037911 -0.029730154 0.07578887 -0.07942379
0.0012746906 -0.07109308 -0.07750035 -0.059733618 0.050123967 0.044600632 -0.033505835 -0.032027338
-0.011352733 -0.0735434 -0.019181855 -0.045320526 0.028851986 -0.04241858 -0.046958342 0.032529626
0.045406755 -0.02791798 0.04020627 -0.069970936 0.08153039 -0.057596326 0.07778176 -0.0726599
-0.092488885 0.05291929 0.084221035 -0.043492902 0.01144509 -0.05734081 -0.05315909 -0.085385285
0.032515313 0.081090204 -0.035058588 0.011140771 -0.013556504 -0.030980524 0.09085975 0.0051910016
0.06467683 0.028986517 0.020789154 0.03185921 -0.026791101 -0.026533965 0.051203914 0.015321314
0.00950101 0.084488705 0.045141302 -0.020917073 -0.061665416 -0.03317349 0.042006902 -0.0757414
-0.076397546 0.008741453 0.038959876 -0.0048899343 0.059116922 -0.012999665 -0.030067403 0.022696696
0.07584171 0.031359278 0.079231896 -0.075548224 -0.028093625 -0.017726324 0.051226504 -0.08104511
-0.02984019 -0.030064156 0.005647011 0.047425844 0.04898471 0.048789166 0.067206495 -0.07483835
0.0845499 -0.012792523 -0.06491848 0.06081763 0.065616675 -0.058554843 -0.0041397586 0.047782265
-0.05134021 -0.063066974 -0.0475538 -0.018099621 -0.074916184 0.073734604 0.045365315 -0.057344936
0.06898465 -0.004722143 0.08627357 0.037185304 -0.057449386 0.058287725 -0.08388614 -0.02417547
-0.05561737 0.07612537 0.027684288 0.024532221 -0.06387255 -0.067164384 0.0051779896 0.04616841
0.063278034 -0.0533681 -0.040937487 0.025936868 -0.013116144 0.058027096 0.037079535 -0.023700759
-0.08584611 0.04965716 -0.03353007 0.031525463 0.033281773 -0.04544716 -0.080483094 0.005489193
0.056193225 0.05565566 -0.08508007 -0.031197067 0.06313593 -0.08473111 -0.0067732567 0.01930689
0.005279622 -0.07761322 -0.0109459385 -0.09284136 0.058462307 0.038069986 0.07825785 -0.019418294
0.044007912 0.0056487517 -0.07027734 -0.06622929 -0.07997136 0.015940089 0.06823047 0.053376194
0.08314694 0.012173876 -0.041846488 0.0389977 -0.015458011 -0.053354286 -0.08570518 0.025727719
-0.014480085 -0.02271104 -0.07009828 0.083840095 -0.034249593 -0.047297295 0.07958344 -0.073068336

fc2.bias f4 [128]
00000000: a8cc 283d 2258 8c3d a408 343c 23f0 efbc
00000010: 36e6 51bc 3319 c5bb 0e86 35bd 21b7 20bd
00000020: 7fc7 803d e6b0 223d 717d 5c3c a7d6 62bd
00000030: 160a 84bd 2f1a dfbc 45cf 2dbc 37e4 763c
00000040: 2373 21bc 432f 43bd 04dc 8a3d ce59 52bd
00000050: 19a2 6fbd 4ee1 a7bb 310e 93bd eab9 cbbb
00000060: eb95 7ebd aed0 2e3d 0b8d a6bc 4d85 123b
00000070: 390c 3ebd 5c5d cd3c 3a8c 95bd 6ca4 03bd
00000080: ffbc fc3c f6af 433c d42b 3abd b34f b4bd
00000090: b8bf c3bd 72a5 35bd 2dba 773d 1a2b 963d
000000a0: 8346 ee3b 27dc 5a3d ee96 85bd 6cf9 a8bd
000000b0: fde7 53bd 9a5d 453d a059 333d ab3c 2fbd
000000c0: 9247 9ebd 60f2 a13d c5eb 84bd 588f 9fbd
000000d0: 072e 4f3d 252d 9b3d 6d0b 94bd b23e 103d
000000e0: d8d8 45bd bb95 fa3c cf53 903d cd0c 273d
000000f0: c630 66bd e25c 32bd cd23 5d3d fd6e 883d
00000100: fc39 93bd ca95 2bbd a001 4ebd e5f9 933d
00000110: b796 02bd 06a8 a8bd 1e09 a13d 8e3d 0cbd
00000120: be04 df3c b456 903c d9aa 4e3d 8824 4ebd
00000130: 2755 e73c 102c b8bc 7d9b ae3c 5688 4a3d
00000140: ee3d 283d 629d 8fbd 4765 a5bd b87d 57bc
00000150: 8e35 b7ba 06b0 1bbb d612 503d 5642 d83c
00000160: 6568 9bbd f725 a83d 873a 43bd 2228 f4bc
00000170: b3b0 60bc c866 4e3c c772 363d d86a 1dbd
00000180: 4d9f 22bd 6f70 703d c0c7 83bd a63b 6dbc
00000190: 0e71 813d 4777 df3c 1e8d 803d 6ef5 5f3b
000001a0: abd5 bebc 7b0c 20bd 8f16 f4bc a77e 83bd
000001b0: a6ad 9fbb 3baf 693d afe0 04bc ebbe 153d
000001c0: 22c3 7dbd 2137 583d cb4e 2dbc 4665 993d
000001d0: 6ac7 3bbd 9d74 f1bb 0b6c 7a3d a2f9 12bd
000001e0: b52a 27bd ff0c 0a3c f4bf 483d b83c c2bd
000001f0: d6ea 38bb ed3a 9c3c 9256 513d d8c2 37bc
0.0412108 0.068527475 0.010988388 -0.02928931 -0.012811234 -0.006014967 -0.044317298 -0.039237145
0.06288051 0.039719485 0.013457642 -0.05538049 -0.06447236 -0.027234165 -0.010608499 0.015069059
-0.009854111 -0.047652494 0.06780246 -0.051355176 -0.058504198 -0.005123294 -0.07180441 -0.006217231
-0.06215469 0.04267948 -0.020330926 0.0022357285 -0.046398375 0.025068931 -0.07302137 -0.032139227
0.03085184 0.011943808 -0.045451954 -0.08804264 -0.09558052 -0.044347234 0.060480285 0.0733244
0.0072715892 0.05343261 -0.06522928 -0.082506984 -0.051734913 0.04818497 0.043786645 -0.042782467
-0.07728495 0.079075575 -0.06490282 -0.077910125 0.050581004 0.0757697 -0.07228742 0.03521604
-0.0483025 0.030588975 0.07047235 0.040783692 -0.056198858 -0.04354561 0.05398922 0.06661794
-0.07188794 -0.041890897 -0.05029452 0.07225398 -0.031882014 -0.08235173 0.07863067 -0.03423839
0.027223941 0.017619468 0.0504559 -0.050327808 0.028238846 -0.022481948 0.021314377 0.049446426
0.041074686 -0.0701244 -0.08075958 -0.013152532 -0.0013977753 -0.0023756041 0.050799213 0.026398819
-0.07588271 0.08210366 -0.047663238 -0.029804293 -0.013714003 0.012597747 0.044543054 -0.038431972
-0.039702702 0.058700975 -0.06434584 -0.014479553 0.063203916 0.027278556 0.06276916 0.0034173387
-0.023295244 -0.039074402 -0.029795913 -0.064206414 -0.0048729954 0.05705188 -0.008110209 0.036559027
-0.06195367 0.05278695 -0.010577868 0.074900195 -0.045844473 -0.0073686377 0.061138194 -0.0358826
-0.040812213 0.00842595 0.049011186 -0.094842374 -0.0028216145 0.019071067 0.05110795 -0.011215888

fc3.weight f4 [3, 128]
00000000: c911 863a e65e 513d ebeb acbd b033 85bd
00000010: 46de 9a3c 1258 c1bc 0083 d43c a1ce 08bd
00000020: 003b 7fbd 3b75 e7bb 4db9 93bd 0428 98bc
00000030: 3de2 623d 4da1 283b b2e1 74bd e22d 68bd
00000040: 25d7 fb3c bcec da3c da56 74bd 31be 473d
00000050: 062e 8bbd e516 51bd c234 3fbd 75cc 6bbc
00000060: 1bf9 b0bd 8b64 413d 97f7 a0bd 2636 b1bc
00000070: ad53 373d 4bf1 e03c 6e52 dfbc 0398 873d
00000080: a03b 7a3d b3a3 7c3d 14d3 b93d 9d9c ae3d
00000090: df11 78bd 5213 bdbc 5f6d 833d 7ac1 763d
000000a0: 3b8e d23c 9431 c3bc bb4a dfbc 8996 7dbd
000000b0: d82d 1d3c 53bb 74bc 4d5d c83c 66d0 1d3d
000000c0: 52b9 1a3d 4fe1 61bd 8d71 6ebd 5b66 37bd
000000d0: a44c 8d3d 7c6b aebc 35f2 68bd 4bd1 353d
000000e0: cd33 553d 6b85 d23c 86d2 4e3d dca5 84bd
000000f0: 63ff 39bd d22d 033b 0d79 943d 3869 743d
00000100: 3af7 833d 1481 06bc da76 003c 285b 8abc
00000110: e54b b53d 223b a83d ebf5 773d fc30 b83c
00000120: bea7 753d 838e 9abb da61 65bd 8f6a 613c
00000130: 0a7b 13bd 2cd9 7bbd d5f8 73bd 9973 393d
00000140: 39db 0d3d c39d 9cbd 663c 953c 7f53 f3bc
00000150: 4b5b 7f3d 3332 33bd b5c3 9e3d c814 a43d
00000160: 8df5 48bd 3c44 8e3d fca5 443d 41d5 8f3c
00000170: 20aa f9bc e34a e8bc 6691 ad3d 35bd e0bc
00000180: 6773 943d af8b 99bd 7677 703d 7807 9f3c
00000190: 60af 0e3d bd17 abbd 7f6b 0bbd ac77 943b
000001a0: 7406 803d 54d5 2dbc 527a 47bd 4f70 72bd
000001b0: 61ed a3bd 0d36 22bd 11c2 223d 18ca 353d
000001c0: ed9b 983d 63f5 62bd b328 82bd 34a7 953d
000001d0: ae50 00bd b3f4 093d 8a18 1abc 23e2 843c
000001e0: 1ceb e43c 317f bc3d e046 8fbd b29d 713d
000001f0: 8b37 d1bc 7445 873c 5a18 45bd 5592 a4bd
00000200: ceed 4dbc 04f5 0d3d 37e3 643d 494e a8bd
00000210: 0fe8 0ebb 4562 ad3c e5f2 10bd c998 3fbc
00000220: 71f7 b1bc a108 b43c baa9 863d 1d82 2dbd
00000230: be39 8f3d 775d 303d 5101 773d 0288 b1bd
00000240: ca5f afbd 9cb0 a53c ae40 f13c f7fc 3db9
00000250: fbee acbc 5384 b1bd b8d7 9c3d 6501 7f3d
00000260: c94b a13d bf77 67bd bb12 833d 3977 133d
00000270: 2e35 543c 562f 7b3c c58d a33c 793d 8a3d
00000280: 0eec 283d 0d63 023c 15e6 873d eedf 183d
00000290: 367d 033d dd57 a8bd 2381 81bd 48c1 31bd
000002a0: 9f76 cebc 1434 6ebd a012 c93c 7a4a d5bc
000002b0: b20e 2b3d 5abb a83d 5f35 00bd 9508 1abd
000002c0: a756 943d e735 b63d 2c34 5cbd 6344 acbd
000002d0: 48e0 9fbd fd13 9e3d 184d 943d 6c28 6d3d
000002e0: 2bb4 3d3c 31ab a83d bd47 fabc 8d34 1abd
000002f0: ffa0 81bd 351d 0c3d edb5 323d d676 883d
00000300: 39f9 2b3d 5553 1b3d cf28 8c3d f801 0a3d
00000310: ec93 ac3d bd74 a5bd 918b c9bb 780f 563d
00000320: 5d4d 7cbd 40d9 823c ef96 81bd 9566 0c3d
00000330: 6a1d 933d f1ee a0bd b9f4 67bd 7408 8dbd
00000340: a618 8cbd dfb1 8b3d 7a61 543a 5235 5fbd
00000350: 1d0b a1bb 9656 6fbb 0a37 673d 25cd 973d
00000360: b198 cebc afa7 d83c a8b5 613d 034b 08bd
00000370: d1be 723c 8bb8 053d 6cd2 a73d 4748 173d
00000380: f1ee a9bd ec56 62bb 1873 c9bc e690 28bd
00000390: a224 a73c a247 c53c 83aa 933b 7687 123d
000003a0: 2a85 243d ae9e a9bd ea3e 46bd b5fa 42bd
000003b0: 420e 2d3d fe61 a7bd dfc9 1cbd c6f9 3bbc
000003c0: e398 073d 3746 1abb a660 263d 8553 a03c
000003d0: 860d e8ba 99ed 903b 8ae2 363d 83e8 6e3d
000003e0: def4 aabc e2a7 9f3d 2ea5 913d 7c7b 263d
000003f0: b96a 123c 018b 3e3d 2543 9fbd 376a 15bc
0.0010228689 0.051115893 -0.08443435 -0.06503999 0.018904816 -0.023601566 0.025941372 -0.03340018
-0.062312126 -0.0070635355 -0.07213078 -0.018573768 0.05539154 0.0025730908 -0.059785552 -0.056684382
0.030742237 0.026724212 -0.05965314 0.048765365 -0.06795888 -0.051047225 -0.046681173 -0.014392008
-0.08641263 0.047215026 -0.07859724 -0.021632265 0.044757534 0.027458807 -0.027260985 0.06620791
0.06109202 0.061679553 0.09073463 0.08525965 -0.06056392 -0.023080502 0.06417345 0.060243107
0.025702586 -0.023827352 -0.027257314 -0.06191114 0.0095934495 -0.01493724 0.024458552 0.038528822
0.03777439 -0.05514651 -0.05821376 -0.04477535 0.06899384 -0.021291487 -0.05687161 0.04438905
0.052051354 0.025698384 0.05049374 -0.06476948 -0.04540957 0.0020016325 0.07249651 0.059670657
0.06443639 -0.008209486 0.007840836 -0.01688917 0.08852366 0.08214404 0.06053726 0.022484295
0.059974425 -0.0047166958 -0.05600152 0.013758316 -0.03600601 -0.061486408 -0.059563477 0.04527626
0.034632895 -0.07647278 0.018217277 -0.0297029 0.062342923 -0.043749046 0.07752172 0.08011776
-0.0490623 0.069466084 0.048009858 0.017557742 -0.03047663 -0.028356021 0.08474998 -0.027433971
0.07248574 -0.07497346 0.058707677 0.019412741 0.03483522 -0.08354137 -0.034038063 0.0045308676
0.06251231 -0.010609943 -0.048700638 -0.059189137 -0.08004261 -0.039602328 0.039735857 0.044382185
0.074516155 -0.0554098 -0.06355419 0.07307282 -0.031326942 0.03368063 -0.009405265 0.016221112
0.02794414 0.09203947 -0.0699594 0.05898828 -0.02553918 0.01651261 -0.048118927 -0.08035723
-0.012568904 0.034657493 0.05588075 -0.08218057 -0.0021805798 0.021165023 -0.035387892 -0.011694142
-0.021724435 0.02197677 0.065753415 -0.042360414 0.06993435 0.043057885 0.06030399 -0.086685196
-0.08563192 0.020225815 0.029449787 -0.00018118681 -0.021110049 -0.08667817 0.076583326 0.06225719
0.07875783 -0.056510683 0.06400057 0.03600237 0.012952132 0.01533111 0.019965062 0.06750006
0.041240744 0.007958186 0.066356815 0.03732293 0.032101832 -0.082198836 -0.06323459 -0.043397218
-0.025203047 -0.058155134 0.024545014 -0.02603649 0.04176206 0.082388595 -0.0313009 -0.03760584
0.0724309 0.08897 -0.053760692 -0.08411481 -0.0780645 0.07718656 0.07241267 0.057899877
0.0115786 0.08235777 -0.030551786 -0.037647773 -0.06329536 0.03420754 0.04363053 0.06663291
0.041985724 0.03792127 0.06843721 0.033693284 0.08426651 -0.08078907 -0.006150671 0.052260846
-0.061597217 0.015972733 -0.063276164 0.034277517 0.07183345 -0.078580745 -0.05662987 -0.06886378
-0.06840639 0.068210356 0.00081016833 -0.05449421 -0.004914655 -0.0036520115 0.056448974 0.07412175
-0.025219293 0.026447145 0.05510488 -0.03327466 0.014816002 0.032646697 0.08194432 0.036934163
-0.082975276 -0.0034536673 -0.024591014 -0.04115381 0.02040321 0.024082009 0.0045064106 0.035773717
0.040166058 -0.08282219 -0.048399843 -0.047602374 0.042249925 -0.081729874 -0.038278457 -0.011473125
0.03310479 -0.0023540386 0.040619515 0.019571075 -0.0017704226 0.004422855 0.04464964 0.05832721
-0.020868715 0.07795693 0.07111584 0.040645108 0.0089365775 0.046519283 -0.07776479 -0.009119562

fc3.bias f4 [3]
00000000: 7576 91bc bb9f 513c 2853 a03d
-0.01775668 0.01279443 0.07828361
