MLP_model33.pth (torch, 669808 bytes, 4 tensors)

fc1.weight f4 [128, 1300]
000000 80 ed 7d ba 5a 15 85 3c 1a 2b 4b bc d7 21 c5 bc
       -0.00096865743 0.016245533 -0.012400413 -0.024063988
000010 e4 86 b6 3c 40 22 ba 3c ea 6c ca 3c 94 1b e5 bb
       0.022281118 0.02272141 0.024710137 -0.006991813
000020 9a 1a 9b 3c 62 21 c3 bc 02 d1 cf 3c 1c 8a 47 3c
       0.018933583 -0.02381963 0.025368217 0.012178924
000030 37 fa 52 bc 3e dc c1 bc 49 9d d4 bc 1c 0f 95 bc
       -0.012877039 -0.02366459 -0.025953906 -0.018195681
000040 f8 97 00 bb 9c e3 b8 bc fc 9a ce bc 78 da a6 3b
       -0.001962183 -0.02256947 -0.025220387 0.0050919615
000050 51 f4 d9 bc 90 b1 0d bc 2e 16 9d 3c 28 8c 10 3c
       -0.026605757 -0.008648291 0.019175615 0.008822478
000060 90 4b ce bc a4 0c 3e bc fc 70 92 bc 46 28 93 3c
       -0.025182515 -0.011599693 -0.01787614 0.01796354
000070 b8 44 01 bc fa 93 a9 3c 98 c6 23 3c a0 b4 20 3b
       -0.007889919 0.020700444 0.009996079 0.0024521723
000080 08 88 04 3c 10 a6 95 bb 72 a0 89 3c 10 67 8b bc
       0.008089073 -0.0045669153 0.01680014 -0.017016917
000090 dc c2 82 bc 4c ae 83 bb cc df 9b bb 7d 70 8f bc
       -0.015962057 -0.0040185805 -0.0047569033 -0.017509693
0000a0 54 25 7c 3c a0 58 08 ba 8c 9d b2 3c b8 da a5 3c
       0.015389759 -0.00052011944 0.02180364 0.020245895
0000b0 d2 23 97 bc 00 cd 1d bc bc 06 b6 bc 88 c3 9f bc
       -0.018449698 -0.009631395 -0.022220008 -0.019502416
0000c0 20 a4 1a 3b 44 f9 7d 3c 0c 97 16 3c 75 4a d6 bc
       0.0023596361 0.015501324 0.009191286 -0.02615855
0000d0 74 de 39 3c b5 67 5b bc 2c 75 c5 bc d8 08 8f bc
       0.011344541 -0.013391425 -0.024103723 -0.017460272
0000e0 48 f7 3f 3c 3c e8 5e 3c 53 d1 70 bc c8 2e 68 3c
       0.011716671 0.013605174 -0.014698344 0.01417131
0000f0 16 96 ba bc fe 19 80 3c 7c a0 63 3c 00 eb 8f b8
       -0.022776645 0.015637394 0.013893243 -6.8625435e-05
000100 bf 16 d1 bc 26 5e 10 bc a0 12 17 bc 40 08 30 ba
       -0.025523541 -0.008811509 -0.009220749 -0.00067150965
000110 0c e6 d3 3c f8 ba b3 bc 8e d1 a3 bc e0 f6 d8 3c
       0.02586653 -0.02193974 -0.019997384 0.026484907
000120 46 cb dd bc c4 c1 d4 3c 50 0a ce 3a 38 10 1c 3c
       -0.027074467 0.0259713 0.0015719626 0.009525351
000130 50 f2 16 3c 84 d3 a0 bb 50 8b bd bb b8 f8 53 3c
       0.009213045 -0.004908027 -0.0057844296 0.012937717
000140 18 45 a4 3c 7c 34 c3 bc 0c 2f de 3c da 39 22 bc
       0.020052478 -0.023828737 0.027122043 -0.009901488
000150 8c 4e 4a 3c ce ec b1 3c 10 74 93 bc c2 31 6a bc
       0.012347829 0.021719363 -0.017999679 -0.01429409
000160 86 e7 80 3c 80 0b 9c 3c 78 d2 90 3c 00 50 6b 37
       0.015735399 0.019048452 0.017678484 1.4025718e-05
000170 14 88 20 3c d8 fa f4 3b da c0 d9 3c 62 d0 83 bc
       0.009798069 0.007476192 0.026581217 -0.016090576
000180 8e 7d 66 bc 2a 19 a4 3c d8 9f 06 bb 2e ca 0d bc
       -0.0140680205 0.02003153 -0.0020542052 -0.00865416
000190 04 95 d6 bb 10 29 71 bc a4 a8 d1 3c d9 05 ab bc
       -0.0065485258 -0.014719263 0.02559311 -0.020876812
0001a0 0a ef a0 bc 67 6a 8c bc 80 66 3d bc 3a 66 a3 3c
       -0.019645233 -0.01714058 -0.011560082 0.019946206
0001b0 a7 f6 6e bc 14 d9 88 3c d8 0e a0 3c e0 03 d9 3b
       -0.014585174 0.016705073 0.019538328 0.0066227764
0001c0 40 7e 2b bb a0 49 38 3b 10 fb a8 3a 52 c0 83 3c
       -0.002616778 0.0028120056 0.0012892205 0.016082916
0001d0 52 68 35 bc 5a 89 c4 3c 54 23 b6 3c 99 23 68 bc
       -0.011072235 0.023991276 0.022233643 -0.014168643
0001e0 7c 28 b3 bc c5 ca d3 bc 6e cc bf 3c 00 74 e1 bb
       -0.02186989 -0.025853524 0.02341291 -0.0068802834
0001f0 c0 cc fa ba b8 34 33 3c 30 73 33 3c 1c 80 98 3c
       -0.0019134507 0.010937862 0.010952756 0.018615775
000200 60 7e 2a 3c d0 03 c1 bb 88 e1 c4 bc 88 96 94 3c
       0.010406107 -0.005890347 -0.024033323 0.018138185
000210 d8 1a 92 3c 78 71 53 3c 00 76 8c bb 48 77 a9 3c
       0.017835066 0.012905471 -0.0042865276 0.02068676
000220 63 e2 6d bc e0 2c a0 3b 08 b9 95 bb 6a ac 85 3c
       -0.014519307 0.004888162 -0.0045691766 0.016317565
000230 a8 9d b2 3c 28 fe a9 3c 88 01 c7 3b 6a 4b ad 3c
       0.021803692 0.020751074 0.0060731806 0.021154124
000240 4c ba e7 bb aa 76 d4 3c 70 56 f6 3a 28 55 01 bc
       -0.007071769 0.02593549 0.0018794071 -0.007893838
000250 92 4d 85 3c b8 9e 40 3c 34 ab 37 bc ec 48 24 bc
       0.01627234 0.0117565915 -0.011210252 -0.010027152
000260 00 c3 91 bc 98 47 5d bc 78 5c fb bb a8 37 14 3c
       -0.017793179 -0.013505839 -0.0076709352 0.009046473
000270 90 0d ab 3c b2 33 a0 bc 50 24 4f 3c e0 81 b0 bb
       0.02088049 -0.0195559 0.012642935 -0.005386576
000280 40 b1 a3 ba a8 48 b1 3b d0 10 a1 bc 4d 36 69 bc
       -0.0012488738 0.0054102726 -0.019661337 -0.014234138
000290 86 91 9f 3c d0 d1 17 3c 70 e1 3a 3b 98 75 6f 3c
       0.01947857 0.009266332 0.002851572 0.014615439
0002a0 a8 cf f0 bb 54 85 9a 3c 10 81 91 3b a3 30 d9 bc
       -0.0073489733 0.018862404 0.0044404343 -0.02651245
0002b0 f0 8c 68 3c ca 79 e0 bc 10 2a 32 bb ce b2 90 3c
       0.014193758 -0.027401824 -0.0027185716 0.017663386
0002c0 4c 55 07 bc 72 2a 87 3c 06 88 a5 bc a8 89 53 3c
       -0.008260082 0.016499732 -0.020206463 0.012911238
0002d0 d8 17 7b 3c 90 c4 8c 3a 90 6b 74 bb 5e d0 9d 3c
       0.015325509 0.0010739733 -0.0037295558 0.019264396
0002e0 98 b7 64 3c 34 67 7d bc 5c 12 2c 3c ae 88 bd bc
       0.013959788 -0.0154665 0.010502424 -0.023136463
0002f0 f2 ba da bc 6a e6 8e bc f0 72 6b 3b 9c 47 39 bc
       -0.02670047 -0.017443854 0.0035926662 -0.011308577
000300 ae 80 bf 3c ea 66 a8 3c 27 4c 59 bc 9c 76 cd 3c
       0.023376789 0.020556886 -0.013262785 0.025080971
000310 3a 63 a8 3c 54 d0 a6 3c e0 cf c7 3c 3c 1c 08 3c
       0.020555127 0.02036301 0.024391115 0.008307513
000320 a6 6a cf 3c e3 f5 d6 bc 36 2b 8d 3c 14 bb 8a bc
       0.025319409 -0.026240295 0.017232519 -0.016934909
000330 a0 12 e2 ba e4 79 3c bc e0 03 ea bb 60 0a 85 3c
       -0.0017247982 -0.01150367 -0.007141575 0.016240299
000340 08 98 c4 bb 42 f1 b4 3c 52 20 4a bc 9c c0 a4 3c
       -0.005999569 0.022087697 -0.012336807 0.020111375
000350 be e1 b2 3c 2c 7b ae 3c a0 98 72 3a c2 ec d4 bc
       0.021836158 0.021298967 0.000925431 -0.025991801
000360 e0 d8 d9 3c 22 97 b7 3c 00 36 31 ba 72 da 8f 3c
       0.026592672 0.022410933 -0.0006760061 0.017560218
000370 f6 41 8b 3c 74 f1 51 3c 13 d2 dc bc e7 9d 5b bc
       0.016999226 0.012813915 -0.02695564 -0.013404346
000380 e0 17 1f bb c0 d0 8c 39 cb e4 bc bc b0 7b 25 bc
       -0.0024275705 0.00026858412 -0.023058316 -0.01010029
000390 a4 d8 73 3c 60 8f 5c bc 55 a9 6b bc bb e1 bc bc
       0.014883194 -0.013461918 -0.014383634 -0.023056855
0003a0 70 05 a8 bc f0 c0 bd 3b a3 79 db bc ae 09 d7 bc
       -0.020510405 0.005790822 -0.0267914 -0.026249733
0003b0 88 d0 c5 bc b8 38 ba 3b 40 dd e2 ba 26 a6 b7 bc
       -0.024147287 0.005683031 -0.0017308369 -0.022418093
0003c0 ca e3 d8 3c 96 2b 9f 3c 50 4d 95 bb 46 61 a9 3c
       0.026475806 0.019429963 -0.0045563355 0.020676266
0003d0 a0 6c 92 3c 00 b0 ba b9 8c fc 36 3c 2c 6d 45 bc
       0.017874062 -0.00035607815 0.01116861 -0.012049954
0003e0 c4 7d 85 3c a8 c3 fb 3b 70 73 dc ba b8 5d 08 bb
       0.016295321 0.007683236 -0.0016819071 -0.0020807814
0003f0 c8 b3 c2 3c 2a d9 b5 3c e8 3b 20 3b e9 af 63 bc
       0.023767367 0.022198278 0.002444977 -0.013896921

fc1.bias f4 [128]
000000 e0 ca 31 ba c0 b9 02 3a 34 0e 70 3c ea b5 af bc
       -0.0006782245 0.00049867854 0.014651824 -0.021449048
000010 42 0a e2 ba 3e f5 31 bc 4a 2c 35 bc f7 6d 84 bc
       -0.0017245489 -0.010861693 -0.011057923 -0.016165717
000020 d8 1e ff bc ba 1d dd bc 48 ba 8f 3b 73 62 05 bc
       -0.031142637 -0.026991714 0.00438622 -0.008141148
000030 d8 8c 45 3b 7a 09 b1 bc b5 5a c1 bc c4 58 22 3c
       0.0030143764 -0.021610964 -0.023602823 0.009908859
000040 49 18 83 3c ae 80 de 3b 75 d0 aa bc f3 4d 07 bc
       0.016002791 0.006790242 -0.020851353 -0.008258331
000050 8c d8 c8 3c d8 ad cd bc c4 c7 60 bc 00 7c 9c bc
       0.02451732 -0.02510731 -0.013719503 -0.019102097
000060 08 55 84 3b 45 1f c3 3c 5d af 99 3c c9 36 0b 3c
       0.004038457 0.023818621 0.018760378 0.0084969485
000070 a0 03 fa ba 7d 41 eb 3b a8 46 d2 bb f3 ea b4 ba
       -0.0019074567 0.0071794377 -0.0064171143 -0.001380293
000080 68 b2 9e bb 44 fa cd ba 30 2c 36 3c 22 25 45 3c
       -0.004843045 -0.0015714844 0.011118934 0.012032779
000090 f8 55 ac bc 07 b1 26 bc c8 d9 7a bb 32 79 92 3c
       -0.021037087 -0.010174043 -0.003827678 0.017880056
0000a0 21 cb f9 bb c9 83 86 3c 4c e2 9a bc 58 ef c1 bc
       -0.007623092 0.016420262 -0.018906735 -0.023673698
0000b0 f0 7c ae 3b 10 41 cc bb 85 fb b0 3c 9e bd 7f bc
       0.0053249523 -0.006233342 0.021604309 -0.015609173
0000c0 73 c5 91 bc 7a b0 dc bc 36 6e fd 3c 2c 71 9b bc
       -0.017794346 -0.02693962 0.030936342 -0.018974863
0000d0 b6 05 e9 3b 54 ed d3 bc ba ae 7c 39 d1 9a f6 3b
       0.0071112765 -0.025870003 0.00024097683 0.00752578
0000e0 40 cb 24 bc 80 6e 80 bc 00 12 67 b9 c4 58 13 bc
       -0.010058224 -0.01567769 -0.00022036582 -0.008993331
0000f0 61 93 49 3c d0 da f2 3a b7 d4 d7 bc 4a 49 2d bc
       0.012303204 0.0018528346 -0.026346548 -0.0105765555
000100 1c cd a4 bb 00 73 f3 bc 7c 74 0a 3c 36 ef 57 3c
       -0.0050293338 -0.029717922 0.008450624 0.013179591
000110 3c 0b cb ba d8 3a a0 bc d6 27 01 bc 72 87 20 ba
       -0.0015491019 -0.019559309 -0.007883033 -0.00061236985
000120 e8 cc 33 3b bc 71 69 3b e6 a9 00 bd 76 c9 36 bc
       0.0027435366 0.003562077 -0.031412028 -0.0111564305
000130 07 f0 b9 3c d3 31 5a 3c e0 fc 4d 3a e6 84 e0 3c
       0.022697462 0.013317543 0.00078578107 0.02740712
000140 08 16 ba 3c 6d 92 48 3c e7 aa 0f 3c 40 9c 08 3a
       0.022715583 0.012241942 0.008768774 0.00052112713
000150 e9 9b 97 3a 04 dc c6 3c 9b 5f 44 bc 73 02 ad 3c
       0.0011566851 0.024274834 -0.011985685 0.021119332
000160 80 f9 eb 3b 4c a0 de bb 50 30 87 b8 ba 88 6e 3c
       0.0072013736 -0.006794011 -6.4463005e-05 0.014558965
000170 40 8b df 39 0e 3b b9 3c c9 c3 ab 3b 46 00 8b 3b
       0.00042637624 0.022611167 0.0052418453 0.004241976
000180 2a e3 bb 3b ed 54 da bc f1 68 d5 bc d2 3d 77 3c
       0.005733867 -0.026651824 -0.026051017 0.015090423
000190 8f 93 69 3c a2 1c e0 bc 3c bd 23 bc 39 38 67 3b
       0.014256372 -0.027357403 -0.009993847 0.0035281314
0001a0 56 31 7f bc 96 b1 e0 3c e0 1e d7 3b cb 07 9a bb
       -0.015575727 0.02742843 0.00656496 -0.004700636
0001b0 78 d3 8b 3b 2b 25 91 bc b8 11 8d bb 40 ae 29 3b
       0.0042671524 -0.017717918 -0.0043050908 0.0025891215
0001c0 a8 ce 8b bc 43 67 bf bc f7 b1 f5 bb 8b d6 98 bc
       -0.017066315 -0.023364669 -0.0074980217 -0.01865699
0001d0 40 b3 7d 3b da b8 ee 3a 86 c2 b7 bc 30 59 a5 3b
       0.0038711578 0.0018213049 -0.022431623 0.0050460324
0001e0 7f c7 a6 3b d6 e3 ba 3b 14 25 aa bc 5e ae 7f bc
       0.0050896998 0.0057034297 -0.020769633 -0.015605537
0001f0 b6 e1 b1 3c 45 f2 d2 3b 28 d3 f9 bb e4 c2 99 3c
       0.021714073 0.006437572 -0.0076240487 0.018769689

fc2.weight f4 [3, 128]
000000 8e 0b 89 bd e0 0b 8e bc f4 c2 bf bc 27 13 8a bd
       -0.06691657 -0.017339647 -0.02340839 -0.06741934
000010 57 67 15 bd 9c 2d 95 bd 94 38 8c 3c 28 66 36 3d
       -0.036475506 -0.0728409 0.017116822 0.044531018
000020 4f 6e 8d bd 88 a5 39 bd a4 19 f1 3c 33 cc 69 bd
       -0.06905805 -0.04532388 0.029431172 -0.057079505
000030 49 0d b0 3d b3 c0 2a bd 90 ce 99 3b 44 06 b6 bc
       0.08596284 -0.04168768 0.0046938136 -0.022219785
000040 c3 68 75 bc 31 e8 3a bd 72 6b 73 bd 2a ae cd 3b
       -0.01497859 -0.04563159 -0.05942864 0.0062768655
000050 a3 ce 88 3d 7c e5 91 bd 5b f7 36 3d 6a 57 82 3d
       0.06680038 -0.07123849 0.04466949 0.06364329
000060 a0 71 71 bc 3b c4 5c 3a e1 ad f0 bc 6a 84 c6 3a
       -0.014736563 0.00084215746 -0.029379787 0.0015145664
000070 b9 08 ad 3d 79 13 80 bd 00 ee 6e ba 8e 34 83 bd
       0.08448929 -0.06253714 -0.0009114444 -0.064065084
000080 e0 14 83 bc 7c 78 70 bd ce 3b 4a bd ec 26 db bc
       -0.016001165 -0.058708653 -0.04937344 -0.026751958
000090 0d b9 5d bd 69 60 58 3d 1c b9 a0 3d b0 56 88 3b
       -0.054131556 0.05282632 0.07847807 0.0041607246
0000a0 1d f3 8b bd 31 fc b2 3d b0 12 be 3c f4 18 47 bc
       -0.068334796 0.08739508 0.02320227 -0.012151945
0000b0 bf bc 85 bd ec dc db 3c 1f 96 0d bd d4 c1 cf 3c
       -0.06530141 0.026838742 -0.034566995 0.02536098
0000c0 28 17 68 3d 00 17 9e 3b f7 62 67 3d 60 1e 4e 3b
       0.05666271 0.004824519 0.056490865 0.003145121
0000d0 c0 62 68 bd 10 06 eb bb 0c e3 4d 3c dc 24 aa 3c
       -0.0567348 -0.0071723536 0.012566339 0.020769529
0000e0 00 d0 3b 3c 05 a4 8f 3c 38 a3 0f 3c a1 5d 55 3d
       0.011463165 0.017534265 0.008766942 0.052091245
0000f0 38 5d cb 3c 32 49 76 3a ec ef 01 bb a6 6b 7e 3d
       0.024824724 0.0009395062 -0.0019826842 0.06211438
000100 20 2a ee bb 38 05 e3 bc 00 71 31 bd 2f 31 4a 3d
       -0.0072682053 -0.02771245 -0.043320656 0.04936331
000110 35 cc 0d bd e9 ff 81 3d c8 0f 6b bd 9e 06 6b bd
       -0.034618575 0.06347639 -0.057388097 -0.057379358
000120 f7 d7 9e 3d ed 13 87 bd ee 16 9c bd 8a fb 38 bd
       0.07756036 -0.065955974 -0.07621561 -0.04516176
000130 01 79 07 3c 44 83 dd bc 21 fa 28 bd 6c 1c f3 bc
       0.008268596 -0.027040131 -0.041254167 -0.029676639
000140 49 ea 26 3d 4c 05 be 3b c5 3f 86 3c 13 d4 8f 3d
       0.040750775 0.0057989713 0.01638783 0.07022872
000150 96 ae 2f 3d db a7 b4 bd 3c 27 79 bd 88 95 0b 3d
       0.042891107 -0.088210784 -0.060828432 0.03407815
000160 10 dc b6 3b bf e9 9a 3d 09 50 50 3d f8 6c d0 bb
       0.0055804327 0.07564115 0.050857577 -0.0063606463
000170 a9 90 ac 3d 82 14 63 bd 65 9f 46 3d 0a 4e 70 3d
       0.08426029 -0.05543948 0.048491854 0.058668174
000180 dd d1 45 3d 09 9d 5e bc 3a ef c0 3d a9 5b a7 bd
       0.048295844 -0.013587245 0.09420629 -0.0817178
000190 be ef ba bc ff 18 21 bd 68 75 60 3c 3b 0d 09 3c
       -0.022819396 -0.03933048 0.013699867 0.008364971
0001a0 96 c3 25 3d bd 2c 17 bd b0 c2 7d bc 64 25 7a bc
       0.04046973 -0.0369079 -0.015488312 -0.015267704
0001b0 b6 97 3f bd 93 21 ac 3d b3 df 91 bc b9 3e 84 3d
       -0.046775542 0.08404841 -0.017806863 0.06457276
0001c0 e8 70 73 3c 77 23 4a 3d f3 4e 9c 3d 44 8f 3c bd
       0.014858462 0.04935023 0.07632246 -0.046035066
0001d0 0c 12 b5 3c 05 a2 96 bd a3 4a 2a bd fb 55 aa 3d
       0.022103332 -0.073551215 -0.041575085 0.08317181
0001e0 e5 99 47 3c 92 c3 da bc 8c 9a 01 bd 98 0b 5a 3d
       0.012182687 -0.026704583 -0.031641528 0.053233713
0001f0 f4 8a 2b bd 94 39 d7 bc ea 1e 26 bd 3c 0f 8a bd
       -0.041880563 -0.026272573 -0.040556826 -0.06741187
000200 8e fb 02 3d d0 a1 c7 3b 3e 25 23 3d 50 98 ee 3b
       0.031978182 0.0060922876 0.03983044 0.0072813407
000210 56 a5 8c 3d e8 9d 57 bd 12 87 19 bd 72 77 d4 3c
       0.06867473 -0.052640826 -0.03748233 0.025935862
000220 45 ff 10 3d 93 2e ac 3d 12 a4 09 bd 14 0d 8b 3d
       0.035399694 0.08407321 -0.033603735 0.06789604
000230 ea 24 20 bd 67 e0 76 bd 39 32 93 bd 20 25 c0 3c
       -0.039097704 -0.0602726 -0.071873136 0.023455203
000240 02 90 ec bc 22 34 bb 3b 54 8d 8e bd 6c 13 56 bd
       -0.028877262 0.005713002 -0.0696055 -0.052264616
000250 16 c7 2e 3d 88 9d 4c 3d 8f 72 79 3d d6 a5 ec 3b
       0.042670332 0.04995492 0.060900267 0.0072219176
000260 eb 6e 78 bd 99 6d 42 bd 05 e9 a7 bd 23 2c 77 bc
       -0.060652655 -0.0474678 -0.08198742 -0.015086207
000270 67 89 a0 3d f8 88 bb bd 8d 85 ae bd 29 53 84 bd
       0.078387074 -0.09156984 -0.085215665 -0.06461174
000280 0a 31 59 3d d5 ef 84 bd 81 f7 0e bd 53 3c 92 3d
       0.053025283 -0.06491057 -0.034904007 0.07140412
000290 d5 b1 52 bc e7 9e 53 3d 8b 6c a1 bd 14 c4 fe bc
       -0.012859781 0.051665213 -0.07882031 -0.031099357
0002a0 3e c8 8e bd 4f 90 95 3d 7c 19 85 bc 1f 6f 2d bd
       -0.06971787 0.07302915 -0.016247503 -0.0423423
0002b0 66 e4 88 bd 74 73 86 bc a2 df 91 bd ff 21 8c 3d
       -0.066841885 -0.016412474 -0.07122733 0.06842422
0002c0 da d9 f4 3c e4 96 f2 bc 8a 8f ef 3b 10 41 78 3c
       0.029889036 -0.029612966 0.0073108124 0.015152231
0002d0 4b 49 bc 3c 80 50 df 3b 42 43 52 bd 30 af 6f 3c
       0.022984168 0.0068150163 -0.051333673 0.01462917
0002e0 8a 72 23 3d 27 d3 47 bd 82 56 34 3d 1b 83 8a 3d
       0.039904155 -0.048785355 0.044027813 0.06763288
0002f0 25 22 98 3d 15 5a 86 3d 3d c4 67 bc 81 a0 ad bd
       0.074283876 0.065601505 -0.014145908 -0.08477879
000300 94 34 0e 3d fb 41 21 3d cc f9 2f 3d 0b f6 89 bd
       0.03471811 0.039369565 0.042962834 -0.06736382
000310 f8 e5 a1 3d 44 5f b8 3c a2 e5 66 3d 67 bd 7e bd
       0.07905191 0.022506364 0.05637134 -0.062192347
000320 9c 85 94 3c 62 79 01 bc 76 39 27 bd c8 d1 17 3d
       0.018130116 -0.007902475 -0.040826283 0.037065297
000330 45 45 39 bd 25 86 9f 3a 1a 44 24 3d 10 5b f5 bb
       -0.045232076 0.0012170715 0.04010401 -0.007487662
000340 fc cf 81 bd 3c 1e 58 3d 75 68 88 3d fa e1 6c bd
       -0.06338498 0.05276321 0.066605486 -0.057832696
000350 e6 14 b1 bc d0 49 62 3c b5 ec a4 3d f3 7f 10 bd
       -0.02161641 0.013811544 0.08052961 -0.035278272
000360 08 43 8f bd ae 9f 17 bc 3a 5d 91 3d 1e a2 29 bd
       -0.06995207 -0.009254379 0.0709786 -0.041414373
000370 b8 5e 60 bc 5f 2e a2 3d 65 49 8f 3d 7b 3e 88 3d
       -0.013694458 0.07919001 0.06996421 0.06652542
000380 62 f5 2b bc da 42 f4 bb fd 4a e5 3c 33 79 2d bd
       -0.010495516 -0.0074542584 0.027989859 -0.042351913
000390 96 31 37 3d b3 64 93 3d e0 da 79 bb 2e 64 a5 bd
       0.044725023 0.07196941 -0.0038124844 -0.080757484
0003a0 f0 ad 8c bd 68 e5 d8 3c 4a e0 2e bd ec 89 0e bc
       -0.068691134 0.026476577 -0.042694367 -0.008699875
0003b0 ff 81 87 3d c6 de 8f bd 78 01 09 3d c3 92 4b bd
       0.06616592 -0.070249125 0.033448666 -0.04970051
0003c0 9e eb 67 3d 5d 2a b0 bc 3e 05 19 bc bb d3 e0 bc
       0.056621186 -0.021504575 -0.009339629 -0.027444711
0003d0 fa 77 49 3d 71 19 88 3d e6 82 d8 bc 72 c5 51 bd
       0.049186684 0.066454776 -0.026429605 -0.05121369
0003e0 cb 03 b5 bb 80 74 74 3d c5 03 83 bb 79 ce 74 bd
       -0.005524134 0.059681416 -0.003998252 -0.05976722
0003f0 bd 72 26 bd 2e 78 57 3d 68 e5 77 bc 1c 5c 3a 3d
       -0.040636767 0.052604847 -0.015130378 0.045498

fc2.bias f4 [3]
000000 80 9a 11 bd 50 bc e1 3b c9 6d 8c bc
       -0.035547733 0.0068889037 -0.017142193
