MLP_model.pth (torch, 669792 bytes, 4 tensors)

fc1.weight f4 [128, 1300]
000000 9f f4 ac bc 3a 0a d4 bc 23 88 5f 3c 18 99 1b 3c
       -0.021112738 -0.025883783 0.013643297 0.00949695
000010 6d bc 8c bc 76 24 38 3a f2 cb 9f bb 72 ed cc bc
       -0.017179692 0.0007024476 -0.004876607 -0.025015566
000020 4e 43 92 bc 07 ab bb bc 61 da 9e bc d1 cf 8b 3c
       -0.017854359 -0.0229087 -0.01939124 0.017066868
000030 a6 9b 91 bc e5 06 c7 ba bd 99 54 3c 30 f1 80 3c
       -0.017774414 -0.001518455 0.012976107 0.015740007
000040 d1 3b 01 bd 7f 1e 1f bc 06 99 81 bc 7e fa ac 3b
       -0.031551186 -0.009711861 -0.015820038 0.0052788844
000050 05 0e ea 3c 65 af 6f 3c 07 d0 21 3c 10 12 01 bb
       0.028571138 0.01462922 0.009876258 -0.0019694604
000060 75 e9 b2 3c 52 75 cd 3c 7c 42 c2 3c 3b bc ac 3a
       0.021839837 0.025080357 0.023713343 0.0013178656
000070 5b 57 6a 3c 5c b3 c0 bb 99 1f 67 3c df cd 40 3c
       0.014303054 -0.0058807563 0.014106655 0.0117678335
000080 f5 63 b4 bc 00 1e 5a 3c 36 38 f7 3c a3 bc c3 bb
       -0.02202032 0.013312817 0.03017817 -0.005973415
000090 16 a3 1a bd 55 65 1b bd 50 e1 de bc 26 20 e3 ba
       -0.037753187 -0.037938435 -0.027207047 -0.0017328307
0000a0 b1 cc b5 3b e9 61 c1 bb 21 34 6a 3c dc 71 2c bc
       0.0055480828 -0.0059015644 0.014294655 -0.010525193
0000b0 10 55 97 bb ae 06 6b 3c ae ca c2 3c 4b 2d 88 bc
       -0.0046182945 0.014344854 0.023778286 -0.01662316
0000c0 c1 40 dc bc c8 f2 ac 3a 6f 8c 7b bc 67 87 d6 3b
       -0.026886346 0.0013194913 -0.015353306 0.006546903
0000d0 04 7b 6e 3b c6 73 9f 3b 93 10 ca bc 95 ca eb bb
       0.003638924 0.004866096 -0.024666106 -0.0071957805
0000e0 36 4d 29 bc f0 3d 1f 3c aa fb d7 bb ca ae 1b bc
       -0.01033335 0.009719357 -0.00659128 -0.009502122
0000f0 6d 47 a1 3c 03 94 ad bc 60 6c c4 bc 39 ed 6e 3b
       0.019687379 -0.021188742 -0.023977458 0.0036457314
000100 dd 28 81 3b 4e c5 d0 ba 49 33 52 bc 0d d3 95 bb
       0.003941639 -0.0015927942 -0.01282961 -0.0045722784
000110 d4 1a c0 bc 83 ba f6 3a 16 fa c2 3c 98 85 5c 3c
       -0.023450293 0.0018823895 0.02380089 0.013459586
000120 94 08 84 bc 4c 58 e4 3c 29 2f 14 3c 7c 8b ab 3b
       -0.016117372 0.027874134 0.009044447 0.0052351337
000130 e2 dd b4 bc c6 c2 3d bc f3 78 28 bc bd 52 c8 3c
       -0.022078458 -0.011582082 -0.010282743 0.024453515
000140 ff 0e bd ba 0f 65 58 bc 53 e9 04 3c 2a 48 2c bb
       -0.0014424025 -0.013207688 0.008112269 -0.002628813
000150 c4 d2 a0 bc ad 29 08 3c e9 68 b7 3c 57 24 d4 3c
       -0.01963175 0.0083107175 0.022388892 0.025896234
000160 54 3d 0a bd 8f 80 21 3c db 6b 6a bc 2b 93 5a bc
       -0.033749893 0.009857311 -0.014307941 -0.013340752
000170 01 d6 c3 3b c4 91 a5 bb 7e f1 ba bc 4a 79 64 3b
       0.005976439 -0.005052777 -0.02282023 0.0034862333
000180 be 49 ac bc 0e 37 a5 3c db 13 80 bb 5a 22 41 3c
       -0.021031257 0.020167854 -0.003908617 0.011787975
000190 b8 ff 08 ba d2 8f a7 3c 6e a4 d4 bc 34 77 64 bc
       -0.00052260933 0.020454321 -0.025957312 -0.013944436
0001a0 2f d1 d2 bc c9 76 99 3c e0 be 3e bc 3a 62 30 bb
       -0.025734512 0.018733399 -0.011642188 -0.0026914016
0001b0 cf 04 a4 bc 5e f4 84 bb ee 85 ce 3b 38 a5 a8 bc
       -0.020021824 -0.004057451 0.0063025868 -0.020586595
0001c0 86 20 59 bc f7 7e 90 bc 2d 27 94 3c 1d f3 c6 bc
       -0.013252383 -0.017638667 0.018085087 -0.024285847
0001d0 10 7e 86 bc a7 fb 6d 3b 4a 73 7a 3b a0 74 d5 bb
       -0.016417533 0.0036313327 0.003821569 -0.006514147
0001e0 b7 16 dc 3b 64 b7 10 3b 9b e4 f3 bb 47 52 de 3c
       0.006716575 0.0022081966 -0.0074430234 0.027138842
0001f0 a0 85 94 3c 7d 58 c5 3c d2 05 41 3c 48 a5 3a 3c
       0.018130124 0.024090046 0.011781173 0.011391945
000200 bc 46 37 bc dd c0 8b 3c 85 dd 22 bc 83 60 36 bb
       -0.011186298 0.017059738 -0.00994051 -0.0027828522
000210 b8 32 f3 3c 66 02 bc bc 0a bc 05 3c 7c 0d ef 3c
       0.02968727 -0.022950362 0.008162508 0.029181235
000220 43 e8 9d bb f7 24 76 3c 43 b4 1f bc f4 19 b4 bc
       -0.0048189475 0.015023462 -0.009747568 -0.021985032
000230 86 ca a2 bc 6c b7 5b 3c 91 34 6a 3b 13 53 ae 3c
       -0.019871961 0.01341043 0.0035736898 0.021279847
000240 ad 0e 21 bc 31 a3 c3 3c 43 09 5e bc 46 32 c9 bc
       -0.009830159 0.023881527 -0.013552013 -0.024560105
000250 98 99 bb bc cc 30 d5 3c ca 20 72 bb f3 95 2e bc
       -0.022900388 0.026024245 -0.0036945813 -0.010655868
000260 00 16 a8 3c fb a8 18 3b 30 80 74 3c 92 bd 3d bc
       0.020518303 0.002329408 0.01492314 -0.011580842
000270 c7 51 f4 3c 2e 74 af 3b 00 75 f3 3c 2b f6 90 3c
       0.02982415 0.005354426 0.029718876 0.017695507
000280 e6 66 b2 3c 68 10 2b bb 8c a2 cd 3c 85 09 99 bc
       0.021777581 -0.0026102308 0.025101922 -0.018681297
000290 08 70 47 3c 36 4b 9c 3b 8e 0c 2e 3c e0 0f 19 3c
       0.012172706 0.004769708 0.01062311 0.009342164
0002a0 f5 7f 07 bd a0 cd 0f 3b c9 39 b8 3c 70 36 11 bc
       -0.033081014 0.002194263 0.022488492 -0.008863077
0002b0 6c fd 0e 3d fa 36 fb bb 00 ff fd b9 c3 fe fe 3c
       0.03490965 -0.007666466 -0.0004844591 0.03112734
0002c0 09 6b a6 bb 37 ae 64 3c a0 b3 89 bc 12 10 c7 3c
       -0.0050786776 0.013957552 -0.016809285 0.024299655
0002d0 3f 2d b2 ba e0 91 84 bb 51 2c 6e 3c 32 b5 60 bb
       -0.0013593807 -0.00404571 0.014536933 -0.0034287688
0002e0 6c 41 e9 3b 2a c4 ab 3c 45 a4 92 bc 6b c4 81 bb
       0.0071183946 0.020967562 -0.017900595 -0.0039601824
0002f0 b6 96 c5 bc a4 cd de 3c a3 45 0d 3d e2 69 03 3b
       -0.024119716 0.027197666 0.03449024 0.0020052125
000300 1c 77 96 3c 96 c7 dc 3c f4 85 70 bc 0b e7 ad bc
       0.018367343 0.026950639 -0.014680374 -0.021228334
000310 24 3c ff 3c c6 6a ab 3c 01 0b 36 3c 87 49 d9 3b
       0.031156607 0.020924937 0.011111022 0.0066310796
000320 2c 48 00 3c a7 5d 74 3c f0 f4 ba 3c 9e 4f 96 3c
       0.007829707 0.014914907 0.022821873 0.018348511
000330 50 47 b0 bc 5c f6 62 bc e2 20 8d 3c 61 83 51 bb
       -0.02151838 -0.013852682 0.017227594 -0.0031969177
000340 b1 85 81 bc fa 9b d3 3c fa 31 10 3c 20 a7 80 3c
       -0.01581082 0.025831211 0.008800978 0.015704691
000350 ca 3f 48 bb f4 54 52 bc af 00 e8 bb c2 7f 95 bc
       -0.00305556 -0.012837637 -0.0070801596 -0.018249396
000360 be b4 03 3d 79 8a 98 bc 80 11 6b bb 99 e3 18 bc
       0.03215479 -0.018620716 -0.0035868585 -0.009331607
000370 be a4 67 39 b3 40 c6 3c e8 80 9e bc 4b 0a a6 bc
       0.00022091248 0.024200773 -0.019348577 -0.02026858
000380 4e e0 09 3d a3 e3 45 3c f4 5e 2d 3c 1d 5b 99 3c
       0.03366118 0.012078199 0.010581721 0.018720204
000390 74 07 f5 b9 82 d7 cf bc 01 be c7 3c 77 99 06 3b
       -0.00046735595 -0.025371317 0.024382593 0.002053825
0003a0 77 1b 9c bc e3 60 0a 3d 80 0b ae 3c 3d 96 ed 3c
       -0.019056065 0.033783805 0.021245718 0.029002303
0003b0 a9 09 a7 3c 3b a8 04 3d a5 33 b2 bc 7b 85 cc 3b
       0.020390349 0.032387 -0.021753142 0.006241498
0003c0 18 32 2a 3c 34 35 11 bb 84 98 b7 3c 26 57 af 3c
       0.01038792 -0.0022156956 0.022411592 0.02140386
0003d0 49 46 80 bc 9d cb f9 bc 58 7f 5d bc d4 f6 bc bc
       -0.015658515 -0.030492598 -0.013519131 -0.023066916
0003e0 92 34 0e 3b ba 91 38 3c 4b b0 0a 3d 89 27 92 3c
       0.0021698815 0.011265213 0.033859532 0.017841117
0003f0 5c fd 09 3d ae ed 2c 3c 7a d2 8f 3c 0c e3 6d 3c
       0.033688888 0.010554714 0.017556418 0.014519464

fc1.bias f4 [128]
000000 a9 9c 7f 3c 45 96 ae 3c 37 95 78 bc b8 49 c7 3b
       0.015601316 0.021311888 -0.015172294 0.006081786
000010 8a 68 05 bc 98 a9 37 3b a6 6d 6c 3c cb 0d 0e bb
       -0.0081426 0.002802467 0.014430439 -0.0021675702
000020 a8 29 13 3b a0 84 04 39 5c ff 01 bc 56 bd c9 bc
       0.002245525 0.00012637908 -0.007934418 -0.024626415
000030 78 97 a6 3b c2 83 b4 3c bb 86 a4 bc 48 82 69 bb
       0.0050839745 0.022035483 -0.020083776 -0.0035630632
000040 cf 97 df bb 38 e2 d8 3a b7 58 c0 bc e0 d5 d1 3c
       -0.006823517 0.0016546911 -0.023479803 0.025614679
000050 08 05 5a bc f3 b6 81 3b c9 77 6f bc 80 40 00 bc
       -0.013306864 0.003958577 -0.014615961 -0.007827878
000060 12 35 d6 3c ea d6 9c bb fc 7e 41 3c 0b 56 6a 3c
       0.026148353 -0.004786362 0.011810061 0.014302741
000070 04 77 a5 bc 48 a4 81 3c 97 7b 6c bb 35 6a 14 bc
       -0.020198353 0.015825406 -0.0036084407 -0.009058525
000080 2b 3d f8 bc 58 e2 6c 3c c8 44 6a 3a 47 3a 88 bc
       -0.030302605 0.014458261 0.0008936641 -0.016629351
000090 a4 b7 f9 3a 28 1e 17 3c f3 2c 61 3c ab 0b 8a bc
       0.0019051922 0.009223498 0.013743627 -0.016851267
0000a0 23 af 2b bc 0c e1 9b 3c d4 f4 be 3c 58 04 df 3b
       -0.010478768 0.01902821 0.023310103 0.0068059377
0000b0 12 d9 63 bc 87 8a e4 bc 19 35 81 bb d5 4c 27 bc
       -0.013906734 -0.027898086 -0.0039430973 -0.010211189
0000c0 14 ee 40 bc e9 32 73 bc cb f2 da bc 07 44 e8 3a
       -0.011775512 -0.014843681 -0.0267271 0.0017720469
0000d0 96 a1 20 bc b4 0a 8a 3c b0 87 d5 bc 99 02 a4 ba
       -0.00980415 0.016850807 -0.026065677 -0.0012512981
0000e0 16 e4 d5 bb 81 a0 c7 bc f8 b0 1d bc 36 4f b5 3c
       -0.006527434 -0.024368526 -0.009624712 0.022132497
0000f0 89 b0 c7 bc dc 82 91 bc c2 a6 a7 3c 9c 55 12 3b
       -0.02437617 -0.017762594 0.020465259 0.002232886
000100 fa bc ce bc a0 02 be bc 54 fe d3 3c e8 4c e0 bc
       -0.025236595 -0.023194611 0.025878109 -0.027380422
000110 a4 cd dc 3b 57 95 cd bc bb 37 f2 3b 12 e8 b8 bc
       0.0067383815 -0.025095625 0.0073918975 -0.022571597
000120 60 74 dd 3b e2 ed d2 bc ad fd d5 bc df 75 9a bc
       0.0067582577 -0.025748197 -0.026121939 -0.018855033
000130 3e 10 ad bb 98 f1 9b 3c 8e ae 39 bb 68 83 d3 3b
       -0.0052814772 0.0190361 -0.0028332802 0.006454874
000140 13 05 48 3b 98 d6 14 3b 94 a5 97 bb 91 60 d9 3c
       0.0030520603 0.0022710916 -0.0046278927 0.026535304
000150 d0 68 c7 bb f4 58 3d bc f9 17 18 bc 87 ca c0 3b
       -0.0060854927 -0.011556853 -0.009283059 0.005883518
000160 30 1b 06 3c ab 9f 0c bd 1e 40 48 bc 80 1b 45 3c
       0.008185193 -0.03433196 -0.012222318 0.012030482
000170 a0 01 ea bc 70 6e 5a bb e5 8a 5d bc c0 7a ce bb
       -0.028565228 -0.0033329986 -0.013521885 -0.006301254
000180 de f9 82 3c 95 c3 8a bc 2d 2f 8f bb 8d d4 2e bc
       0.015988287 -0.016938964 -0.0043696375 -0.010670793
000190 c4 06 02 3c 61 97 46 3c a0 e7 24 3a 5d 17 4d ba
       0.007936183 0.0121210525 0.00062906183 -0.0007823611
0001a0 f2 52 8b 3c 1c 3c db 3c 22 11 78 3c 1c 11 8b bc
       0.017007325 0.02676206 0.0151408035 -0.016975932
0001b0 56 1c dc bc c6 b3 4d bc 24 f5 13 3c bf 03 8b bc
       -0.02686898 -0.012555068 0.009030614 -0.01696956
0001c0 82 b6 36 3b ba 7e 5b bc d5 91 ff 3b fe 29 46 bc
       0.002787978 -0.013396913 0.007799367 -0.012094973
0001d0 ec 04 06 3c 4c 30 b9 bc 4c f2 97 bb 98 d0 36 3c
       0.008179884 -0.022606038 -0.0046370383 0.011158131
0001e0 67 20 00 bd 48 2f 75 bb 37 9f 83 bc 9b 1a 13 3c
       -0.0312809 -0.0037412215 -0.01606713 0.008978511
0001f0 97 67 91 3c 2b a2 86 bc 7f 15 54 3c 80 a8 83 3a
       0.01774959 -0.01643475 0.012944578 0.0010044724

fc2.weight f4 [3, 128]
000000 6d 5a 17 3d 4c 0a 8e 3d 57 f2 65 3d 21 45 48 bd
       0.03695147 0.06935558 0.056139316 -0.04889405
000010 e3 d5 9f 3d 03 58 b4 bd 48 b8 80 bd d4 fb 96 bd
       0.078044675 -0.088058494 -0.06285149 -0.07372251
000020 b5 d6 2a bd 8a f1 8c bd 07 13 b1 3d de c0 0c 3d
       -0.041708667 -0.068820074 0.08646207 0.03436362
000030 46 24 e8 bc db c4 b4 3c 18 c1 8f 3d 28 d8 81 bd
       -0.028337609 0.022066524 0.070192516 -0.06340057
000040 b7 f4 9c 3d 85 e7 1b bc e4 25 b1 bc 30 72 53 3c
       0.07663863 -0.009515648 -0.021624513 0.012905642
000050 80 11 e4 ba f4 22 46 bb c6 a0 af bb fa e3 ac bd
       -0.0017400235 -0.0030233236 -0.005359742 -0.084419206
000060 dc c8 4d bd b5 6b 3f bd 92 1f cb 3c c3 2c c3 bc
       -0.050240383 -0.046733577 0.024795327 -0.023825055
000070 c3 43 81 bd 7a 46 93 bd 43 d4 e5 3c f4 dd a3 3d
       -0.06311753 -0.07191177 0.028055316 0.080013186
000080 c9 c0 2b bd de e5 63 bd 85 08 d3 3c a5 d3 e9 3c
       -0.0419319 -0.05563914 0.025760898 0.028543303
000090 b9 09 95 3d a3 c6 ac 3d 7b a2 40 bd 40 56 04 3c
       0.07277245 0.084363244 -0.047029953 0.008077204
0000a0 e9 29 a6 bb 62 2f 9f bd 79 2e 80 bd 42 26 51 3d
       -0.005070914 -0.077727094 -0.06258864 0.051061876
0000b0 16 33 a0 bd 9c 63 8f 3d 23 52 77 3d cc d7 b2 bd
       -0.07822244 0.07001421 0.060381066 -0.08732566
0000c0 a9 c2 ac bb 26 da a9 bd 6c c0 91 3b cb 94 10 3d
       -0.0052722287 -0.08293562 0.0044479873 0.03529815
0000d0 f8 15 6c 3c 60 b3 73 3c 81 ac 13 bd 43 ad f7 bb
       0.014409535 0.014874309 -0.036053184 -0.007558496
0000e0 9d a1 83 bd e8 e6 96 bd bd 1d 34 3d d8 32 93 3c
       -0.0642731 -0.073682606 0.043973673 0.01796858
0000f0 54 20 3e 3b 86 56 68 bd b5 cd 9b 3d 30 ff 03 bb
       0.0029010968 -0.05672314 0.07607595 -0.0020141117
000100 93 db 09 3d 12 ff 37 3d 38 6b a0 bd a8 cd ec 3c
       0.033656668 0.04492099 -0.0783295 0.028906658
000110 35 97 21 bd 97 57 a9 bd 3a e3 40 3c 6e e1 53 bd
       -0.039450843 -0.082686596 0.011772925 -0.05172866
000120 28 af 55 3c 07 4a af bc ac e6 5c bd da c6 43 3c
       0.013042249 -0.021397604 -0.053930923 0.011949265
000130 d0 d3 26 bd 00 41 be bc 6f e7 92 bc fd 44 9e 3d
       -0.040729344 -0.023224354 -0.017932622 0.07728002
000140 bb 26 aa 3d 7f 13 9f 3d 83 ea 97 bd 75 7b 8e 3d
       0.083081685 0.077673905 -0.074177764 0.06957141
000150 cb 75 83 3d c4 f4 ac bd 66 1f 93 bb 7c 02 76 bc
       0.064189516 -0.08445123 -0.004489827 -0.015015241
000160 24 80 a8 bd 55 a3 1d bd 6b 3e a1 bd a3 99 3c bd
       -0.08227566 -0.038485844 -0.078732334 -0.046044957
000170 b2 52 a2 bd 40 c6 95 bb 2c d5 b4 bc 0d 3e 93 3d
       -0.07925929 -0.0045707524 -0.022074305 0.071895696
000180 92 dc 39 3d b5 7b 6d 3d 9e c9 8b 3d df 23 4a 3d
       0.045376368 0.057979304 0.06825565 0.049350616
000190 b6 78 28 3d 92 17 b3 bb 40 a1 2c 3c e4 3b 82 bd
       0.041130744 -0.0054654563 0.010536492 -0.063590795
0001a0 5e 66 a1 bd e0 5a 86 3d 5e cf 9a 3c 92 db 20 3d
       -0.07880853 0.06560302 0.018897709 0.0392719
0001b0 e4 44 5e bd 21 81 28 bd 75 4d 99 bd 4e 6b 27 3c
       -0.054264918 -0.041138772 -0.07485477 0.0102184545
0001c0 2a 95 70 bd 50 a5 eb 3b 91 16 cc 3c b8 13 94 3d
       -0.058736004 0.0071913376 0.024913104 0.072303236
0001d0 b8 16 89 bc b0 21 a8 bd a1 bf a0 3d ab a8 89 3d
       -0.016734466 -0.082095504 0.0784905 0.06721624
0001e0 f2 fa bc 3c 51 ae 17 bd ca bb 53 3d 46 33 fe bc
       0.023068879 -0.037031475 0.05169276 -0.031030308
0001f0 13 a8 84 bd b0 97 ff bb a6 2d 90 3d 0a 0e 09 3d
       -0.0647737 -0.007800065 0.07039957 0.033460654
000200 eb 98 b6 bb fc af 87 3d 9a 4c 1a bd 13 f6 ac 3d
       -0.0055724285 0.06625363 -0.03767071 0.084453724
000210 35 5a 98 3d 14 0d aa bc 8d 0e dc 3c ee d8 4d 3c
       0.074390806 -0.02075819 0.026862407 0.012563927
000220 4f e7 8e bd 0c fa a5 3c c5 4b 07 bd d0 1a 00 bc
       -0.06977712 0.020260833 -0.033031244 -0.007818893
000230 ab 64 1f bd a6 ac 3e bc 91 29 be bc c2 8e 20 3b
       -0.038914364 -0.011637842 -0.02321318 0.0024499153
000240 fd 58 96 3d b8 17 6f bc 2a 00 73 3d 02 c8 08 3d
       0.07341192 -0.014593057 0.05932633 0.033393867
000250 95 72 9a 3d d8 17 b1 3c c0 2f 7f bd 30 f8 67 3c
       0.07541386 0.021617815 -0.062301397 0.014158294
000260 33 17 59 bd 2c e0 8c 3d 81 dc 34 3d ac 11 a3 3d
       -0.05300064 0.06878695 0.0441556 0.07962355
000270 c0 58 ef 3c 00 b8 7f 3c 7a e1 48 3c 5b d1 93 3d
       0.029217124 0.015607834 0.012260789 0.07217666
000280 55 02 6a bd a8 d2 4b bd 31 90 65 3d 92 c3 de bc
       -0.05713113 -0.049761444 0.056045715 -0.027192865
000290 90 c9 3a 3d ee 9b 05 bd 2a 93 a3 bc 34 1c 25 3d
       0.04560238 -0.03261941 -0.019967634 0.0403101
0002a0 e0 d9 fd bc 81 97 37 bd 10 c6 25 bd c2 85 4f 3d
       -0.03098768 -0.04482222 -0.04047209 0.05066467
0002b0 dd ff af 3d df 18 9e 3d 46 4c ed bc 20 cb 18 bd
       0.08593724 0.077195875 -0.028967034 -0.03730309
0002c0 7b e4 3e 3d 7a 80 3e 3d dd 27 9c bd eb 2b c9 3b
       0.046604615 0.046509244 -0.07624791 0.0061392686
0002d0 e3 b2 a0 bd 14 9b d6 3c ef 49 83 3d 93 3f 41 bd
       -0.0784662 0.026196994 0.06410586 -0.04717977
0002e0 c0 de 81 3d 13 70 ce 3c d3 1b 99 bd 48 c2 79 bd
       0.06341314 0.025199926 -0.0747601 -0.060976297
0002f0 76 3b b2 bd 07 34 b8 bd 8e 64 6f bd 1d ed 59 bc
       -0.087027475 -0.089942984 -0.058445506 -0.013301161
000300 14 9a ae 3d f8 2b 85 bd b5 74 9e bd 26 76 3f 3d
       0.08525482 -0.06502527 -0.07737104 0.046743535
000310 69 b7 68 bd 9e 70 a7 bd 7f 33 8a 3d bb 76 ab bd
       -0.05681554 -0.08175777 0.06748103 -0.083722554
000320 e3 1e 85 bd c0 b0 46 bc 28 44 aa 3a e2 79 a9 3d
       -0.06500032 -0.012127101 0.0012990283 0.082752004
000330 d9 2a 7f 3c 88 1a 99 bc 3d e5 a5 bd e7 15 b1 bd
       0.0155741805 -0.018689409 -0.08100364 -0.08646756
000340 c0 32 97 bd 76 03 00 3d 85 a5 78 bd c7 5c 29 bd
       -0.07382727 0.0312533 -0.060704727 -0.041348245
000350 8a a4 2c bd 78 dc 4e bc 50 24 8d 3d f1 9a 08 bd
       -0.042149104 -0.012625806 0.06891692 -0.03335089
000360 88 fb 93 bd 1d 4e 12 3d c0 d4 12 3c 98 71 c2 3c
       -0.0722571 0.035719026 0.008961856 0.023735806
000370 9a 2b b4 3c 13 41 8c bd d7 6f 90 3b 54 b3 77 bd
       0.021993447 -0.068483494 0.0044078636 -0.060473755
000380 24 94 20 bd 1c c2 c8 3c c7 78 27 bd 6b 66 ed bc
       -0.039203778 0.024506621 -0.040886667 -0.0289795
000390 44 0a a1 3c bb 97 05 bd 33 90 41 bd 36 80 b3 bd
       0.019658215 -0.032615405 -0.04725666 -0.08764689
0003a0 a9 12 a8 bd 41 01 b8 bd be f5 a4 bc 84 65 b4 bd
       -0.08206684 -0.08984614 -0.02013671 -0.08808425
0003b0 c6 91 a5 3d a4 d7 30 3d 80 07 e0 bb 31 4d ef 3c
       0.08084445 0.0431744 -0.0068368316 0.029211612
0003c0 8d 6f a4 3c 35 53 b3 bd d9 58 d2 3c fe 65 68 3d
       0.020072723 -0.08756105 0.025677131 0.056737892
0003d0 f3 0d ab 3d ba 1f 3c 3d e5 4a 96 3d 46 9b ad bd
       0.0835227 0.045928694 0.07338504 -0.08476882
0003e0 36 32 ae 3d 0d bc 90 bd 67 f9 06 bd 74 01 ab bc
       0.08505671 -0.07067118 -0.032952692 -0.020874716
0003f0 8a 3e 78 3d 86 5b 12 3c d1 19 95 3d 8a f5 24 3d
       0.060606517 0.008932954 0.07280315 0.040273227

fc2.bias f4 [3]
000000 6c 4e 9c bd 6c 18 b4 bd 56 9f 0d 3d
       -0.07632145 -0.087937206 0.034575783
