MLP_model11.pth (torch, 669296 bytes, 4 tensors)

fc1.weight f4 [128, 1300]
00000000: f907 353c f3dd 4dba 7521 7bbc de2f 07ba
00000010: 3af0 da3b 3c61 06ba c2e7 22bd 8feb 853c
00000020: cdce a23b ef1e 68bc e9b9 22bd a924 a33a
00000030: 6a0e fdbc 3f98 6fbc 2cb1 f93c 21d0 3c3c
00000040: ce45 bb3c f930 883b cd3f 5cbc f37c 37bc
00000050: 246e 1f3c c28a 5cbc 98bb 7eba fe74 123b
00000060: 07c7 d1bc 0a3b e73b a10f 9bbc f5a3 0b3d
00000070: f477 c7bb 10d3 043d 4451 32bc 7d0f d53c
00000080: 9f6d 503c dfe4 f3bc dab1 f3bc 4e77 a7bc
00000090: 5519 b43a f070 473c c11b b43b a756 9c3c
000000a0: b326 94bc e813 dabc 7026 313a 6f6d 363c
000000b0: 8a96 9c3c 47cf f73b 7fb3 d2bc d626 01bd
000000c0: 9297 1ebd bb9a c7bc 5d67 65bb 3fd3 e6bc
000000d0: ac63 61bc bd3d db3c 302b 05bd 825f da3b
000000e0: 7a41 cabc a77d 20bc 84cb 0db8 a894 fc3b
000000f0: 0330 0dbd 4743 52bc 3b76 c43b 8cf5 c5bc
00000100: ac62 d0bc c232 133c 795c ca3c 611a 03bd
00000110: 7ef0 7ebc 2a77 6a3c 1134 013c e796 6fbb
00000120: 5160 01bd 40dc 12bd c0ee d3bb 4249 a7bc
00000130: 018b 003c c84e 08bd 1e54 7cbc 6ad3 1a3c
00000140: b5d3 89bc 056f 873b 7cac 70bc d5ea 8fbb
00000150: 8900 e5bb d4cc afbb 215d 90bc d37b 753c
00000160: 19f0 113c 4612 02bd 54b7 283c d3e8 f63c
00000170: a5fd bbbb 93dc c93b 6f22 003c 5d7b 11bc
00000180: 81cb 43ba c3be 603c 0a2b a2bc 5855 a73b
00000190: 6589 4dbc fc46 fabc 7ae7 00bd 3c12 6bbc
000001a0: 413d 8f3c cd62 85bb f9e8 3d3c 9c5e 0d3d
000001b0: 0cad da3b fff0 bcbc 25ca 2fbb bfb2 94bc
000001c0: 8f59 f1bc d63d 37bc 3185 41bc d28d c1bc
000001d0: e6f7 0cbc c79e a03c 93dc d7bb 7db1 90bc
000001e0: 580e 11bc 7ec8 95bc 6e29 d9bc 3ff1 893c
000001f0: 7cad 92bc f403 e9bc e096 9cb8 9dba f03a
00000200: 13f4 1a3c 4cdf 88bc 6b0f b33c 57ac c63c
00000210: 4b02 c63b e026 453b c78a 8e3c c525 453c
00000220: 8038 05bd 85a8 b1bc b4cd cfbc 21c8 91bc
00000230: c7e4 b3bc e1ea ccbc 7f9d 59bc 8db5 35bc
00000240: 5f01 883b 02e1 553c 77aa 9bbc a298 01bc
00000250: 76e0 903a 511d bc3c 035c 6c3c a443 1d3c
00000260: ad8a c43b 9e39 80bc 489f 493c f7e5 9e3c
00000270: 25ff 95bc 398a b83c 5633 4dbc 16eb bfbc
00000280: 65a5 44bc a2aa a6bc b2f8 a1ba 99b1 95bb
00000290: 1ac6 863c d55d 6d3c 3bff 0abd f50a ecbc
000002a0: 5e7b 8dbc e7dd 883c 3507 97bc 5053 d5bc
000002b0: 638d 9abc d7db b83c 1b8c 053d 3186 c43c
000002c0: 319e 2b3c 9b0a 133c ec17 2b3c 4ab9 00bd
000002d0: de34 bf3b af60 21bb d1b8 05bc 0525 eebc
000002e0: a773 9abb 9fe9 3ebb 6bf0 9f3a c8a6 063c
000002f0: ce7c 52bc 9602 e8bb 1069 37bc 4e53 1ebc
00000300: b01d 10bd d59c 14bd cff6 c6ba f268 8aba
00000310: 4f3f 1fbc 11b2 60bc 3efa 343c 060d cbbc
00000320: 3372 c73c 62e5 5dbc f8a2 b03c ca73 a83c
00000330: 19a2 823c dc42 f5bc 072d 54bc 6743 98bc
00000340: fcf0 c73c fb62 2b3c 61c1 dd3b 2479 ffbc
00000350: f0b2 baba 53d0 3bbc 1932 e93b e635 52bc
00000360: 5049 ac3c 3059 ca3c 48b0 c53b e6cf 0cbd
00000370: 331b 1dbd 69d9 8e3c f2c0 51bb 7fd0 dcba
00000380: 6cbe d7bb 5e96 a93c da79 003c f045 d6ba
00000390: ac5b c5bc 4e8f 03bd 4401 8e3c 82da b9bc
000003a0: 2f66 903c 60ca 58bc 1160 a63c 3e5f 8abc
000003b0: a0ed 62bc d945 e43b a3d0 5cbb 700b c93b
000003c0: a05c dfbc d2a6 e0bc 347f afbc 72cb ba3c
000003d0: 2de7 a0bc af63 16bc e575 93bc 98d3 20bc
000003e0: 8f52 c0bc a1ea 79bc 7a63 f1bc 1515 b8bc
000003f0: edd1 a13c 2816 ad3c 447f 60bc 830c e33b
0.011049264 -0.00078532024 -0.015327801 -0.0005156974 0.0066814693 -0.00051261834 -0.039771803 0.016347675
0.0049685 -0.014167531 -0.03972808 0.0012446839 -0.030890662 -0.014623701 0.03047999 0.011524231
0.022860434 0.0041562286 -0.013442946 -0.011199224 0.009730849 -0.013460817 -0.00097172847 0.0022347565
-0.025607599 0.0070565986 -0.01892835 0.03409191 -0.0060872976 0.032427847 -0.010883633 0.026008362
0.012721448 -0.02977222 -0.029747892 -0.020442631 0.001374046 0.0121729225 0.0054964726 0.019084288
-0.01808486 -0.02662082 0.0006757742 0.011134489 0.019114751 0.007562551 -0.025720356 -0.031531177
-0.038718767 -0.024365773 -0.0035004236 -0.028176902 -0.013756674 0.026762838 -0.03251189 0.0066642174
-0.024689425 -0.009795583 -3.380656e-05 0.007708151 -0.034469616 -0.012833423 0.0059955395 -0.024164937
-0.025437675 0.00898427 0.024702298 -0.03200758 -0.0155602675 0.0143106375 0.007885949 -0.003655845
-0.031585995 -0.035854578 -0.00646767 -0.020420674 0.007845641 -0.033278257 -0.0154009145 0.009449819
-0.016824583 0.0041331076 -0.014689561 -0.004392008 -0.006988589 -0.0053649936 -0.017622532 0.014983135
0.008907341 -0.03175571 0.010297615 0.030140316 -0.005737024 0.0061603277 0.00782071 -0.00887951
-0.0007468984 0.013717356 -0.019795913 0.0051066093 -0.012544964 -0.030551426 -0.031470753 -0.014347609
0.017485263 -0.004070616 0.01159119 0.034514055 0.006673461 -0.023064135 -0.0026823368 -0.018151639
-0.02946165 -0.011184176 -0.01181154 -0.023627196 -0.0086040255 0.019606961 -0.006587574 -0.017662758
-0.0088535175 -0.018284079 -0.026509013 0.016838668 -0.01790499 -0.028444268 -7.466762e-05 0.0018366162
0.009457606 -0.016708039 0.021857938 0.0242521 0.006042754 0.0030082986 0.017400159 0.012032931
-0.032524586 -0.021686802 -0.025366642 -0.017795624 -0.021959675 -0.025014343 -0.013282179 -0.011090648
0.004150554 0.013054134 -0.019002182 -0.007909926 0.0011053223 0.022963198 0.014426234 0.009598646
0.0059979768 -0.015652474 0.012306042 0.019396765 -0.018310139 0.022526847 -0.0125244465 -0.023427527
-0.012002324 -0.020345036 -0.0012357442 -0.0045682904 0.016451884 0.014487703 -0.033934813 -0.028813818
-0.01727074 0.016707374 -0.018436054 -0.026040703 -0.018866247 0.022565765 0.032604318 0.023989769
0.0104747275 0.0089746965 0.010442715 -0.031426705 0.0058351597 -0.0024624278 -0.008161739 -0.029070387
-0.004713494 -0.0029130948 0.0012202387 0.008218475 -0.012847139 -0.0070803864 -0.011194482 -0.009663416
-0.035184562 -0.03628238 -0.0015179756 -0.0010559841 -0.009719684 -0.013714329 0.0110459905 -0.024786483
0.024346447 -0.013543459 0.021562085 0.020563025 0.015946435 -0.029939108 -0.0129501885 -0.018586827
0.024406902 0.0104606105 0.0067674373 -0.031185694 -0.0014244001 -0.011463243 0.007116568 -0.012830233
0.021031052 0.024700731 0.0060329773 -0.034377955 -0.038356017 0.017437654 -0.0032005874 -0.0016846805
-0.0065839794 0.020701583 0.007841552 -0.0016347747 -0.024091564 -0.032119088 0.017334588 -0.0226872
0.01762685 -0.013231844 0.02030948 -0.016891118 -0.0138505995 0.0069663343 -0.0033693693 0.0061353967
-0.027265847 -0.027423296 -0.02142296 0.022802088 -0.019641483 -0.00917904 -0.018000552 -0.009816073
-0.023476867 -0.015253694 -0.02946638 -0.02247099 0.01975342 0.021128729 -0.0137022175 0.0069289817

fc1.bias f4 [128]
00000000: cace 573a 614e bebc 4f12 9b3c 4cdd 1fbc
00000010: d94b 05bc 502c c7bc a11f a1bc 8f10 9d3c
00000020: 10c0 2fbb d8c0 a63c b183 833c 2167 84bb
00000030: c6e5 a43c 08ce f039 38ec 72bb abb5 91bc
00000040: cc01 bf3b 80d9 daba 36a6 cfbc 11c2 0dbd
00000050: 5796 4fbc d37b 213b c554 073c 6b47 843c
00000060: 52a7 7dbc e895 593b 9f51 383c 77c1 583c
00000070: 105b e8bb f1fb 79bb e30c d73c dc6a 38bc
00000080: 3ada 4fbc 6090 d53c 56dc 393c ac88 b9bb
00000090: 3155 89bc e024 b93c 4135 ffbb 3ea4 9bbc
000000a0: 2569 a5bc c081 ad3b d0e2 a3bb 096b c2ba
000000b0: bb55 cabc b500 3a3c 1c19 91bc 703a 243b
000000c0: 120c d63c 8f9f 74bc 63c3 c9bc 35db f9bc
000000d0: d133 c73c 80c2 0539 b06b b5bc 9b70 07bd
000000e0: 3e2c 0dbc e6c4 dd3c e43a 633c c5e3 89bc
000000f0: 8cb1 3a3c c3c5 313c 85f6 87bb 8aab d9bc
00000100: 7335 613b 9a8e 3abc 3851 c0bc 105e b7bb
00000110: 60c5 24ba e0e7 523c 5db7 72bc 2a66 bbbc
00000120: 6c49 97bc 036d d4bc 4c38 fe3b 2ba2 09ba
00000130: b416 95bc fa9c 933c ada4 57bc 56a8 bd3c
00000140: c531 35bc 9046 583b de98 8fbb 2a9a e73c
00000150: 787e 62bb 1c13 4f3b 8e76 5b3c 06b2 973c
00000160: c844 ebbc 4268 91bc fd8f 9c3c 9c74 c13c
00000170: 62de 01bd 15ac 6fbb e201 f33c f0cb abba
00000180: c7da aa3c adba d2bc acda 96bc 6642 b73c
00000190: fe2b b13c 33f3 a5bb f724 fdbc 3e18 e2bc
000001a0: 4eff f3bc c52b 90bc f95a d23c c734 1a3b
000001b0: 722d eebc 6223 d6bc 183b 1ebb 3ea2 133c
000001c0: a7d0 0ebc 581a eb3b b981 a03c 437e 333c
000001d0: d322 8d3c 3450 953c 9a19 acbc 5567 84bb
000001e0: a07e febc ef83 c73c 007d 863c d3dd c9bc
000001f0: d31e 333c 7ead 443c 3891 cdbc cb2e c83c
0.0008232413 -0.023230733 0.018929629 -0.009757351 -0.008135759 -0.024313122 -0.019668402 0.019172935
-0.002681736 0.020355627 0.016054006 -0.0040406142 0.020129096 0.00045929872 -0.0037067067 -0.017786821
0.0058290716 -0.00166969 -0.02534781 -0.034608904 -0.012670121 0.0024640455 0.008259957 0.016147336
-0.015481787 0.0033200923 0.011249929 0.013229719 -0.0070909336 -0.0038144554 0.026251262 -0.011255946
-0.012686307 0.02606982 0.011344036 -0.0056620445 -0.016764255 0.022600591 -0.007788331 -0.018999215
-0.020191738 0.0052950084 -0.0050014034 -0.0014832924 -0.024699083 0.011352708 -0.017712168 0.0025059246
0.026128802 -0.01493062 -0.0246293 -0.030500034 0.0243167 0.00012756325 -0.022146076 -0.033066373
-0.008616505 0.027071428 0.013869021 -0.016832242 0.01139487 0.010850373 -0.0041492605 -0.026571054
0.0034364134 -0.011386538 -0.023476228 -0.00559593 -0.00062855147 0.012872666 -0.014814225 -0.022875864
-0.018467627 -0.025930887 0.007758176 -0.00052503 -0.018199302 0.018019188 -0.01316182 0.023151558
-0.011059229 0.0033001043 -0.004382237 0.028271753 -0.0034560245 0.0031597083 0.013394965 0.018517505
-0.02871932 -0.01774991 0.019111628 0.023615174 -0.03170622 -0.0036571075 0.029663984 -0.0013107043
0.020856274 -0.02572378 -0.018414818 0.022370528 0.021627422 -0.005064392 -0.030901415 -0.02759945
-0.029784825 -0.017598996 0.025678145 0.0023529993 -0.029074404 -0.026139919 -0.002414411 0.0090108495
-0.008716739 0.0071747713 0.019593107 0.010955396 0.01722852 0.01822672 -0.021008302 -0.0040406385
-0.031066239 0.024354903 0.016417027 -0.024641907 0.010932642 0.012004254 -0.02509366 0.024436375

fc2.weight f4 [2, 128]
00000000: 49d4 623d cacd 09bb 7894 413d 71d3 8cbd
00000010: 08cf 7dbd 05cd c83c 331a 6c3c 9cbf 783c
00000020: aca9 b63c 60f8 c03c 7873 e6bc a1eb 20bd
00000030: ca45 743d 929e cd3c 9436 82bc f9c5 5f3d
00000040: 5a86 423d c86e debc 5a69 963d 9be3 76bd
00000050: 7f38 3e3d ea47 2c3d 6a32 9ebd 3824 2f3d
00000060: ec73 91bd 89b4 ae3d cf71 8a3d bdfd 32bc
00000070: 29b7 cebc 5a23 15bd e287 aa3d 58b4 913d
00000080: 64ac a6bd 0df1 933d d846 963d 6384 893d
00000090: 2187 983c 4fb8 9d3d 40c7 8e3d b410 cb3c
000000a0: 289a a1bd c818 4cbc 1809 8d3c 1bb0 97bc
000000b0: b832 9e3b 7934 8cbd 6379 76bd a8b5 a6bd
000000c0: 5214 a43d 2676 01bd 80ca ac3c 4f7f 123d
000000d0: 8ce1 943c 488b 47bc fe72 27bc c102 90bd
000000e0: ae06 82bd 8ea9 1fbd be8f 283d 1f94 8b3d
000000f0: a647 ed3c 3f30 763c cd49 83bd 12a1 85bc
00000100: 08c7 103d 9b0d 7fbd 2df7 c33c 36a6 2b3d
00000110: c876 a5bc 1e0c 83bd 9bf5 8ebb 6121 883a
00000120: 95a8 ac3d a7aa 31bd 4071 0bbd b263 27bd
00000130: 83fc cf3c 44d0 533d 4d1f 1cbd a89d f13c
00000140: fda5 9abd 5428 86bc 1f21 1dbd 0d42 6fbb
00000150: 7e59 dbbc be22 263c ba25 64bd 09e0 96bd
00000160: b4db d73c f7cf 8b3b 15d1 b3bd 3f72 8dbd
00000170: d71d 033d 28f4 733b fc66 9e3c d645 833d
00000180: 038b 8c3d 68f7 bcbc cde9 f53c 98a8 d0bc
00000190: c506 5a3d 33d1 abbd 3ed7 42bd 0f02 9b3d
000001a0: fa8c 83bd a466 05bd c25a aebc 69c8 213d
000001b0: 94f0 b1bd a521 06bd fea2 89bd 3f22 90bd
000001c0: ffa7 b7bc 3b95 a13d ce60 3d3c 48d4 cfbc
000001d0: 43fe 12bd b18e 8dbd 0a9c 323d bcb4 743c
000001e0: 45ed 863d 4e2a 77bc 70e8 a0bd f311 993d
000001f0: d8ea 4b3d b8f2 a63d e975 98bd 133f 1abd
00000200: 81b9 0b3c d562 ccbc 26da 28bd efc7 a6bd
00000210: d53c c33c 7704 563d 2807 e13c 1b09 a4bc
00000220: eaea 8bbd bafa 54bd 49ab 903d 340f eaba
00000230: 28c4 97bd 8590 71bd 61db 8b3d 5db7 833d
00000240: 3e35 70bd 6509 a63d f007 a7bc 9ce0 e7bc
00000250: fa4d 7bbd fbd5 7d3d 7f92 5ebd 45d1 043d
00000260: 8d12 3b3c 4b50 0dbd 8755 6abd ed05 513c
00000270: 4441 eebb 01af 253c 0340 a3bd def8 48bc
00000280: 56ee 293d ff38 51bd 64ab 8e3d e07c 9e3b
00000290: 5e68 54bd 6b8d 853d d52f 1a3d ab36 aebd
000002a0: d5c1 fabc 6ae9 0d3d 0571 933d b0a7 8cbc
000002b0: 58b5 63bd 9e9f 573d 36e3 8bbd c0ea b4ba
000002c0: 5c9d d8bc d8e9 173d da97 f6bb f619 23bc
000002d0: 18d6 8a3c c5ac 56bd 9bcb 00bd 670c 7d3d
000002e0: f13c a43d 7502 803d 6ad2 473d 6418 b6bb
000002f0: 9724 6d3d f90e 2abd 1dbb 88bd 3818 553d
00000300: b82b b43c a3ab 49bc c32b f03c cb4d ac3d
00000310: d05e e4bc a195 c537 15f8 9ebb 6454 0c3d
00000320: 6644 73bd 1e27 263d 3099 ac3b 3eae e13b
00000330: a684 863c 4d73 f53c 9b47 0d3d f2df 1bbd
00000340: 77cb 673d 90b4 88bb 2873 ca3c 589a 863d
00000350: dc1f 7bbd d61f 84bd 085d 8c38 2c15 b0bd
00000360: c090 a63d 408e dd3c be65 af3d 01e5 423d
00000370: 1019 163d 0325 38bd 2f75 b4bd faf1 103d
00000380: c8d7 a5bc 1700 0a3d 39c0 e5bc f3d3 973d
00000390: 1f18 3a3d 8de3 213d 515c 143a 1fb9 823d
000003a0: db24 8c3d 0929 b3bc 4020 453d 6a20 47bd
000003b0: c33b d1bc 425c 323d 5c7b 7cbd 5c65 f0bc
000003c0: 32e9 103c 6f03 7fbd c896 90bc e8b5 273d
000003d0: cbb5 623d e1a1 ae3d 3ee7 aabb 8043 0ebd
000003e0: 1527 933d 9a2e 07bd 5d65 9bbd b84c d23c
000003f0: 53f7 cdba dd72 01bd 4c21 4a3d 170d ac3d
0.055378232 -0.00210272 0.04726073 -0.06876267 -0.06196502 0.024511823 0.014410543 0.015182402
0.022297703 0.023555934 -0.028131232 -0.039287213 0.05963687 0.025100026 -0.015895166 0.05463216
0.04749141 -0.027152434 0.07344313 -0.060275655 0.046440598 0.04206077 -0.077244595 0.04275915
-0.071021885 0.08530528 0.067599885 -0.010924754 -0.025233822 -0.036410667 0.08326699 0.07114476
-0.0813835 0.07223711 0.07337731 0.06714704 0.018619122 0.0770117 0.06971598 0.024788238
-0.07890731 -0.01245708 0.01721625 -0.01851659 0.0048278235 -0.06845946 -0.060174357 -0.08140117
0.08011688 -0.031606816 0.021092653 0.035765942 0.018173955 -0.012179203 -0.010220287 -0.07031775
-0.0634893 -0.03898006 0.04115271 0.06815361 0.028964829 0.015026151 -0.06410561 -0.016312156
0.03534606 -0.062268835 0.023921574 0.041906558 -0.02019824 -0.063987955 -0.0043627745 0.0010385924
0.08430592 -0.043375637 -0.03404355 -0.04086656 0.025388962 0.05171229 -0.03811579 0.029494122
-0.07551191 -0.016376652 -0.038361665 -0.0036507875 -0.026776072 0.010140119 -0.05570004 -0.0736695
0.02634988 0.0042667347 -0.087801136 -0.06906556 0.03201088 0.0037224386 0.019336216 0.064098045
0.06862452 -0.023067191 0.030018711 -0.025471017 0.053229112 -0.08389511 -0.047568552 0.07568752
-0.064233735 -0.03256859 -0.021283511 0.039497767 -0.08688465 -0.03274693 -0.067205414 -0.07037782
-0.022418974 0.078897916 0.011558725 -0.025369778 -0.035887014 -0.06911982 0.04360584 0.014935669
0.06588224 -0.01508577 -0.07856834 0.07474127 0.04978451 0.08151764 -0.074443646 -0.03765781
0.008528114 -0.02494947 -0.041223668 -0.08143603 0.023832718 0.05225035 0.027469233 -0.020023873
-0.06831916 -0.051996924 0.0706392 -0.0017857314 -0.07410461 -0.058975715 0.068289526 0.06431458
-0.058644526 0.081072606 -0.020389527 -0.028305344 -0.06135366 0.061971646 -0.05433893 0.032426137
0.011417997 -0.0345004 -0.05721047 0.0127577605 -0.007270964 0.010112525 -0.07971194 -0.012266366
0.04148706 -0.051079746 0.06966284 0.0048366636 -0.051857345 0.06521114 0.037643272 -0.08506521
-0.030610004 0.03464643 0.07199291 -0.017169803 -0.055592865 0.052642457 -0.068304464 -0.0013802871
-0.026442222 0.037088245 -0.0075254263 -0.00995492 0.016947791 -0.05241086 -0.031444173 0.061779406
0.08019436 0.06250469 0.04878465 -0.005557107 0.057896223 -0.041518185 -0.06676314 0.05202505
0.021993503 -0.012308988 0.029317742 0.08413275 -0.027877241 2.3553906e-05 -0.004851351 0.03426017
-0.0593914 0.04056465 0.005267285 0.0068872264 0.016420674 0.029962206 0.034492116 -0.038055368
0.056590524 -0.0041719154 0.024713114 0.065724075 -0.06130968 -0.06451385 6.6930486e-05 -0.08597788
0.081330776 0.02704537 0.08564328 0.047581676 0.036644995 -0.044957172 -0.088114135 0.035387017
-0.020244494 0.033691492 -0.02804576 0.07413473 0.04543316 0.03952365 0.0005659508 0.06382965
0.06842967 -0.021870153 0.04812646 -0.048614897 -0.025541192 0.043545015 -0.061641082 -0.029345207
0.008844661 -0.062259134 -0.017650023 0.040944964 0.055349153 0.0852697 -0.0052155545 -0.03473234
0.07185189 -0.033003427 -0.07587693 0.025671348 -0.0015713967 -0.031603683 0.04934816 0.08400934

fc2.bias f4 [2]
00000000: f9e5 913d 602a 9dbc
0.07123942 -0.019185245
