RNN11model.pth (torch, 218210 bytes, 10 tensors)

lstm.weight_ih_l0 f4 [256, 13]
-0.070036985 -0.04241185 -0.13044909 -0.08809309 0.054715917 -0.08932711 -0.03772485 -0.05284978
0.06443277 0.014951039 -0.047825076 -0.10400386 0.12217595 -0.05472904 0.11321916 -0.06652827
-0.015555503 0.100795254 -0.11820788 0.0325876 0.10003499 -0.06946686 -0.06284322 0.07550646
-0.056362323 -0.057490945 0.06933603 0.014354412 -0.08386441 0.12873325 -0.1448345 0.0061533637
0.11733459 -0.028632503 -0.072896056 0.11531911 -0.014036184 -0.014944497 -0.017466053 0.11243309
0.041598976 -0.02627156 0.11420061 -0.041443024 0.020388074 0.12512767 0.0014932374 -0.04572162
-0.081043765 -0.11482896 -0.054099478 -0.07030559 -0.06392401 0.003699816 -0.11234282 -0.07807688
-0.011813992 -0.020221226 -0.03660271 0.102941185 -0.07471614 -0.037848294 -0.010861583 0.059400573
0.0111501925 0.058761787 -0.027498314 -0.113517396 0.0988294 0.037204415 -0.05899475 0.017279439
-0.028237304 0.067700334 -0.08991727 0.16901734 0.14451581 0.05485241 -0.0076409336 -0.007820611
-0.13875298 0.05359875 0.011139047 -0.06328126 -0.16237041 0.047896978 0.03973975 -0.0361867
0.023006842 0.08749376 0.05701757 -0.0829101 -0.07876567 -0.136587 -0.010636362 -0.04270549
0.06488391 -0.040844034 -0.12217155 -0.02929602 -0.014663208 0.018150425 0.082250826 0.079288006
-0.08625263 0.08954249 -0.065355614 0.018533707 0.022469759 0.049289823 -0.12329644 -0.043864056
-0.023012325 0.095987186 0.08434455 0.0041546077 0.057036728 -0.006558863 -0.015299103 0.15655175
-0.017982414 -0.030366981 0.027564418 -0.030946445 -0.06424445 -0.0062557138 0.026396703 0.050987165
0.12329528 0.107781954 0.068762004 0.10791732 -0.09988772 -0.06479422 0.02082076 0.061530475
-0.016120484 0.07334293 0.010058632 -0.014475603 0.08445129 0.07948909 0.042201106 -0.1083853
0.085031204 -0.008497685 -0.054579023 0.09442353 -0.07464714 -0.056827936 -0.051366944 0.012038908
0.082475446 0.1046378 0.13916026 0.06921529 -0.11141601 0.10429761 -0.032373533 -0.017817512
-0.08234042 -0.10141502 -0.020882055 0.042144448 0.028397873 -0.03694415 0.07096724 0.011597231
0.03540446 -0.0527156 0.11911595 -0.06201613 0.12299143 -0.07659209 -0.07759811 0.067769736
-0.1147991 -0.037536696 0.0034708977 0.045645505 0.07577671 -0.11547126 -0.09889789 0.09796928
-0.064646736 -0.0075013936 -0.019156247 0.008340716 0.012329116 -0.055011004 0.11571348 -0.07520847
-0.11096373 -0.10082184 0.12406348 0.08778577 0.02031147 0.037387136 0.06396843 -0.036650166
0.06437297 -0.12737785 0.14945202 -0.031098133 0.12730196 -0.106912814 -0.0014172805 0.092373975
-0.039036617 0.110335335 -0.12375794 0.124900505 0.080237955 -0.016385091 -0.03865345 0.090048745
0.032557636 -0.08566806 -0.08715922 0.097545 -0.045101285 0.038249746 0.10349587 0.06153889
-0.0068296264 -0.073928095 0.15109925 0.07603998 0.09414865 -0.12106547 0.009199014 -0.10360806
0.063565925 -0.02499681 -0.0020423578 0.014055957 0.1077397 0.040907614 0.019021722 -0.06274967
0.0922252 0.02458351 -0.08862812 -0.0023711433 -0.081199 -0.08805389 -0.063209765 -0.039352294
-0.15469868 -0.046938766 0.048694104 -0.053026296 0.037554957 -0.07946636 -0.013785226 -0.06999186
00000000: 8d6f 8fbd 0cb8 2dbd 7294 05be 266a b4bd
00000010: cc1d 603d 22f1 b6bd 5f85 1abd 0379 58bd
00000020: 54f5 833d 34f5 743c 3ae4 43bd faff d4bd
00000030: 6237 fa3d 8f2b 60bd 72df e73d f93f 88bd
00000040: 82dc 7ebc be6d ce3d f916 f2bd 937a 053d
00000050: 25df cc3d a444 8ebd f2b3 80bd 22a3 9a3d
00000060: 2edc 66bd a07b 6bbd 0c00 8e3d c52e 6b3c
00000070: 1bc1 abbd a6d2 033e 7f4f 14be 28a2 c93b
00000080: 1e4d f03d b68e eabc 874a 95bd 6d2c ec3d
00000090: 06f8 65bc c3d9 74bc f814 8fbc 5243 e63d
000000a0: b063 2a3d 7437 d7bc 02e2 e93d 29c0 29bd
000000b0: e404 a73c 7821 003e bcb8 c33a 9846 3bbd
000000c0: 46fa a5bd 722b ebbd 6a97 5dbd 61fc 8fbd
000000d0: 97ea 82bd 9d78 723b fe13 e6bd c5e6 9fbd
000000e0: 798f 41bc fca6 a5bc b9ec 15bd d4d2 d23d
000000f0: c704 99bd d006 1bbd c8f4 31bc 044e 733d
00000100: 4caf 363c 33b0 703d 2544 e1bc cf7b e8bd
00000110: 1267 ca3d a863 183d 7ba4 71bd 9c8d 8d3c
00000120: eb51 e7bc 79a6 8a3d 8c26 b8bd e212 2d3e
00000130: f4fb 133e ecac 603d cc60 fabb 0522 00bc
00000140: 4315 0ebe 5d8a 5b3d 8d80 363c 9b99 81bd
00000150: 6e44 26be 9f2f 443d 26c6 223d 8138 14bd
00000160: d878 bc3c ee2f b33d 418b 693d c5cc a9bd
00000170: e54f a1bd 76dd 0bbe 2344 2ebc f4eb 2ebd
00000180: dbe1 843d 134c 27bd 1435 fabd 35fe efbc
00000190: f43d 70bc 33b0 943c 1f73 a83d c061 a23d
000001a0: 38a5 b0bd 0e62 b73d 2ad9 85bd 00d4 973c
000001b0: 8012 b83c 20e4 493d d882 fcbd ccaa 33bd
000001c0: 5884 bcbc ee94 c43d d6bc ac3d 6023 883b
000001d0: 589f 693d bbeb d6bb 17a9 7abc 1a4f 203e
000001e0: db4f 93bc 2dc4 f8bc c6ce e13c 6683 fdbc
000001f0: 9892 83bd bbfc ccbb e63d d83c ebd7 503d
00000200: 3c82 fc3d c9bc dc3d 18d3 8c3d c203 dd3d
00000210: ef91 ccbd d5b2 84bd 4c90 aa3c 6107 7c3d
00000220: 1b0f 84bc d134 963d f6cc 243c 142b 6dbc
00000230: ccf4 ac3d 2dcb a23d 11db 2c3d 1df9 ddbd
00000240: d724 ae3d e039 0bbc 418e 5fbd 2061 c13d
00000250: 9ae0 98bd 69c4 68bd 2566 52bd d73e 453c
00000260: e3e8 a83d 584c d63d 0780 0e3e bfc0 8d3d
00000270: 142e e4bd fc99 d53d 1c9a 04bd 08f6 91bc
00000280: 18a2 a8bd aeb2 cfbd d810 abbc a89f 2c3d
00000290: a8a2 e83c c052 17bd 4657 913d 5002 3e3c
000002a0: 4404 113d 50ec 57bd 10f3 f33d a004 7ebd
000002b0: eee2 fb3d 50dc 9cbd c2eb 9ebd dcca 8a3d
000002c0: ca1b ebbd 14c0 19bd 0078 633b c8f6 3a3d
000002d0: d230 9b3d 327c ecbd fa8a cabd 1ea4 c83d
000002e0: 8265 84bd 40ce f5bb 90ed 9cbc 80a7 083c
000002f0: 1000 4a3c 3853 61bd 30fb ec3d e606 9abd
00000300: f440 e3bd ae7b cebd fe14 fe3d 07c9 b33d
00000310: 3d64 a63c 4123 193d e101 833d 7c1e 16bd
00000320: fad5 833d 576f 02be f309 193e 83c1 febc
00000330: 725b 023e 1bf5 dabd 0bc4 b9ba 912e bd3d
00000340: dce4 1fbd 7ef7 e13d ce74 fdbd d6cb ff3d
00000350: cc53 a43d 073a 86bc 1453 1ebd 7a6b b83d
00000360: 285b 053d bc72 afbd 8880 b2bd acc5 c73d
00000370: 20bc 38bd c4ab 1c3d a5f5 d33d 3410 7c3d
00000380: 0fcb dfbb 9d67 97bd c3b9 1a3e d9ba 9b3d
00000390: 02d1 c03d 2cf1 f7bd 76b7 163c 7630 d4bd
000003a0: da2e 823d 1cc6 ccbc 14d9 05bb f54a 663c
000003b0: a2a6 dc3d be8e 273d 71d3 9b3c e682 80bd
000003c0: 91e0 bc3d 5b63 c93c a982 b5bd 2f65 1bbb
000003d0: a94b a6bd 9955 b4bd 1f74 81bd df2f 21bd
000003e0: 5569 1ebe dd42 40bd 7873 473d 1a32 59bd
000003f0: 3ad3 193d 42bf a2bd 6edb 61bc e457 8fbd

lstm.weight_hh_l0 f4 [256, 64]
0.106298216 0.108427346 0.06818631 -0.04077617 -0.033838198 0.076837845 -0.0717591 -0.031193387
0.035775114 -0.09602162 -0.053124443 -0.051675085 0.0043608053 -0.008443546 -0.052838787 0.005844341
-0.115141936 0.117036454 0.03707696 0.10738561 -0.08071275 0.015309475 0.03351613 0.08896407
-0.102149114 -0.07522395 0.08358201 0.0017677565 0.08214427 -0.0015087344 0.035882875 0.030997107
0.00016516447 -0.15345141 0.017660685 0.02411056 0.0014162736 -0.06866294 -0.018109 -0.01430185
0.060020432 0.06198833 0.11786356 0.06886113 0.059602495 0.09458591 -0.039000005 -0.13057606
0.06933317 0.021540154 0.041554052 0.05705721 -0.078298 -0.09374067 -0.013404116 -0.041506186
-0.053911913 -0.017556332 -0.046589047 -0.071673505 -0.088403426 0.10675384 0.0155235445 -0.023734773
-0.045020036 -0.056049794 -0.102403015 0.068818465 -0.119681984 -0.0149615705 0.019873999 -0.08087595
0.078992814 -0.07278353 0.004564747 0.08084008 -0.102754064 -0.124003954 -0.03462699 -0.0640648
-0.05639246 0.007730639 0.09086633 -0.078242846 0.018716231 0.017523184 0.124304086 -0.10423446
-0.040961415 0.120658025 0.09398387 -0.046926767 0.11818378 0.086025074 -0.06816448 0.067178786
0.061379567 0.09377276 -0.08353697 0.09257563 -0.09297396 -0.08460499 0.055164237 0.0025220779
-0.020758018 -0.05462919 0.1173785 -0.07732084 -0.09622048 0.04779105 -0.048138883 0.028448904
-0.078827515 -0.0029254854 -0.07738051 0.03948365 0.033581078 -0.120098874 -0.061372086 -0.09415756
-0.05248554 0.11631237 -0.088859245 0.12485667 -0.07800654 0.10038749 0.10679147 0.067410074
0.11057478 -0.009821459 0.11331797 0.120632194 -0.10381995 -0.023632692 0.094548866 0.0885871
0.16389172 -0.021616198 -0.023318237 -0.094539665 0.11793429 0.0029799899 -0.03354962 0.08612999
-0.14232844 0.026495984 0.10510256 0.04188566 0.069576316 0.0066238884 -0.08014721 0.11818554
-0.009967404 0.044655684 0.0056886477 0.041763242 -0.09388321 0.032241084 0.014940781 0.11138122
-0.09854114 0.040366348 -0.087344125 -0.07670533 0.07760593 0.04381447 0.07406943 -0.0037081777
0.044942755 0.06707004 -0.07543862 0.1574842 -0.053019922 -0.120025754 0.006913668 0.024626294
0.036363374 -0.03275316 -0.055222426 -0.121779144 -0.0539069 -0.06608078 -0.051360235 0.007767238
-0.06976974 -0.018578488 -0.08775044 -0.026523024 -0.027655518 -0.13586208 0.019136999 -0.12970744
-0.031799726 -0.10264654 0.11402581 -0.0959896 0.043297462 0.041233778 0.07369744 0.021775112
0.053843167 0.06528546 0.019508913 0.041822206 -0.12105769 -0.054990083 -0.07629287 -0.050389662
0.035831723 0.08726847 0.09199178 0.048364673 -0.0921642 0.032885224 -0.06291048 -0.08855511
0.1199005 -0.041442588 -0.019555703 -0.03465906 -0.008852449 0.11752893 -0.08777873 0.11571218
0.093822524 -0.10112727 0.03643222 0.0015984963 0.05025673 0.07338872 0.051603965 -0.07155919
0.028850332 -0.06596531 0.10038198 0.023304665 0.11018261 -0.046776842 0.039398182 0.08243085
0.0948125 0.082806036 0.0943026 0.006850899 -0.0014266968 -0.049246803 -0.07248311 0.016844168
-0.043893978 0.080897935 0.06724722 0.124414094 -0.056320302 0.05574033 -0.12356588 -0.05239667
00000000: e1b2 d93d 280f de3d 44a5 8b3d ea04 27bd
00000010: ec99 0abd 295d 9d3d 6ff6 92bd 4689 ffbc
00000020: ed88 123d fca6 c4bd 0499 59bd 41a9 53bd
00000030: 16e5 8e3b cc56 0abc 7c6d 58bd e381 bf3b
00000040: 89cf ebbd cfb0 ef3d 03de 173d fdec db3d
00000050: ba4c a5bd 98d4 7a3c 3648 093d cb32 b63d
00000060: 8e33 d1bd 040f 9abd 0b2d ab3d 11b4 e73a
00000070: 413b a83d bac0 c5ba ecf9 123d a5ed fd3c
00000080: 0030 2d39 5e22 1dbe 24ad 903c 8283 c53c
00000090: 42a2 b93a 289f 8cbd 5359 94bc 4f52 6abc
000000a0: fcd7 753d 7ae7 7d3d 7362 f13d 1007 8d3d
000000b0: bf21 743d 42b6 c13d 78be 1fbd bbb5 05be
000000c0: 8dfe 8d3d fa74 b03c 9534 2a3d d2b4 693d
000000d0: b45a a0bd 1cfb bfbd f09c 5bbc 6402 2abd
000000e0: bdd2 5cbd 4cd2 8fbc 28d4 3ebd 8fc9 92bd
000000f0: db0c b5bd c2a1 da3d 7756 7e3c 6d6f c2bc
00000100: ee66 38bd 7894 65bd acb8 d1bd b2f0 8c3d
00000110: d41b f5bd 6021 75bc ccce a23c 4aa2 a5bd
00000120: fcc6 a13d 880f 95bd e093 953b 7c8f a53d
00000130: b970 d2bd c9f5 fdbd 08d5 0dbd 6834 83bd
00000140: c8fb 66bd 4d51 fd3b 2018 ba3d c93d a0bd
00000150: c852 993c c88c 8f3c 2493 fe3d e078 d5bd
00000160: 28c7 27bd 8e1b f73d 9e7a c03d 4836 40bd
00000170: 560a f23d ea2d b03d d299 8bbd 0895 893d
00000180: 2469 7b3d ef0b c03d 6e15 abbd 4b98 bd3d
00000190: 2269 bebd 6245 adbd e5f3 613d 7249 253b
000001a0: b80c aabc dcc2 5fbd 2464 f03d 635a 9ebd
000001b0: 3e0f c5bd 8cc0 433d 472d 45bd ad0d e93c
000001c0: 5270 a1bd 80b9 3fbb ac79 9ebd 9cb9 213d
000001d0: 508c 093d 66f6 f5bd 4c61 7bbd aed5 c0bd
000001e0: 14fb 56bd 2e35 ee3d d6fb b5bd dbb4 ff3d
000001f0: e5c1 9fbd f597 cd3d 7cb5 da3d 4b0e 8a3d
00000200: 0875 e23d 2fea 20bc 4013 e83d 030e f73d
00000210: 8e9f d4bd 5999 c1bc d6a2 c13d 276d b53d
00000220: 3bd3 273e 7414 b1bc e305 bfbc 039e c1bd
00000230: 8887 f13d ef4b 433b 546b 09bd ec64 b03d
00000240: 8cbe 11be 1b0e d93c 0340 d73d 4c90 2b3d
00000250: 077e 8e3d 340d d93b 3824 a4bd 430b f23d
00000260: 534e 23bc e1e8 363d d667 ba3b ef0f 2b3d
00000270: d745 c0bd 3a0f 043d 2dca 743c d61b e43d
00000280: f0cf c9bd 2f57 253d 7ae1 b2bd af17 9dbd
00000290: dcef 9e3d cd76 333d b7b1 973d e604 73bb
000002a0: e515 383d 045c 893d 907f 9abd 8a43 213e
000002b0: 6b2b 59bd 10d0 f5bd 0d8c e23b 15bd c93c
000002c0: c3f1 143d 2d28 06bd e930 62bd 5867 f9bd
000002d0: 7bcd 5cbd 5c55 87bd 1c5f 52bd 5184 fe3b
000002e0: 70e3 8ebd ea31 98bc 81b6 b3bd d046 d9bc
000002f0: d38d e2bc 6e1f 0bbe 32c5 9c3c 07d2 04be
00000300: 6e40 02bd 5938 d2bd 5d86 e93d 3296 c4bd
00000310: ae58 313d c0e4 283d afee 963d b861 b23c
00000320: a78a 5c3d 62b4 853d 28d1 9f3c c34d 2b3d
00000330: 18ed f7bd 483d 61bd 703f 9cbd 6465 4ebd
00000340: 49c4 123d d0b9 b23d 3066 bc3d 091a 463d
00000350: 96c0 bcbd a8b2 063d 36d7 80bd 625c b5bd
00000360: 658e f53d b4bf 29bd 4833 a0bc a9f6 0dbd
00000370: dd09 11bc 02b3 f03d 56c5 b3bd 82fa ec3d
00000380: 0626 c03d d01b cfbd f439 153d a384 d13a
00000390: 00da 4d3d d34c 963d ae5e 533d a08d 92bd
000003a0: 8857 ec3c d218 87bd 1195 cd3d 6de9 be3c
000003b0: 6ca7 e13d 1399 3fbd fd5f 213d 81d1 a83d
000003c0: 0e2d c23d 3696 a93d b921 c13d 827d e03b
000003d0: 0000 bbba 04b7 49bd 0672 94bd c8fc 893c
000003e0: 2cca 33bd d1ad a53d e9b8 893d d1cc fe3d
000003f0: 1eb0 66bd f94f 643d 1c10 fdbd e49d 56bd

lstm.bias_ih_l0 f4 [256]
-0.11384767 0.105633676 0.0128025105 0.11374517 -0.098465584 0.07235445 0.11279083 -0.080270424
-0.105148435 -0.08196375 0.092191905 0.09305991 -0.07156257 -0.02117145 0.02833268 -0.06370598
-0.092755675 0.017380495 -0.09154899 0.017887488 -0.11393667 0.06991757 -0.03945195 -0.085399896
0.044738024 0.03366152 0.12028895 -0.050091363 -0.12262784 -0.04099334 -0.00093611015 0.057615705
0.022100404 0.052245904 0.045965567 0.07409436 -0.017030064 0.05779534 0.084323555 -0.060098868
-0.012702017 0.041156434 -0.06387743 0.12852864 0.07706013 -0.05369498 0.055537637 -0.08284275
0.12534356 0.11759884 -0.05167222 -0.029295078 0.015081719 0.064505756 -0.034129336 0.098717555
0.08800273 -0.017333096 0.11250113 0.1298741 -0.115298025 0.097545914 0.008571101 -0.122226015
0.047472328 -0.102813974 -0.02050228 -0.0077582235 0.12886553 0.039400972 -0.074904785 0.028810218
-0.013118028 -0.084282376 -0.092351705 -0.087663546 -0.10221992 0.042263348 0.025277587 0.10700096
0.0604456 0.028004449 0.0011213517 0.1335289 0.037639707 0.08517739 0.072673336 -0.034762915
-0.07863169 0.027234733 -0.03381779 -0.05460033 -0.012800807 -0.10208176 -0.02226806 0.013003369
0.050486267 0.08833307 0.061949372 -0.075792655 0.08476719 0.093547545 0.08649087 0.06440503
-0.103482634 -0.09336776 0.09306573 -0.11872924 -0.08385854 -0.06868036 0.09527452 -0.10463073
-0.03047386 0.09226024 -0.0830034 -0.04471708 0.10856041 0.045482427 0.020903602 0.095060036
-0.0052159866 -0.062272597 0.021904329 0.0017508549 0.13202731 -0.085328534 -0.017226612 0.09682007
-0.03929425 -0.03305395 0.10605171 -0.058034852 0.08493411 0.048800185 0.09934066 -0.11900216
-0.110933386 -0.05607925 0.12294595 0.12569289 -0.0127965845 0.10666616 -0.072672606 0.0739802
0.037631292 0.018878493 -0.048475415 -0.13247474 -0.09908041 0.015411019 0.077806704 0.0068932623
-0.11993995 0.003918773 0.11190763 -0.11301093 0.029241918 -0.022497961 -0.08620401 -0.028638326
0.11560792 -0.008316666 -0.075945355 -0.11611229 0.059726983 0.011774723 -0.030656546 -0.065400556
-0.097676955 0.11283691 -0.12547758 -0.061499853 0.006139323 -0.05739578 -0.11171313 0.0999313
0.0668492 -0.019065514 0.07580173 -0.05001293 -0.11995885 -0.059647053 -0.008983955 -0.04471161
0.07718851 0.010629788 0.09484339 -0.102241874 -0.011425123 0.028773705 -0.011925891 0.013794497
-0.13461637 0.07982791 -0.055932622 -0.09384328 0.039895218 0.044376727 -0.0038131045 0.122031026
-0.03249749 -0.0987739 0.063070565 -0.0006492308 0.07042674 -0.11592675 0.07933922 0.117535494
-0.06604192 -0.00044782594 -0.124222256 0.10481912 -0.014674827 0.08684397 0.09101968 0.11644734
0.0019349605 0.06369738 -0.046818085 -0.0020064868 -0.0004699147 0.0318539 0.10601163 -0.069940746
0.04842022 0.03831274 -0.015791142 -0.0047992347 -0.02376169 0.09826653 0.0060117287 0.040407397
0.09212268 0.10911348 0.09531486 0.0057625906 0.082286365 0.016746182 -0.0710188 0.0047226045
-0.017201984 0.01868417 -0.10637315 0.006508708 0.029332042 -0.013093948 -0.019814694 -0.087307826
-0.094458185 -0.082322456 0.119048245 -0.034156606 -0.08335522 0.03803371 -0.010788766 0.020274235
00000000: f828 e9bd 7856 d83d 9fc1 513c 3af3 e83d
00000010: 53a8 c9bd 922e 943d e1fe e63d d264 a4bd
00000020: 1058 d7bd 9cdc a7bd 1ccf bc3d 3296 be3d
00000030: 668f 92bd c06f adbc f019 e83c 4878 82bd
00000040: b0f6 bdbd 8a61 8e3c 097e bbbd c888 923c
00000050: a157 e9bd f130 8f3d 5e98 21bd 24e6 aebd
00000060: 383f 373d a9e0 093d 0e5a f63d 9a2c 4dbd
00000070: 4e24 fbbd a2e8 27bd 4a65 75ba 72fe 6b3d
00000080: e80b b53c cdff 553d 6446 3c3d c9be 973d
00000090: a282 8bbc ceba 6c3d d4b1 ac3d 3b2a 76bd
000000a0: 1f1c 50bc a693 283d 2cd2 82bd 039d 033e
000000b0: b4d1 9d3d 44ef 5bbd 6f7b 633d 76a9 a9bd
000000c0: 105a 003e a9d7 f03d 40a6 53bd 3bfc efbc
000000d0: 5019 773c 981b 843d 34cb 0bbd 6e2c ca3d
000000e0: c63a b43d 23fe 8dbc fe66 e63d b7fd 043e
000000f0: 5f21 ecbd 27c6 c73d ce6d 0c3c a251 fabd
00000100: 5872 423d 2290 d2bd 66f4 a7bc b238 febb
00000110: 53f5 033e ea62 213d ae67 99bd 6803 ec3c
00000120: ffec 56bc 3d9c acbd e422 bdbd f288 b3bd
00000130: ad58 d1bd 551c 2d3d f112 cf3c 5223 db3d
00000140: ce95 773d 9669 e53c 52fa 923a cdbb 083e
00000150: 182c 1a3d 7c71 ae3d c2d5 943d 8f63 0ebd
00000160: a709 a1bd 601b df3c 8684 0abd 98a4 5fbd
00000170: 7aba 51bc 3e10 d1bd 826b b6bc 150c 553c
00000180: b0ca 4e3d f8e7 b43d a0be 7d3d 2e39 9bbd
00000190: 6c9a ad3d db95 bf3d 2022 b13d c9e6 833d
000001a0: b4ee d3bd 9937 bfbd 3f99 be3d 5128 f3bd
000001b0: 07be abbd 4aa8 8cbd 4a1f c33d a348 d6bd
000001c0: 51a4 f9bc f0f2 bc3d b0fd a9bd 4229 37bd
000001d0: ec54 de3d c84b 3a3d 083e ab3c d6ae c23d
000001e0: deea aabb 8d11 7fbd b570 b33c f17c e53a
000001f0: 2b32 073e bac0 aebd d31e 8dbc 9a49 c63d
00000200: 02f3 20bd 9463 07bd a431 d93d f4b5 6dbd
00000210: eff1 ad3d b4e2 473d 1e73 cb3d 68b7 f3bd
00000220: 0b31 e3bd 5bb3 65bd 16cb fb3d a3b5 003e
00000230: c4a8 51bc ca73 da3d 60d5 94bd ee82 973d
00000240: 4523 1a3d 12a7 9a3c 288e 46bd 75a7 07be
00000250: acea cabd 807e 7c3c 1f59 9f3d e0e0 e13b
00000260: 14a3 f5bd 0d69 803b d42f e53d 4672 e7bd
00000270: bf8c ef3c a54d b8bc ba8b b0bd ec9a eabc
00000280: d8c3 ec3d a042 08bc 3d89 9bbd 48cc edbd
00000290: 48a4 743d c5ea 403c 7023 fbbc baf0 85bd
000002a0: db0a c8bd 0a17 e73d 327d 00be 45e7 7bbd
000002b0: 602c c93b d617 6bbd dac9 e4bd c8a8 cc3d
000002c0: 3ce8 883d 482f 9cbc f03d 9b3d 5cda 4cbd
000002d0: fcac f5bd 7850 74bd 7031 13bc 8523 37bd
000002e0: 0215 9e3d 9028 2e3c 403d c23d 3064 d1bd
000002f0: 7030 3bbc d5b6 eb3c d064 43bc 5002 623c
00000300: e0d8 09be d17c a33d 9b19 65bd e830 c0bd
00000310: 2b69 233d 5fc4 353d 47e5 79bb 67eb f93d
00000320: 171c 05bd f849 cabd 242b 813d 2431 2aba
00000330: e53b 903d 016b edbd 9a7c a23d 73b6 f03d
00000340: fc40 87bd 2eca eab9 3d68 febd 68ab d63d
00000350: b06e 70bc 40db b13d 8768 ba3d f17b ee3d
00000360: 809e fd3a c673 823d 52c4 3fbd 437f 03bb
00000370: e25e f6b9 3c79 023d a01c d93d 183d 8fbd
00000380: 4854 463d d2ed 1c3d 6d5c 81bc e642 9dbb
00000390: e0a7 c2bc f63f c93d 09fe c43b 3a82 253d
000003a0: d1aa bc3d e376 df3d 7034 c33d 1dd4 bc3b
000003b0: c185 a83d 4a2f 893c 4e72 91bd 14c0 9a3b
000003c0: 2deb 8cbc 8b0f 993c 2bda d9bd 0047 d53b
000003d0: c049 f03c 0088 56bc 6d52 a2bc 72ce b2bd
000003e0: 4b73 c1bd ad98 a8bd 91cf f33d cce7 0bbd
000003f0: 24b6 aabd 3cc9 1b3d 5dc3 30bc 2716 a63c

lstm.bias_hh_l0 f4 [256]
0.0673581 -0.113516584 -0.04956843 0.099117935 -0.011196969 0.091763586 0.020389719 0.08516058
-0.081969306 0.1097891 0.021874022 0.0670105 -0.11010571 0.121417105 0.1204413 0.038133565
-0.029517412 0.06370381 -0.03602757 -0.102915555 0.10257513 0.06417557 0.06264061 -0.045852523
0.066805854 0.05119196 0.008433858 0.104090825 0.1134457 -0.13980487 -0.06267545 -0.005399558
0.07824093 -0.026385864 -0.09207292 -0.08878018 0.0859265 0.054052662 0.03313231 -0.11646964
0.05283564 -0.056992657 -0.037122287 -0.086523816 0.06201755 0.026711335 0.083174646 -0.022774484
-0.0065723187 -0.026926609 -0.09878217 0.0857434 0.040338665 0.05286649 0.10519676 0.015909806
-0.01829882 -0.006300514 0.037326735 0.114109136 0.1031466 0.095799305 0.10999378 0.1191674
0.027144685 0.068277895 0.07305574 -0.06637013 -0.09333816 -0.077386074 0.058258664 0.12408759
-0.11611316 -0.012353113 0.12246023 0.038165305 -0.10947063 0.12869497 -0.063673735 0.026740503
0.07989297 0.12003328 -0.059171263 0.11408673 -0.007100752 0.052600734 0.015546709 0.10312969
0.0386353 0.024045961 0.063275404 -0.0889624 -0.053846084 -0.070271865 0.042613402 -0.054308303
-0.12417467 0.060830265 -0.08755484 0.0701266 0.06443311 0.12854196 0.091850355 0.12023295
0.09453271 -0.002500044 0.04350962 0.05561172 -0.09722944 0.13425037 -5.0568764e-05 -0.10834061
0.042201553 -0.019832999 -0.011688892 -0.060476426 0.0027766004 0.04332058 -0.050759196 0.10109109
-0.10799904 0.033034924 0.04095018 0.052950867 0.04458376 -0.0030978653 -0.086488895 0.04871028
0.003545372 0.055752937 0.062154666 0.048651382 -0.027019043 -0.051669955 0.043476596 0.09209064
-0.0628793 0.12508485 -0.008595005 -0.003364644 0.055440318 0.06652527 -0.037480816 -0.11454688
0.046672903 -0.0907972 0.051707283 0.079248406 -0.018260047 -0.010791436 -0.09655862 0.012519553
-0.008509359 -0.06463877 0.05825423 0.0497403 0.0851949 -0.03542242 0.0355204 0.031696364
-0.11599721 0.072092414 0.0576189 -0.111620516 0.08396244 -0.060844496 -0.11618966 -0.05975066
0.104887165 0.048962526 -0.10585669 -0.05402427 -0.09114857 -0.018969174 0.008074999 0.019716248
0.11998533 -0.015373051 -0.03937734 0.056219473 0.013865635 -0.084243596 0.011801004 0.061947297
-0.052769348 0.021277085 0.0014386624 -0.022102833 -0.037060857 -0.014406323 -0.014355838 -0.07314336
0.038562503 0.06310097 0.11856453 0.01024466 0.09751172 0.051873382 0.044865537 0.107881315
-0.001694472 0.14266497 -0.0841756 0.007831544 0.042580873 0.11759161 -0.1024663 -0.08907565
0.09066051 -0.020874215 -0.038337983 -0.04330659 0.023086548 0.053884156 -0.022704361 -0.07761072
0.049162 0.044544186 0.110828415 0.012463606 0.080060415 -0.056065485 -0.02596413 0.08195604
-0.01616557 -0.099813506 -0.010005519 0.117160976 0.12121405 0.12110241 -0.01518939 0.020375712
0.065768115 -0.014421756 -0.11372292 -0.12712507 0.103224 -0.012345504 -0.061726443 -0.020341486
0.029127954 0.09045313 0.10084093 0.13085976 -0.106689334 -0.043161824 -0.0054281554 0.0045343693
0.10993745 0.1456796 0.17635739 0.04287091 0.032875255 0.10098843 -0.06454743 -0.07102902
00000000: 0bf3 893d 627b e8bd 4408 4bbd 58fe ca3d
00000010: 7e73 37bc 8cee bb3d 5708 a73c ac68 ae3d
00000020: 86df a7bd 1cd9 e03d 2631 b33c cd3c 893d
00000030: 1a7f e1bd 88a9 f83d eea9 f63d f131 1c3d
00000040: 80ce f1bc 2577 823d a591 13bd 64c5 d2bd
00000050: e912 d23d 7b6e 833d b849 803d dbcf 3bbd
00000060: 82d1 883d a9ae 513d 2a2e 0a3c 922d d53d
00000070: 3856 e83d 0229 0fbe fd5b 80bd c7ee b0bb
00000080: c83c a03d 2b27 d8bc ba90 bcbd 62d2 b5bd
00000090: 3cfa af3d 5366 5d3d bfb5 073d a287 eebd
000000a0: 2f6a 583d 2271 69bd 8a0d 18bd 6633 b1bd
000000b0: 1d06 7e3d bbd1 da3c 7857 aa3d 8e91 babc
000000c0: 9b5c d7bb 3195 dcbc 4e4e cabd 3c9a af3d
000000d0: 283a 253d 888a 583d 6671 d73d 4855 823c
000000e0: 68e7 95bc 8b74 cebb ebe3 183d 0db2 e93d
000000f0: 863e d33d 6d32 c43d 6b44 e13d 0a0e f43d
00000100: 885e de3c 48d5 8b3d 3f9e 953d 10ed 87bd
00000110: 1428 bfbd 977c 9ebd a3a0 6e3d a221 fe3d
00000120: bdcc edbd b664 4abc 6ecc fa3d 3953 1c3d
00000130: 2332 e0bd 9dc8 033e 6067 82bd e60e db3c
00000140: ed9e a33d 02d4 f53d 915d 72bd 4ea6 e93d
00000150: 6dad e8bb de73 573d a0b7 7e3c a935 d33d
00000160: 0c40 1e3d 09fc c43c 8996 813d eb31 b6bd
00000170: b68d 5cbd b2ea 8fbd 648b 2e3d 6272 5ebd
00000180: 4a4f febd 2829 793d f44f b3bd 899e 8f3d
00000190: 82f5 833d 81a0 033e 0a1c bc3d b13c f63d
000001a0: 5e9a c13d c7d7 23bb 2537 323d 1dc9 633d
000001b0: 3b20 c7bd ee78 093e cc19 54b8 afe1 ddbd
000001c0: 89db 2c3d d078 a2bc c482 3fbc 21b6 77bd
000001d0: a0f7 353b ec70 313d e0e8 4fbd d808 cf3d
000001e0: 9a2e ddbd a14f 073d 60bb 273d 02e3 583d
000001f0: 769d 363d 8e05 4bbb 1721 b1bd 6e84 473d
00000200: 7959 683b 315d 643d e495 7e3d ac46 473d
00000210: 0a57 ddbc e0a3 53bd 8414 323d 049a bc3d
00000220: ddc6 80bd 3e16 003e 10d2 0cbc 5c81 5cbb
00000230: 6315 633d 673e 883d 7c85 19bd 8e97 eabd
00000240: 162c 3f3d e2f3 b9bd 04cb 533d fd4c a23d
00000250: 1896 95bc 90ce 30bc 87c0 c5bd d01e 4d3c
00000260: d76a 0bbc 5561 84bd fd9b 6e3d 7cbc 4b3d
00000270: aa7a ae3d 1917 11bd d77d 113d 0cd4 013d
00000280: f28f edbd 30a5 933d cc01 6c3d 4c99 e4bd
00000290: 80f4 ab3d 1438 79bd d8f4 edbd 1cbd 74bd
000002a0: 15cf d63d ee8c 483d 64cb d8bd 8e48 5dbd
000002b0: 1aac babd 3e65 9bbc 004d 043c f883 a13c
000002c0: deba f53d 40df 7bbc 224a 21bd 6446 663d
000002d0: b02c 633c e887 acbd 0059 413c 73bc 7d3d
000002e0: ac24 58bd 484d ae3c 8091 bc3a 0011 b5bc
000002f0: 20cd 17bd 8008 6cbc c034 6bbc 30cc 95bd
00000300: b7f3 1d3d 153b 813d f6d1 f23d 38d9 273c
00000310: 3ab4 c73d 2f79 543d edc4 373d e1f0 dc3d
00000320: 0c19 deba c416 123e 4264 acbd e04f 003c
00000330: 4869 2e3d dfd3 f03d dad9 d1bd 4b6d b6bd
00000340: 38ac b93d 6700 abbc 4a08 1dbd 4062 31bd
00000350: 0020 bd3c a2b5 5c3d 7ffe b9bc 5ff2 9ebd
00000360: 185e 493d f773 363d 02fa e23d 2734 4c3c
00000370: b7f6 a33d eca4 65bd bab2 d4bc 91d8 a73d
00000380: a86d 84bc 066b ccbd 30ee 23bc 18f2 ef3d
00000390: 123f f83d 8a04 f83d ebdc 78bc f7ea a63c
000003a0: 6fb1 863d 3b49 6cbc 90e7 e8bd 132d 02be
000003b0: 1b67 d33d cc44 4abc ded4 7cbd 30a3 a6bc
000003c0: bf9d ee3c 7e3f b93d b185 ce3d 1a00 063e
000003d0: f07f dabd 74ca 30bd abde b1bb 0c95 943b
000003e0: e326 e13d 082d 153e 0897 343e 6899 2f3d
000003f0: 34a8 063d 06d3 ce3d 7131 84bd aa77 91bd

lstm.weight_ih_l1 f4 [256, 64]
-0.099316224 -0.13313442 0.015873376 0.009362283 0.019317318 0.019086009 0.08824992 0.09560392
-0.03442656 0.16871567 0.073360436 -0.04967962 -0.116488375 0.037992198 0.03662573 -0.016227787
0.026326407 0.013746399 -0.03618694 -0.04146232 0.020157428 -0.02975098 -0.07049708 0.04515804
-0.028369991 -0.12800199 0.062447906 -0.0035064674 0.05316225 -0.021676581 -0.0072303833 0.13387738
-0.11481136 0.019188996 0.0518313 -0.13926601 -0.10756227 0.09994845 -0.104918286 -0.05215958
0.058759533 0.06539698 0.014008123 -0.007931676 0.13492587 -0.07667469 -0.08191077 -0.09785819
0.051278885 -0.039905302 -0.0032085169 -0.024274785 0.0808531 0.024394304 0.09538476 0.12171917
-0.06993258 -0.02299152 0.058133062 0.15016758 -0.0989281 -0.00886923 -0.060584996 0.090871625
-0.093680665 0.04048058 -0.034848746 -0.0053130277 -0.019608011 0.0703971 -0.05843409 -0.13052239
-0.024001231 -0.021702979 -0.05456749 -0.07499679 0.05370618 0.115855366 -0.051664885 -0.010323592
-0.12382567 0.09753451 0.01862723 0.039172187 -0.027984425 0.057194564 0.012219432 0.04662501
-0.06723359 0.026589971 -0.105246894 0.084700026 0.051493194 -0.03994176 -0.10574362 -0.07911392
-0.05758117 -0.059593257 -0.049748436 0.06991416 0.109791934 -0.07442257 0.040272664 0.06962945
-0.08338566 -0.036362153 -0.09635624 -0.008886361 0.049499083 0.12998937 0.04785336 -0.08690585
-0.027024724 0.042832438 -0.18991098 -0.09796119 0.06835286 0.04484503 -0.010427447 0.058155008
0.053115882 0.04062855 0.07128013 -0.06479147 -0.087280914 0.038660232 -0.07371743 0.058946367
0.054788537 0.07404571 -0.12419852 0.054575033 0.049840327 -0.03157506 -0.12359051 -0.11782504
0.13209555 -0.034665313 0.06147479 -0.06606647 0.009632053 0.03719134 -0.13152257 -0.064949155
0.08483949 -0.035648026 -0.04797097 0.10022632 -0.011752371 -0.081665985 0.15965447 -0.009456679
-0.03642686 0.0038475743 -0.11882926 0.009736565 -0.009246334 -0.074223384 0.030448398 -0.0029833384
-0.049980804 -0.08266709 0.042979635 0.06446876 0.07401517 0.083960205 -0.02330725 -0.022928426
0.04881642 -0.038686205 -0.052708525 -0.054642778 0.09229868 0.08279906 -0.115734056 -0.057282913
-0.0003238688 -0.028359063 0.10937566 -0.07875864 -0.033263832 0.0160532 0.06636362 0.087034106
-0.15294452 0.07381989 0.01638342 0.034072403 0.07776763 -0.008718026 0.09235384 -0.06598177
-0.11299049 -0.042191513 0.08097531 0.09962482 -0.08046695 0.07829675 0.053414345 0.04702625
0.12317584 0.14933145 0.003818251 0.11153039 0.026107347 -0.09932893 -0.094169445 0.029529989
0.05979876 0.11840137 0.059158057 -0.13034745 -0.07021566 -0.03875651 -0.03753242 0.11125277
0.124459974 0.09414317 -0.06823079 -0.002890061 0.12217913 0.03691169 -0.06255015 -0.031986177
-0.012256607 -0.060067754 0.064195916 0.07991374 0.07766105 0.06392368 -0.13522083 0.14569896
-0.043873258 -0.06571233 -0.11341336 -0.041145332 -0.046116836 0.046247534 -0.14313497 0.054317094
-0.11212847 0.038882412 0.085545 0.114057966 -0.12328407 0.11371641 -0.09655951 0.11013114
0.017414141 -0.0026635998 -0.0013079318 -0.14233702 -0.10079203 -0.10120613 0.17756961 0.010649052
00000000: 4e66 cbbd 6454 08be e208 823c 4364 193c
00000010: 5a3f 9e3c 435a 9c3c 60bc b43d fdcb c33d
00000020: dd02 0dbd cdc3 2c3e ff3d 963d db7c 4bbd
00000030: 7591 eebd b59d 1b3d dd04 163d 23f0 84bc
00000040: 7aaa d73c 9438 613c c238 14bd 65d4 29bd
00000050: 3121 a53c 54b8 f3bc c660 90bd a3f7 383d
00000060: 2f68 e8bc f412 03be 60c9 7f3d c3cc 65bb
00000070: a9c0 593d 1693 b1bc daec ecbb 2717 093e
00000080: 3822 ebbd 3e32 9d3c 0f4d 543d c09b 0ebe
00000090: 9b49 dcbd c6b1 cc3d 66df d6bd 49a5 55bd
000000a0: d6ad 703d daee 853d 5482 653c dcf3 01bc
000000b0: 022a 0a3e 9f07 9dbd d5c0 a7bd e069 c8bd
000000c0: cf09 523d be73 23bd fb45 52bb eadb c6bc
000000d0: 4f96 a53d 90d6 c73c 1659 c33d e647 f93d
000000e0: d038 8fbd b658 bcbc ef1c 6e3d 88c5 193e
000000f0: d19a cabd 3f50 11bc f927 78bd e71a ba3d
00000100: a6db bfbd f7ce 253d 8fbd 0ebd e818 aebb
00000110: fba0 a0bc 5b2c 903d 9658 6fbd a9a7 05be
00000120: 3b9e c4bc 72ca b1bc 2982 5fbd eb97 99bd
00000130: 03fb 5b3d 9445 ed3d 8f9e 53bd 4924 29bc
00000140: 5098 fdbd 2cc0 c73d 2298 983c 0473 203d
00000150: 983f e5bc d944 6a3d 0334 483c def9 3e3d
00000160: c4b1 89bd 36d3 d93c af8b d7bd 3577 ad3d
00000170: 87ea 523d f999 23bd 1c90 d8bd 7b06 a2bd
00000180: 3cda 6bbd 0f18 74bd 04c5 4bbd 282f 8f3d
00000190: 98da e03d dc6a 98bd f3f4 243d e399 8e3d
000001a0: 1ac6 aabd 7bf0 14bd 6c56 c5bd 1998 11bc
000001b0: 8dbf 4a3d ef1b 053e e301 443d b2fb b1bd
000001c0: f462 ddbc 1171 2f3d 0678 42be e09f c8bd
000001d0: 96fc 8b3d 6caf 373d e2d7 2abc f233 6e3d
000001e0: 0a90 593d 1f6a 263d 51fb 913d 64b1 84bd
000001f0: 56c0 b2bd 315a 1e3d 2af9 96bd bf71 713d
00000200: f269 603d 47a5 973d cb5b febd 128a 5f3d
00000210: 5f25 4c3d da54 01bd 051d fdbd 414e f1bd
00000220: 0e44 073e 37fd 0dbd fdcc 7b3d dc4d 87bd
00000230: c2cf 1d3c f255 183d daad 06be 1004 85bd
00000240: 54c0 ad3d aa03 12bd 357d 44bd 7543 cd3d
00000250: 048d 40bc 7f40 a7bd 767c 233e 30f0 1abc
00000260: 5534 15bd 9627 7c3b c15c f3bd 1d86 1f3c
00000270: f07d 17bc 6e02 98bd eb6e f93c 1d84 43bb
00000280: acb8 4cbd 5d4d a9bd 6a0b 303d 3208 843d
00000290: 4495 973d 54f3 ab3d d9ee bebc 65d4 bbbc
000002a0: baf3 473d 6d75 1ebd e5e4 57bd 1bd1 5fbd
000002b0: 1707 bd3d 8e92 a93d fa05 edbd 7da1 6abd
000002c0: efcc a9b9 4451 e8bc 5900 e03d 364c a1bd
000002d0: a83f 08bd 0082 833c a6e9 873d f03e b23d
000002e0: 7d9d 1cbe e22e 973d 8636 863c 818f 0b3d
000002f0: a344 9f3d 0dd6 0ebc 0324 bd3d 7321 87bd
00000300: 8f67 e7bd 02d1 2cbd 62d6 a53d 1908 cc3d
00000310: dbcb a4bd 0c5a a03d 00c9 5a3d 999e 403d
00000320: 9d43 fc3d 58ea 183e 9f3b 7a3b 0c6a e43d
00000330: 13df d53c f76c cbbd e9db c0bd e0e8 f13c
00000340: 8bef 743d 6b7c f23d b84f 723d cd79 05be
00000350: 3acd 8fbd 25bf 1ebd 98bb 19bd 7ed8 e33d
00000360: dfe4 fe3d 22ce c03d 96bc 8bbd 2d67 3dbb
00000370: 0d39 fa3d b630 173d 4b1a 80bd f003 03bd
00000380: f0cf 48bc 9b09 76bd 2679 833d d1a9 a33d
00000390: c20c 9f3d 6bea 823d 5477 0abe 1c32 153e
000003a0: 72b4 33bd 3094 86bd 4445 e8bd 0288 28bd
000003b0: 02e5 3cbd 0e6e 3d3d f991 12be 9a7b 5e3d
000003c0: 9ca3 e5bd 2a43 1f3d 3832 af3d 3997 e93d
000003d0: 5c7c fcbd 26e4 e83d fec0 c5bd 6f8c e13d
000003e0: 1aa8 8e3c ca8f 2ebb e96e abba ccc0 11be
000003f0: 0d6c cebd 2945 cfbd cfd4 353e 5d79 2e3c

lstm.weight_hh_l1 f4 [256, 64]
-0.13091458 -0.120100565 0.022566773 -0.12054457 -0.08632172 -0.12914942 -0.00096473837 0.06543614
-0.010117665 0.09801141 -0.006076052 0.08408306 -0.1091958 0.10687 -0.018190797 0.016755464
0.09257734 -0.121975794 0.11333792 -0.021588802 0.02903292 0.05007793 0.09608038 0.043573953
0.11967696 -0.07758803 -0.026585316 -0.04227625 0.093509145 0.06795816 -0.065040946 0.051181894
-0.087686144 0.057652753 0.048780788 -0.10586917 -0.062494565 -0.05950248 0.109444074 -0.08500639
0.021126065 -0.054543704 0.056668904 0.027228594 -0.055083785 0.07706309 0.006854712 0.0067554135
0.12132894 0.072566286 0.06370711 -0.049032368 -0.0529669 0.11908205 -0.016125882 0.04225225
0.035860807 0.07728746 0.103442624 0.0006426803 0.050799202 0.055857446 0.0064178114 -0.04125052
0.0021631697 0.031799044 -0.09266258 0.044542965 0.09216084 0.031048747 0.08292621 0.066552825
-0.047915194 0.081785955 -0.046128787 0.035719983 0.11981884 0.058362447 0.054211292 0.01459577
-0.09604765 -0.07048022 -0.004100983 -0.038815692 -0.024716968 0.16515858 0.09019417 0.05103436
-0.0023168596 0.02515282 0.08761959 -0.0453894 -0.1434742 -0.012658929 -0.06788111 0.06725593
0.009454331 -0.023906292 -0.11757719 0.08023037 0.023112118 -0.13316035 0.026457852 -0.0062345676
-0.066858 -0.0053148745 -0.13545667 -0.062207635 0.13008004 0.08698155 0.10355953 -0.09992541
0.09380121 0.13653468 -0.014794797 -0.07681644 0.0960486 -0.004012228 0.12515306 0.010693974
0.12017584 0.0706302 0.034542885 0.1010247 0.06520581 -0.005418053 -0.0401998 0.054362174
-0.0913887 -0.085256085 0.07560171 0.06349734 -0.042466924 -0.068118565 -0.032879077 -0.081211515
0.022884058 0.03836489 0.012232285 0.07790086 -0.13187945 0.09192487 -0.019283563 0.08776807
0.07829078 0.0025565142 -0.03548371 0.032780614 -0.0013658919 0.119342595 0.057128765 -0.060167108
0.120991886 -0.12437222 -0.110588074 -0.0722247 0.056976177 0.06529623 -0.13495989 0.08585786
-0.07375106 0.05119999 -0.12674111 -0.010380794 -0.13999513 -0.08193548 0.08123883 0.0713222
0.06325833 -0.060282916 0.055922955 0.05681658 -0.0044370936 0.05580193 -0.0028949047 0.13889545
0.1490141 0.094314426 -0.029990498 -0.055128004 0.033874396 0.007181147 0.109104574 -0.06183855
0.056912098 0.013442762 0.059178416 0.09846042 -0.12712786 -0.024157818 0.096341185 -0.15175556
0.045506295 -0.12754934 -0.018956505 -0.13919872 0.0065310514 -0.09582025 -0.115428574 -0.048186827
0.096501306 0.13352776 -0.0017490401 0.070969015 -0.041978627 0.10600198 -0.04129989 0.056646377
0.10814025 0.005212279 0.11577884 0.14358108 -0.09557657 -0.065942094 -0.053273004 -0.08128158
-0.0060671316 0.052556586 0.0008297462 -0.028022472 0.075766295 0.07601757 -0.08379175 -0.11101698
0.11109259 0.011070681 -0.107456945 0.037767507 -0.0056553283 -0.10831435 0.09286155 -0.09547673
0.03383869 0.02992905 0.07502283 0.10160359 0.090786695 -0.051196318 -0.058603805 -0.12021687
-0.025038064 -0.042662717 0.081692025 -0.10291022 -0.040001817 -0.10263724 0.11539914 -0.1434248
-0.074260406 -0.035169255 0.08730797 0.06541077 -0.02466323 0.000307208 0.111713134 -0.07123592
00000000: 790e 06be 49f7 f5bd f4dd b83c 12e0 f6bd
00000010: 71c9 b0bd bf3f 04be 7fe6 7cba 6203 863d
00000020: 90c4 25bc 35ba c83d 9e19 c7bb bd33 ac3d
00000030: 0ca2 dfbd a9de da3d de04 95bc c142 893c
00000040: 3099 bd3d 72ce f9bd b61d e83d 00db b0bc
00000050: 72d6 ed3c 841e 4d3d cac5 c43d 9a7a 323d
00000060: 3219 f53d 79e6 9ebd 73c9 d9bc dc29 2dbd
00000070: b981 bf3d a62d 8b3d 3034 85bd 1ba4 513d
00000080: cb94 b3bd 4b25 6c3d 5dce 473d efd1 d8bd
00000090: 4dfa 7fbd dfb8 73bd 3724 e03d d517 aebd
000000a0: 9210 ad3c 3869 5fbd a71d 683d 800e df3c
000000b0: 899f 61bd 41d3 9d3d 7e9d e03b 845c dd3b
000000c0: 4f7b f83d a29d 943d e078 823d 2ad6 48bd
000000d0: d2f3 58bd 4ae1 f33d 6d1a 84bc b210 2d3d
000000e0: c8e2 123d e348 9e3d bad9 d33d 8b79 283a
000000f0: d312 503d c7ca 643d 814c d23b 4ef6 28bd
00000100: f7c3 0d3b b73f 023d e1c5 bdbd af72 363d
00000110: d3be bc3d f159 fe3c 37d5 a93d d94c 883d
00000120: b942 44bd 657f a73d 8af1 3cbd 1e4f 123d
00000130: 9463 f53d 760d 6f3d a90c 5e3d 1923 6f3c
00000140: a1b4 c4bd ef57 90bd 8a61 86bb 34fd 1ebd
00000150: 3d7b cabc 551f 293e b9b7 b83d 6809 513d
00000160: 74d6 17bb 490d ce3c e671 b33d 3cea 39bd
00000170: e7ea 12be 6667 4fbc 4005 8bbd 7abd 893d
00000180: 57e6 1a3c 21d7 c3bc 4fcc f0bd d24f a43d
00000190: a055 bd3c 305b 08be 23be d83c 584b ccbb
000001a0: d9ec 88bd 6628 aebb 27b5 0abe 6fcd 7ebd
000001b0: b433 053e 6223 b23d 0517 d43d b1a5 ccbd
000001c0: d91a c03d bfcf 0b3e e065 72bc f051 9dbd
000001d0: 21b5 c43d 0279 83bb 2028 003e c735 2f3c
000001e0: c01e f63d 91a6 903d d77c 0d3d 0ae6 ce3d
000001f0: a08a 853d ec89 b1bb 8ca8 24bd dfaa 5e3d
00000200: 002a bbbd be9a aebd 12d5 9a3d e50a 823d
00000210: ccf1 2dbd bf81 8bbd 36ac 06bd 3952 a6bd
00000220: 5977 bb3c 8124 1d3d ec69 483c 7c8a 9f3d
00000230: 680b 07be 1b43 bc3d 90f8 9dbc bfbf b33d
00000240: eb56 a03d 318b 273b 5e57 11bd f744 063d
00000250: ba07 b3ba e469 f43d daff 693d c971 76bd
00000260: 98ca f73d ddb6 febd 007c e2bd 8bea 93bd
00000270: da5f 693d 08ba 853d ed32 0abe 3fd6 af3d
00000280: cc0a 97bd 15b7 513d 6cc8 01be 3514 2abc
00000290: e25a 0fbe cacd a7bd 8b60 a63d 6011 923d
000002a0: 958d 813d 38eb 76bd 780f 653d 81b8 683d
000002b0: 0a65 91bb 9190 643d 71b8 3dbb 9c3a 0e3e
000002c0: 2797 183e ec27 c13d a2ae f5bc e7cd 61bd
000002d0: e1bf 0a3d d44f eb3b 3872 df3d 6b4a 7dbd
000002e0: a91c 693d 083f 5c3c 1165 723d 9ea5 c93d
000002f0: ce2d 02be 9ee6 c5bc 874e c53d cf65 1bbe
00000300: cf64 3a3d 4b9c 02be ac4a 9bbc 1c8a 0ebe
00000310: 6e02 d63b 683d c4bd d165 ecbd 8d5f 45bd
00000320: 7aa2 c53d 80bb 083e 0c40 e5ba 3458 913d
00000330: c8f1 2bbd 9117 d93d 132a 29bd 0806 683d
00000340: a378 dd3d c4cb aa3b 751d ed3d eb06 133e
00000350: a6bd c3bd a60c 87bd cb34 5abd f576 a6bd
00000360: cace c6bb 9345 573d 5383 593a 628f e5bc
00000370: 5c2b 9b3d 1aaf 9b3d 029b abbd df5c e3bd
00000380: 8384 e33d cd61 353c 6312 dcbd 1ab2 1a3d
00000390: 5550 b9bb ead3 ddbd 322e be3d 4e89 c3bd
000003a0: 709a 0a3d c42d f53c 92a5 993d 8b15 d03d
000003b0: 60ee b93d 3bb3 51bd 8b0a 70bd 4334 f6bd
000003c0: a01c cdbc 1abf 2ebd 264e a73d 98c2 d2bd
000003d0: f2d8 23bd 7933 d2bd 6256 ec3d f3dd 12be
000003e0: d715 98bd a30d 10bd 85ce b23d 15f6 853d
000003f0: 8b0a cabc c310 a139 dbc9 e43d 23e4 91bd

lstm.bias_ih_l1 f4 [256]
0.13409227 0.027971687 -0.002172071 -0.02006698 0.047822908 -0.07027047 0.0012833967 0.10788865
-0.05934808 0.11402875 0.12215277 -0.053448513 -0.022123875 -0.007850848 -0.092911705 0.07058949
0.10177459 -0.031804863 0.031334747 -0.046193443 -0.04990801 -0.12822375 0.059857536 0.036553938
-0.027500207 0.023412392 0.11281834 -0.072147116 0.05608146 -0.03814246 -0.091672264 0.0665794
-0.061020594 -0.0041432893 0.04179538 0.01204243 0.0057749357 0.1549518 0.073158 0.14844081
-0.013578053 -0.088327706 -0.08390773 -0.0025610132 0.08937204 0.11610727 0.06288825 0.087418005
-0.031449486 -0.028168619 -0.08420994 -0.05121529 -0.089667216 0.013166098 0.03954283 -0.06804069
-0.019538999 0.09601896 0.12658754 0.11935546 0.0049102767 0.004122365 -0.06077481 -0.0117641045
-0.069887735 -0.0035805039 -0.03385597 0.022346444 0.0444573 -0.024721837 -0.003250732 0.06471803
0.08525727 0.08552391 0.027428014 -0.006171945 0.05946038 0.14228229 -0.03821574 0.0543459
-0.042668894 0.10478246 0.06641557 0.12096061 0.15220055 0.064605765 0.1312082 0.024711786
0.037070133 -0.03332485 0.06717976 0.020095004 -0.08703527 -0.07866374 0.07256767 0.005664623
0.043539602 0.07902619 0.061587274 -0.0020857528 -0.08070622 -0.047589384 0.121803686 -0.003974511
0.039583333 0.08023257 -0.045692973 -0.10710587 0.09777754 0.08274625 0.103271544 -0.11037938
-0.04837276 0.06803259 0.055450626 0.061546374 0.10616302 0.0035411597 -0.0048073432 0.09389963
-0.07134551 -0.06799384 -0.026191482 0.06720529 -0.06948359 0.09744253 0.078292325 -0.007874647
-0.06630563 0.051620767 -0.004708777 -0.081266284 -0.0062231584 -0.051692292 0.01906076 0.0059342613
0.09991333 -0.021206303 0.008391877 0.04099249 -0.057257228 -0.072904184 -0.08865078 -0.05315086
0.03019214 -0.016027132 -0.051045265 0.00481799 0.04068487 0.124800146 -0.08782136 0.026603447
-0.11190145 0.10502786 0.07467309 0.054377593 -0.056621928 -0.044015925 0.048109554 -0.035688374
-0.04311362 -0.13635181 -0.0101993 -0.12299355 -0.065585054 -0.08249551 -0.091692455 0.113753
0.016351735 -0.060738582 0.059444852 0.08786603 -0.04136119 0.028368922 0.10330468 -0.022461945
0.027633755 -0.1286447 0.093574844 -0.04774673 0.026520174 -0.12623432 0.07079439 -0.0022350722
-0.111536145 0.060246617 -0.09823675 -0.102460556 0.02687843 -0.09090609 -0.08489554 -0.06679049
-0.048401654 0.08626858 0.11245948 -0.01253196 -0.029739978 0.008428108 0.014933527 0.011156215
0.13949527 -0.08936435 0.011083523 -0.056131776 0.0022297155 0.03746342 0.037817568 -0.011963873
-0.09559325 0.14003594 -0.0033438085 0.12269149 -0.07859768 0.09051298 -0.031671863 0.07515315
-0.024124674 0.051990777 -0.10126596 0.11682568 0.04755574 -0.050284818 0.08501078 0.11579307
0.08989567 0.03322128 -0.040153 0.08423683 0.103518024 -0.016953485 -0.08733015 0.031898815
0.08712129 0.06505439 0.14596188 0.058132812 0.060383983 0.072844565 0.014787268 -0.03731817
-0.043297414 0.0910671 0.01504588 0.054140832 0.051916093 -0.04257855 0.09050947 0.15967424
0.08788138 0.1603671 -0.0051594838 0.03930496 -0.04812406 -0.04870662 0.010198544 0.09793017
00000000: 7c4f 093e e124 e53c 4e59 0ebb 8263 a4bc
00000010: f4e1 433d f7e9 8fbd a637 a83a b9f4 dc3d
00000020: f916 73bd e887 e93d 3b2b fa3d d4ec 5abd
00000030: 213d b5bc d8a0 00bc 7e48 bebd 3991 903d
00000040: 326f d03d d145 02bd dd58 003d 5635 3dbd
00000050: 576c 4cbd 164d 03be 2d2d 753d 95b9 153d
00000060: 1d48 e1bc 58cb bf3c 4d0d e73d dec1 93bd
00000070: acb5 653d 453b 1cbd abbe bbbd c85a 883d
00000080: bbf0 79bd 6ec4 87bb a231 2b3d 9d4d 453c
00000090: ac3b bd3b afab 1e3e ddd3 953d de00 183e
000000a0: 7b76 5ebc 28e5 b4bd d1d7 abbd acd6 27bb
000000b0: b008 b73d a6c9 ed3d 8ecb 803d 3608 b33d
000000c0: 2dd1 00bd e0c1 e6bc 4376 acbd 20c7 51bd
000000d0: 72a3 b7bd 9eb6 573c aaf7 213d eb58 8bbd
000000e0: 4010 a0bc 97a5 c43d 2aa0 013e a370 f43d
000000f0: 63e6 a03b e714 873b 02ef 78bd 3bbe 40bc
00000100: 4d21 8fbd e3a6 6abb 8fac 0abd e40f b73c
00000110: dc18 363d 7385 cabc 3c0a 55bb e38a 843d
00000120: 5d9b ae3d 2927 af3d b7b0 e03c 073e cabb
00000130: ba8c 733d 73b2 113e 1c88 1cbd ce99 5e3d
00000140: 94c5 2ebd 3098 d63d e304 883d 32ba f73d
00000150: 76da 1b3e 0750 843d 715b 063e 5f70 ca3c
00000160: dad6 173d a37f 08bd 8b95 893d 479e a43c
00000170: 8c3f b2bd 741a a1bd 5c9e 943d 4d9e b93b
00000180: 9556 323d 7cd8 a13d f042 7c3d 20b1 08bb
00000190: 4d49 a5bd 16ed 42bd 3674 f93d 9d3c 82bb
000001a0: 2222 223d f950 a43d 8e28 3bbd 535a dbbd
000001b0: 973f c83d de76 a93d 0880 d33d 960e e2bd
000001c0: 8422 46bd ac54 8b3d 3220 633d 0d18 7c3d
000001d0: ff6b d93d cd12 683b eb86 9dbb 734e c03d
000001e0: 981d 92bd 5b40 8bbd 858f d6bc eda2 893d
000001f0: 6a4d 8ebd f38f c73d ba57 a03d aa04 01bc
00000200: 3fcb 87bd 4c70 533d 164c 9abb f06e a6bd
00000210: a3eb cbbb 4cbb 53bd 5025 9c3c 3174 c23b
00000220: 5c9f cc3d d7b8 adbc 157e 093c bee7 273d
00000230: 8e86 6abd ca4e 95bd 8a8e b5bd b7b4 59bd
00000240: 8255 f73c 554b 83bc d714 51bd 3be0 9d3b
00000250: 2ea5 263d 3897 ff3d afdb b3bd 79ef d93c
00000260: 962c e5bd d918 d73d 34ee 983d 0abb 5e3d
00000270: 65ec 67bd 0b4a 34bd 860e 453d f92d 12bd
00000280: e897 30bd cf9f 0bbe f71a 27bc 0be4 fbbd
00000290: 7551 86bd 68f3 a8bd 41c9 bbbd 55f7 e83d
000002a0: 13f4 853c 05c9 78bd 727c 733d 1bf3 b33d
000002b0: 5a6a 29bd f165 e83c 6791 d33d 1d02 b8bc
000002c0: 2f60 e23c 70bb 03be 2ba4 bf3d 1392 43bd
000002d0: d640 d93c 9243 01be a6fc 903d 4a7a 12bb
000002e0: 106d e4bd 28c5 763d 5930 c9bd d7d6 d1bd
000002f0: 2730 dc3c f92c babd b6dd adbd 74c9 88bd
00000300: d040 46bd 95ad b03d 2851 e63d da52 4dbc
00000310: 41a1 f3bc 0c16 0a3c c1ab 743c 8fc8 363c
00000320: d9d7 0e3e a804 b7bd aa97 353c 6fea 65bd
00000330: 6b20 123b 3e73 193d 98e6 1a3d 1f04 44bc
00000340: 65c6 c3bd 9565 0f3e cc23 5bbb ad45 fb3d
00000350: d2f7 a0bd df5e b93d 5bba 01bd e5e9 993d
00000360: 1ca1 c5bc 48f4 543d 8764 cfbd 4d42 ef3d
00000370: cfc9 423d 74f7 4dbd 221a ae3d eb24 ed3d
00000380: 391b b83d 0913 083d 7977 24bd 5c84 ac3d
00000390: 4201 d43d 09e2 8abc 26da b2bd 55a8 023d
000003a0: a66c b23d 3c3b 853d 0877 153e ac1c 6e3d
000003b0: 3255 773d 882f 953d 4c46 723c f0da 18bd
000003c0: a158 31bd 6381 ba3d ff82 763c c7c2 5d3d
000003d0: f8a5 543d d866 2ebd 075d b93d a581 233e
000003e0: 27fb b33d 4637 243e e310 a9bb 3dfe 203d
000003f0: bc1d 45bd 9880 47bd cb17 273c 9d8f c83d
