RNN33model.pth (torch, 218466 bytes, 10 tensors)

lstm.weight_ih_l0 f4 [256, 13]
00000000: fa91 bf3d 62ba f83d 787d febd 5e0a 773d
00000010: 82c9 ff3d 5667 d93c 8669 9fbd de23 f13d
00000020: 39d3 fb3c 7eb5 663d 8fef 8ebd f9cd a53d
00000030: 9429 c53b 29f3 efbd a026 16bd 2251 de3c
00000040: 14af 1ebd bcc5 a1bd d6a9 943d 2cd9 5a3c
00000050: 0462 483d baae da3d 180d 19bd ba49 a0bd
00000060: 97fb 5b3c 12b3 ee3d 63a1 a0bd 60b8 b8bd
00000070: e9e9 703d 8907 893d 6d2c 53bc dfa2 00bc
00000080: 1949 f6bd 32ca 973d 6542 f03c 95cf a43d
00000090: 8c45 5dbc e44b 053d 07c9 7c3b 843d babd
000000a0: e4d4 08bd 6f64 833d 803b fcbd f0f7 03bd
000000b0: a8de a2bd bf64 74bd 86a1 a0bd 23e7 e8bd
000000c0: 948e 573d f952 b4bd 5b3b cabd 282e b73d
000000d0: f188 b63d dfd9 143c ca49 933b efa1 ca3d
000000e0: a817 b73d 591d 5dbb 4bec 89bd 51de 81bc
000000f0: 51c4 35bd 11c2 173c 63ed fabc c78f a5bd
00000100: 500f d53a ce9c f73b 33d3 043d 3494 643d
00000110: 2ace b6bd bf0b 8c3d 486f 2b3e 8b52 a6bd
00000120: 5308 ae3d 4854 53bd 95b3 91bc ba6d b13d
00000130: 65d6 f43d e9bc 743d 0c37 64bc adc3 913d
00000140: e059 053e d0e8 a7bd 6a3e 11bd e878 5cbc
00000150: 9b77 70bc 9287 8d3c 1477 acbc 4926 7e3d
00000160: eac0 a6bd 37a2 f13d 87f3 303c b0d1 f8bd
00000170: 8c1a e23d a42d 523d f266 c43d 2ce5 9fbd
00000180: 008b d33c 1643 f9bd d29d 9c3d 366c fbbd
00000190: 222f e1bd 30e3 0cbd 487e e7bc 107f 7abd
000001a0: 168e 1f3c 1ebc b03c 384b b0bd a6b7 df3b
000001b0: aa66 6b3d 2f1b 0a3c 434d bbbd a7e8 c33c
000001c0: dfe6 81bd 18ce 09be 8fbb 453d 80fc fa3d
000001d0: fd64 89bb 9557 dc3d b5e5 813d 70ed 94bd
000001e0: 3776 bdbd d42b 6e3d c873 9d3d 6f59 a3bd
000001f0: 6239 ac3d b2c8 1ebe d8b3 2c39 ed89 b6bd
00000200: 7a48 213e 60e6 1e3d c82f f83d 385d 42bb
00000210: b2e2 a53c c1d2 723d d97f a53d f697 f1bd
00000220: cf14 c73d 19d5 8c3d 4857 dfbc 4508 883d
00000230: d060 e3bd b1bc d5bd dd54 c1bd c021 833c
00000240: 60e0 0abe 13b8 02be 4213 073e 0ade 14be
00000250: d29e b83d 9d9d bc3c bd06 26bd 5070 933b
00000260: 251b 0f3d 690c 01be 387f d23d d5e8 d7bc
00000270: 8f5f c03c abde 54bc 312a 92bd 4703 063d
00000280: d3ee 2a3d aa1f 2f3d de37 5dbd 27a2 ee3c
00000290: 5f4e 413d 7ea8 f1bb 716c 903d ac70 d43d
000002a0: 5a35 bfbd 81a6 cbbc 029f 0ebd d8e6 b83d
000002b0: 4f4f 783d 13a2 e7bd 22cb aebd c4e9 343d
000002c0: da37 e8bd 392a f43a 65ca 09bd 8e65 5f3c
000002d0: 87ae 52bd 6cd0 c93d e9b6 2fbd 1216 a4bd
000002e0: 5a3b 563d bbbd a1bd 59ac b8bc 0e75 b83d
000002f0: b367 bfbd 12af b43d 32ea 80bd 7dbc 46bd
00000300: fc7d 3d3d 2cf9 f6bc 8ba1 ac3d 8d5b cc3d
00000310: d3a5 9c3d 97f4 c7bd 068a 833d c7f1 a93c
00000320: b24e 1abc 79dc 22bd bf34 a2bc b6d4 02be
00000330: f968 90bd 77b0 6abd 28a5 cbbd 648b b93c
00000340: 6b32 a13d 1095 7f3d 756f 2f3d 2bbd 7cbb
00000350: ed4b 78bd 75b2 ebbd bc5f e1bd 9e3b 0bbe
00000360: 072f 793d 496d d2bd 665a 863d e67e 7b3c
00000370: 29d6 0ebe b15b 95bc 8f18 e8bd f465 d2bd
00000380: 2362 69bd 5ab4 46bc abab a4bd 04d7 86bd
00000390: 4a62 b7bd afc3 0cbe 23e5 c53c e306 dc3d
000003a0: fda1 653d 4b55 c0bd 3556 eabd 7812 683d
000003b0: cda5 e43d aa2a 063d 8286 5bbd 35d5 8e3c
000003c0: 8f99 083d df4c debc be2a 59bd 65ce 2e3c
000003d0: 770e f2bd 7842 c2bc d1db 52bd 61e5 b0bb
000003e0: 82f9 233d 4ed1 32bd 6905 d83b 8628 c0bd
000003f0: baa7 c1bd 4e58 953c 5b20 ea3c 3466 37bb
0.09354015 0.12144925 -0.12426275 0.06031262 0.124896064 0.026538532 -0.07783799 0.11774419
0.030740367 0.05632543 -0.06979286 0.08095927 0.0060169194 -0.11716301 -0.03665793 0.027138297
-0.038741186 -0.07899043 0.07258956 0.013357442 0.0489216 0.10677858 -0.037366003 -0.07826562
0.013426683 0.11655249 -0.07843282 -0.09019542 0.058816824 0.0669089 -0.01288901 -0.0078513315
-0.12025661 0.074116126 0.029328534 0.08047406 -0.013505351 0.032543078 0.003857197 -0.090937644
-0.033406153 0.064156406 -0.12316036 -0.032218874 -0.079526246 -0.05966639 -0.07843308 -0.11372211
0.052626207 -0.08804888 -0.098746024 0.089443505 0.08912838 0.009085148 0.0044948803 0.09894168
0.08940059 -0.0033739416 -0.067345224 -0.015853079 -0.044376675 0.009262578 -0.030630773 -0.08084064
0.0016255174 0.0075565344 0.032427978 0.0558054 -0.089260414 0.06838178 0.16741669 -0.081212126
0.084976815 -0.05159405 -0.017785827 0.08663507 0.11954955 0.05975047 -0.01392914 0.071174
0.13022566 -0.08198702 -0.035459913 -0.013456561 -0.014676954 0.017276559 -0.021052875 0.06204823
-0.08142264 0.11798518 0.010800249 -0.1214937 0.1104022 0.051313058 0.09589948 -0.07807383
0.025823116 -0.12170999 0.07647289 -0.12276499 -0.10995318 -0.03439635 -0.028258458 -0.061156332
0.009738466 0.021574076 -0.08608097 0.0068273125 0.057470955 0.008429333 -0.09145596 0.023914648
-0.06342863 -0.13457525 0.048274573 0.12255192 -0.004192947 0.107588924 0.06342641 -0.0727185
-0.09251063 0.058147267 0.07688099 -0.079760425 0.084093824 -0.15506247 0.00016470195 -0.08913026
0.15750304 0.03879392 0.121184886 -0.0029657613 0.020249698 0.05928302 0.08081026 -0.117965624
0.09720766 0.06876583 -0.027263299 0.06642202 -0.1110245 -0.10436381 -0.094400145 0.016007304
-0.13562155 -0.12765531 0.1319094 -0.14537826 0.090146676 0.023024375 -0.04053377 0.0044994727
0.034937996 -0.1260239 0.10278171 -0.02635614 0.023483066 -0.012992541 -0.071369536 0.03271797
0.041731667 0.042754807 -0.054008357 0.029130055 0.04719388 -0.007374822 0.070519336 0.10373053
-0.09336348 -0.024859669 -0.03481961 0.09028405 0.06062251 -0.1131021 -0.08534838 0.04416825
-0.11338778 0.0018628306 -0.033640284 0.013635052 -0.051435973 0.098542064 -0.042899046 -0.08012022
0.052302696 -0.07897516 -0.02254312 0.090067014 -0.09345951 0.088224545 -0.06294669 -0.0485196
0.046262726 -0.030148111 0.084292494 0.099783994 0.07648816 -0.09763449 0.0642281 0.020745171
-0.0094181765 -0.03976104 -0.019800542 -0.12776455 -0.07051272 -0.057297196 -0.099436104 0.022649474
0.078709446 0.062398016 0.042830903 -0.0038564901 -0.060619283 -0.11508647 -0.11004588 -0.13596961
0.060835864 -0.10274751 0.06560211 0.015350079 -0.13948883 -0.018232198 -0.11332809 -0.10273352
-0.056978356 -0.01212796 -0.080405556 -0.0658398 -0.08954294 -0.13746522 0.024157112 0.10743501
0.056062687 -0.09391268 -0.11442224 0.05665824 0.111644365 0.03275553 -0.053595074 0.01743565
0.03334957 -0.027136264 -0.053019278 0.0106693255 -0.11819165 -0.023713335 -0.051479165 -0.005398438
0.04003287 -0.04365664 0.006592442 -0.09382729 -0.094558194 0.018230584 0.028579881 -0.0027984502

lstm.weight_hh_l0 f4 [256, 64]
00000000: e43d f03d 7586 ba3d 820c 7e3d dcbd 2a3d
00000010: 56f8 893d d738 3b3d f8c4 83ba 166b b9bd
00000020: dee4 debd a5c3 d83d 7df8 b23b f623 cc3d
00000030: 7681 f93c 4442 ce3d 04f4 4fbd 5d30 a6bd
00000040: 4f7f c93d ea5f a13d ab16 7dbb ac7b de3c
00000050: 1cae 2a3d 103b be3d 756f a8bd 6c12 3e3d
00000060: d06b 683b 0a27 d03d a078 f03d baea e8bd
00000070: a0ea dabc 1eb3 e03d 0540 cbbb aa0c 8bbd
00000080: 6c39 07bc f2c9 6abd ac50 c4bd a888 403d
00000090: f036 14bd 5e97 13be 1a25 9fbb db6a dcbd
000000a0: ecb4 983d 19b9 01bd 9bfd 7bbd be36 ad3d
000000b0: 468e e93d 7801 2bbd 52ed 3a3c d7d6 99bd
000000c0: b6ae 623d 45ef 4d3d cf1e 26bc fa2d d13d
000000d0: dca5 d5bd 4ab1 d03c 382e 023d 4802 30bd
000000e0: c8a2 bebc 90e1 6c3d c5e1 8c3d aa71 93bd
000000f0: 22fa ff3c ac49 d93b c8de 13be 08c8 8b3d
00000100: e0cb 5cbd 5272 af3d 1027 e53c aaf3 9d3d
00000110: 108f 3fbc 76db d93d 9c0c 29bd 402b c03b
00000120: 0c95 13bd cae6 a33d 04aa 813d 7032 3bbd
00000130: 76e3 cd3d cca6 d9bd 766d d9bd b206 d2bd
00000140: eec2 933d 64bf b0bd e8bc 9fbc a821 88bd
00000150: 8c44 933d f8e2 96bd 5c9e 3b3d 9836 a13c
00000160: c61b d3bd 3cc1 8fbd 02cf 883d e06d 9ebd
00000170: d057 1ebd a865 c3bc 020f 82bd 46e5 ad3d
00000180: b866 aebd 4066 e5bc ea4e ebbd 3cae cb3d
00000190: f89f a23c a8fa c03c 44f2 91bd f87f 4e3d
000001a0: 1ed6 aebd 867d 853d 402f 79bd 2e4c d63d
000001b0: 0c5a 033d daea ffbd 20f3 9c3d d89d 8c3d
000001c0: da2f fe3d de14 d03d 88b6 f63d 9464 5abd
000001d0: 506f 19bc f26d 8d3d e4ff dabd b68f 92bd
000001e0: 0017 bd3b 907b 7cbd 209d ddbc e880 a1bc
000001f0: c869 26bd 9092 25bc acc6 f7bd 6a25 c4bd
00000200: d1dd 863d 38bc a53d c386 bbbd 06e0 a3bd
00000210: e222 ad3d 7e0a e6bd 140c 873d 8ea7 e5bd
00000220: e3ae afbd b64e 4c3d 04b3 963c 6b72 a5bd
00000230: 108f d6bd af26 0a3d c320 19bc 6516 3a3b
00000240: e397 e83d 0f64 ddbb 4cb8 e23d 6421 abbd
00000250: 16c4 3a3c fa27 8d3d 85be 81bd c998 df3d
00000260: e84b 923c 8ce5 893d a8f9 c53d faed a1bd
00000270: 942b bb3d fb40 85bb 4fbd 7ebd 4e7c 263d
00000280: 7b70 a63d f2ab a93d 64ce 203c bb6c d93d
00000290: 800d fb3c 212e 14be b662 f2bd 54a8 d3bd
000002a0: dd94 b33d ed37 c73d 96e2 bf3d 9bb1 003d
000002b0: c901 b8bd ac57 b13d d41a d6bd f7bd 8ebd
000002c0: 2128 293d 06c1 d53d b1d8 49b8 2470 10b9
000002d0: 9a11 e33d c552 1abe e5cf 663d d763 e8bd
000002e0: 233e a33c 31c8 9a3d 5217 18bd a3c5 ee3d
000002f0: bd06 db3d 85b1 c93d 0ccb d53d 508e 2c3d
00000300: 4656 1bbd 06a4 0ebe 7bce de3d 8656 c7bd
00000310: 271f 9f3d ab55 06be 9314 31bc 6aec 83bd
00000320: b59b 83bc 864f dabd eb8c fcbd 7c1c ce3d
00000330: 35e9 cabc 650b bebd 0eac 1ebd ec9d b3bd
00000340: ff44 8b3d ccca 85bc dd41 a33c 3d71 a9bd
00000350: bf27 d3bc d333 fcbd 742d 3cbd 5766 8ebd
00000360: 1859 e03c d2fc f83d 68f7 b9bc 5438 aebd
00000370: bc3b 7fbb afd6 1dbc 7b55 433d 0ffa 943d
00000380: 6a86 8fbd 2a10 f83d 4135 043d 1b94 58bd
00000390: 2ee8 ffbd 9602 b0bd 2da8 5d3d d26c f93c
000003a0: 8975 f43c 3ebf a73d e84c d2bd b1b9 2cbd
000003b0: 7746 a6bd a036 c7bd 368d e73d a237 d13d
000003c0: 79ab fc3d 05d8 d63d 6fec 953d a050 4abc
000003d0: 372d 143e 5957 803d 276e df3d b7a9 fcbd
000003e0: 6e5e cf3d f92e 9fbd 3a56 ba3d 193f 89bd
000003f0: 7b37 ebbc 26d7 93bd bff5 8e3d 77dc b5bd
0.11730555 0.09107677 0.062023647 0.04168497 0.067368194 0.045708504 -0.0010053208 -0.09053628
-0.10883497 0.10584191 0.005461751 0.099677965 0.03045724 0.10071233 -0.05076982 -0.08114693
0.09838735 0.07879622 -0.0038618247 0.02715858 0.04166995 0.09288609 -0.08224384 0.046404287
0.0035464652 0.10163696 0.117417574 -0.113728955 -0.026723206 0.10971664 -0.0062027 -0.06789525
-0.008253437 -0.057321496 -0.095856994 0.047005326 -0.036185205 -0.14413211 -0.004856718 -0.107625686
0.07456383 -0.031670664 -0.061521154 0.08457707 0.1140409 -0.041749448 0.011409121 -0.075116806
0.0553424 0.050277013 -0.010139181 0.102138475 -0.10432026 0.025475163 0.03178236 -0.042970926
-0.02327098 0.0578323 0.068789996 -0.07199414 0.031247202 0.006631097 -0.14440453 0.06825262
-0.053905368 0.08566727 0.027972728 0.07712491 -0.011691824 0.10637562 -0.04127179 0.005864531
-0.036030814 0.08003004 0.06331256 -0.045702398 0.1005315 -0.10627517 -0.10616581 -0.10255183
0.07214914 -0.08630255 -0.019499257 -0.066470444 0.07190809 -0.073675096 0.04580532 0.019679353
-0.10308032 -0.070192784 0.066801086 -0.07735801 -0.038657963 -0.023852184 -0.06350519 0.08490996
-0.08515686 -0.028002858 -0.11489661 0.09945342 0.01985167 0.023557022 -0.071262866 0.05041501
-0.08536933 0.06518082 -0.060836077 0.10463749 0.032068297 -0.12495966 0.0766356 0.06866044
0.12411471 0.1016023 0.12046534 -0.053318575 -0.009364918 0.06905736 -0.106933385 -0.07156317
0.005770564 -0.061641276 -0.027052462 -0.019714788 -0.040628225 -0.010105744 -0.120984405 -0.09577449
0.06585277 0.080925405 -0.09156563 -0.080017135 0.08453919 -0.1123247 0.065941006 -0.11213599
-0.08578279 0.049879752 0.018395908 -0.08078464 -0.10476506 0.033728298 -0.00934619 0.0028394696
0.11357095 -0.0067563127 0.11070308 -0.08355978 0.01139929 0.068923905 -0.06335167 0.10917813
0.01785846 0.06733236 0.09666759 -0.079067186 0.09139171 -0.004066584 -0.062192257 0.04064589
0.08126923 0.08284749 0.009814832 0.10616442 0.030646086 -0.14470722 -0.11835234 -0.103348404
0.08768628 0.09727464 0.0936939 0.031419378 -0.089847155 0.086593 -0.10454336 -0.06969827
0.041298036 0.10437207 -4.8123944e-05 -0.00013774686 0.110873416 -0.15070637 0.056350607 -0.11347168
0.01992709 0.07557715 -0.037131615 0.1165879 0.106946446 0.09848312 0.10439119 0.042127907
-0.037924074 -0.13929757 0.10879227 -0.097333 0.07769614 -0.13118617 -0.010808128 -0.06441577
-0.016065458 -0.10659699 -0.123315655 0.10064027 -0.024769405 -0.09279517 -0.038738303 -0.087703556
0.06800269 -0.016332053 0.019928867 -0.082735516 -0.025775788 -0.12314572 -0.045941785 -0.069531135
0.027386233 0.12157597 -0.02270098 -0.085068375 -0.0038945517 -0.009633704 0.047688942 0.072742574
-0.07008059 0.12112458 0.03227735 -0.05287562 -0.12495457 -0.08594243 0.054115463 0.030447397
0.029841201 0.081907734 -0.10268575 -0.042169277 -0.08118909 -0.09727216 0.11306231 0.10215689
0.12337393 0.10490421 0.07320487 -0.012348324 0.14470373 0.0626666 0.10909682 -0.12337058
0.10125433 -0.07772631 0.09098478 -0.06701488 -0.028712979 -0.07218771 0.06980466 -0.08879941

lstm.bias_ih_l0 f4 [256]
00000000: c3db b6bd 50c3 f3bd 9b3b 083c 17bf 4b3d
00000010: ab09 9b38 6dd0 403d 6e97 743d e087 c8bb
00000020: 6ed7 66bd 679b c03d 6772 bf3d d4c9 c93c
00000030: 1410 fe3d d755 a1bc 22de 7abd 09a8 d53d
00000040: c414 1a3d c34b 5fbc 9166 163d 1614 043c
00000050: 89f3 75bb e060 09bd 304b 873c 979b f33d
00000060: 4794 a6bc c86f 16bd dfef f23d d839 fd3d
00000070: 48f1 d43d 39f4 abbd 779d cabd a558 dabd
00000080: 8fcf d2bd 7372 72bd 8abb 01bd b6bc 32bd
00000090: 1747 db3d 0298 fdb9 d99c d43d ead7 973c
000000a0: ead3 9d3d 4077 e83d 0cb0 91bd 355b d23d
000000b0: b100 8abc 83ab 9fbd 5b02 6dbd 1d30 31bc
000000c0: 9e13 62bd dcbf 7a3d 4830 1e3c 8eef ec3d
000000d0: 3237 b43c e8ee 0f3e ad39 e4bd e58f 31bc
000000e0: 6cc6 9b3d f8d8 45bd 26f1 cbbd 5b65 c13d
000000f0: b6d7 d5bd 5bc1 3b3d 3ec3 c03c 6b62 dfbd
00000100: 433f f73d 00dc de3c 8aa9 8dbd e989 92bd
00000110: 7ee7 533d d16f e73c 9788 a3bd 9018 b5bd
00000120: 7577 b8bd e88c d53d 3edb b23d a76d 013e
00000130: b422 a2bd 09d0 b7bd 14bf 2abd 3f9b c43b
00000140: bf2c 8fbd 247d e0bd 5ff0 e03d 5ab5 873d
00000150: 1890 93bd e8ea 073e a286 90bd b3a7 c4bd
00000160: b2a3 91bd 2ccd abbd 7cbf a33d eac0 d33d
00000170: d011 643c be0e df3c 0e26 e13d 1926 ac3d
00000180: b12b aabc 712e 94bd 5413 003d 624b 163e
00000190: cc4e ccbd 9cc4 a7bd 6fc0 603d 143a 923d
000001a0: 8ff7 41bd 663c 6f3d cd12 49bd 761a 2bbc
000001b0: a045 973d 4020 7a3d eb9b b73c 0126 a83d
000001c0: 3077 983d f2f6 9a3d 02d6 acbb 5010 bdbd
000001d0: ad58 ad3d 9b5d a8bd 7edc d5bd 2c70 a8bd
000001e0: 0a1b dcbd 8a72 04be 455c f1bd e381 52bc
000001f0: 753b bd3d b82a 0ebd 764c 98bd 17a1 40bd
00000200: a1d3 7d3d 486b a0bc d383 41bc d236 773d
00000210: d1e8 83bd 6a17 bcbd cfae 90bd b8b2 353d
00000220: 72a5 7c3d fcdc aebd e4d5 543d bdc6 3b3d
00000230: 5e5b 933d 6640 ab3d 60b0 033d c0a7 1a3c
00000240: 5330 ad3d cce4 3d3d 85dd a63c 32d3 24bc
00000250: 4a03 803d 10ce abbd eb90 7b3d 0c53 cd3d
00000260: 642b 213c 726d e4bd fe02 ba3d fe6e bc3d
00000270: 5828 f5bc 0468 68bd 5852 0c3d 8f2e 8b3d
00000280: c019 d2bd 719e 133d 4516 113e a0bf 89bb
00000290: 6b30 7ebd d107 ac3d 5ff9 913d 70e0 53bd
000002a0: cca4 943d c7e6 01bc f1d4 e93d 872a d03b
000002b0: d742 c0bd a2b9 abbd 358d 5d3d 333c 94bc
000002c0: ca8f debd b307 bb3d 8cec ddbd fe5d f3bd
000002d0: 2e16 fc3d 168f d13d cc16 fb3d a8fa 7ebd
000002e0: 2e77 c6bd a49d edbd 1097 1bbc d851 ed3c
000002f0: 6892 8d3d cf73 d13d 1440 883d 7b05 d93d
00000300: 999a 9fbd bf4b 0abd 4654 dc3d ea9c c4bc
00000310: 31c8 44bd b387 e83b c76e 54bd 23a3 fd3b
00000320: f8a7 6e3d f454 023e 1e44 ba3d e737 8cbd
00000330: 6293 d53c 8692 0cbd 594d 2e3d 8228 b63d
00000340: b921 c8bc 77cf 62bd 54b4 04be fe81 8c3d
00000350: 3eff bbbd 44ea ed3d 08f6 af3d 9e9b c63d
00000360: 0622 9e3d ac45 c23d 7b2d ad3d ea43 31bd
00000370: 5b2d 77bd f86d f0ba 136d 9f3c 1eb1 c33d
00000380: 6270 773d 497e 7cbd 8838 e83c cf6d 6b3c
00000390: 38fd fa3c ff58 e0bd 2025 9ebc ab8b 1abd
000003a0: 7a29 a8bc 0d64 9d3c c9af c73c 5109 d7bd
000003b0: 9df9 ec3d 4031 a6bd e524 563d 95a1 c93d
000003c0: 8c69 2bbd f538 eabd cd0e 2ebd 4f11 a5bc
000003d0: 62e6 973c a8ff ecbc 7ef9 2ebc 7518 8bbc
000003e0: b5bc dfbd 7ca5 bf3d ad27 ce3c 0513 c83d
000003f0: f51b 443d ba0d 2f3d 83a7 06bc f5c4 cdbc
-0.08928635 -0.11902487 0.008314992 0.049742784 7.392777e-05 0.04707377 0.059714727 -0.006119713
-0.056357794 0.09404641 0.093479924 0.024632372 0.124054104 -0.019694252 -0.061247 0.10432441
0.03761746 -0.013628903 0.03671891 0.0080614295 -0.0037529191 -0.033539653 0.016515344 0.11894911
-0.020334376 -0.036727697 0.11862158 0.123645484 0.10397583 -0.08396191 -0.09893315 -0.10661439
-0.10293495 -0.05919118 -0.03167299 -0.043637 0.10706919 -0.00048369175 0.10381479 0.018535573
0.07706435 0.1135087 -0.071136564 0.102713026 -0.016846033 -0.07796385 -0.057863574 -0.010814694
-0.05519449 0.061218128 0.009655066 0.11569129 0.021998975 0.14055979 -0.11143813 -0.01083753
0.07606205 -0.04830262 -0.09958105 0.0944316 -0.10441534 0.045838695 0.023530599 -0.109074436
0.12072613 0.027204514 -0.06917103 -0.071552105 0.05173444 0.02825156 -0.07985037 -0.088425756
-0.090071596 0.10427266 0.087332234 0.12639485 -0.07916775 -0.089752264 -0.041686133 0.005999952
-0.069909565 -0.10961369 0.10983347 0.06626387 -0.07205218 0.13273203 -0.07056929 -0.096022986
-0.071113005 -0.08388743 0.07995507 0.1033953 0.013920262 0.02722871 0.109935865 0.08405704
-0.020772787 -0.072354205 0.031268433 0.14677194 -0.09975967 -0.08191797 0.05487102 0.07139984
-0.04735523 0.05840721 -0.049090195 -0.0104433205 0.07386327 0.061065912 0.022413215 0.08210374
0.07444608 0.07566632 -0.005274535 -0.09231627 0.08464179 -0.08220979 -0.10442446 -0.0822452
-0.10747345 -0.12934318 -0.11785177 -0.01284835 0.09239856 -0.03470871 -0.07436459 -0.047028627
0.061969403 -0.019582406 -0.0118112145 0.060355015 -0.064408906 -0.091841534 -0.07064592 0.044359893
0.06168122 -0.08538243 0.051961794 0.04584383 0.07195161 0.083618924 0.032150626 0.009439409
0.08456483 0.046360776 0.0203693 -0.0100601185 0.06250627 -0.08388913 0.0614175 0.100256056
0.009837005 -0.111536875 0.09082602 0.092008576 -0.029926464 -0.056739822 0.034258217 0.0679599
-0.10258818 0.036039773 0.14168651 -0.0042037517 -0.062057894 0.08399928 0.07127642 -0.051727712
0.07257995 -0.007928557 0.114175685 0.006352726 -0.09387749 -0.08385016 0.054089744 -0.018095111
-0.10867269 0.09132328 -0.10836133 -0.11883162 0.12308918 0.102323696 0.122602075 -0.062250763
-0.096907005 -0.11602333 -0.009496465 0.02896969 0.069126904 0.10227167 0.06652847 0.105967484
-0.07793159 -0.033763643 0.107582614 -0.024000604 -0.04804248 0.0070962547 -0.051863458 0.0077403947
0.058265656 0.1272772 0.090950236 -0.068466 0.026071254 -0.034319423 0.042554233 0.08894445
-0.024430143 -0.055373635 -0.12959415 0.068607315 -0.09179543 0.11616948 0.085918486 0.096976504
0.07721333 0.09485945 0.0845594 -0.04327766 -0.06034599 -0.001834332 0.01946119 0.09555267
0.06040991 -0.061643872 0.028347269 0.014369442 0.030638322 -0.10954475 -0.019304812 -0.037730854
-0.02052759 0.019212747 0.024375813 -0.10499824 0.115710475 -0.081148624 0.05228128 0.098452725
-0.041848704 -0.11436645 -0.042494584 -0.020149855 0.018542472 -0.0289305 -0.010679601 -0.016979435
-0.10924665 0.093577355 0.025165403 0.09769253 0.047878224 0.0427377 -0.008218649 -0.02511833

lstm.bias_hh_l0 f4 [256]
00000000: 5067 aab9 3aeb bb3d 114a 50bd 3bb3 2a3c
00000010: 2ec7 98bd bd86 163c 4284 13bd e44f 0dbd
00000020: 908c 713c a4a4 38bd 96e6 7a3c 034c a93d
00000030: 34de 4b3c 2fb4 6bbd 64c6 c6bd f952 723d
00000040: 6e53 5dbb c976 f9bd a58d 583d da58 49bd
00000050: 3309 a43c c058 883d 7b31 a83d b4a6 3ebd
00000060: 156b a8bd e02e 12bd 8949 f53d 6ecd 9f3c
00000070: 68d9 29bd a2ee 6dbc 19ed ca3d f5ae 8cbd
00000080: 935b f43c 3782 0fbd f34e db3d b69b 4abd
00000090: 488e be3c d8ee 8e3d b255 c3bc 5f35 be3d
000000a0: 5a4e 9c3d aa02 8a3d 2bdf dcbc 6bcc 5ebd
000000b0: d35a c13d 57fa ba3d 5181 4d3d db12 d33c
000000c0: 6218 0ebd 44b0 ea3d 285a 623d fe50 943d
000000d0: 1f40 ac3d b217 e5bc bb90 8a3c 41c4 cb3d
000000e0: 20f9 eb3b 003f 263d 8b67 be3b bb76 e23d
000000f0: 9e44 b6bd 953e bc3c 2957 c2bd 3e6b 3c3d
00000100: aa8f 153d d8d9 443d 7e4f a13c c549 033e
00000110: 82ee 0b3d ef39 0fbe 2286 c4bd 30cd fabd
00000120: dfe9 8d3d f867 f33d 349a f03d 1f16 113e
00000130: 73d6 21bc 8e0a 943c d02b 213c bcbf 703d
00000140: d19d df3d bc14 1539 b9d7 8d3d 3274 aabd
00000150: d025 a23d 19f1 64bd 64f0 d3b8 9e41 0bbd
00000160: b48e e1bd d81f 0cbd f474 f3bd 5401 ae3d
00000170: c0d2 23bc e440 81bd d116 733d f785 dbbd
00000180: 87d4 de3d 8e49 d43c e1c0 91bd d67f 513d
00000190: 5a76 e0bd b4ab 733b 21f6 983d 649a ecbc
000001a0: d3a0 403d 7297 fe3d 4e25 e53d e0e5 f2bd
000001b0: 062a 623c 9768 da3c 10d6 2b3d c1fd da3d
000001c0: 9c8f 54bd 03a9 ef3c 19d0 91bd c048 5e3c
000001d0: 8933 fcbd 0b95 d0bd a0ae 87bc 448f d0bd
000001e0: 5495 32bd 5fcf 53bd 9f60 f3bc d1e0 663a
000001f0: 98a7 76bc f490 19bd a816 57bd 2cfa d43d
00000200: a7a2 443d 08f1 db3d 6e14 a03d de9a 8e3d
00000210: 2fbe e7bd 8eb5 c0bd b38c 5abd 16e8 6abc
00000220: 9b63 e53d 20b9 5cbd 6218 d4bd 9ca5 d3bd
00000230: 9e47 2c3d d9cd 043e 562b f4bd c8ff 13bd
00000240: 7d88 bd3d 78f8 64bd f678 35bc 4c8b 48bd
00000250: 6500 55bd c870 f3bc 7fd8 a73b d2fb 8dbc
00000260: b6ab 98bd 14ac 9cbd 5c3b 44bd b40a c1bc
00000270: b248 8f3d 2015 2dbc 6e3c c2bd e3d0 aa3d
00000280: f4c4 db3d f41f 913d aed1 b2bd a842 a83c
00000290: ad5c 533d 16b3 28bc aff6 cebd 165f babd
000002a0: 04e9 a23d 4031 3a3d 3390 c13d 7cd1 d7bb
000002b0: fe3f 3e3d b094 c9bd 5d02 1d3d 736b 8dbb
000002c0: 8859 cabd 1d1d ce3d 65a2 053c 6058 f9bb
000002d0: 4a3d 8bbd 7039 82bd ca7a b33d 846a ee3d
000002e0: faac b33d 8dd6 fd3c 80ce e43b 6461 1ebd
000002f0: b2de 8f3d a82c 5fbd 08f6 d63c 8d37 c7bd
00000300: 36c6 96bd 4477 1e3d 18e0 a4bd 8626 d3bd
00000310: 33fa e6bd cc92 073e 0e92 833d 8b30 e5bd
00000320: da6d a8bd b40d 153e efac ca3c ff42 f23d
00000330: 9e7e cb3d f09e 973d 3300 44bd 52b6 153d
00000340: 62ff 963d 854f 04be df03 ecbd c4c9 953d
00000350: 2c68 8fbd f25c b83d 818c a4bd 0327 dbbc
00000360: 6206 fabd d6a8 99bc 57f6 9b3d bf9d b83d
00000370: eccc c33d aba3 a53d 3d4c ecbd 3094 8fbd
00000380: 35f0 953c e38c 3e3d 20fa 403d 0bf2 bcbd
00000390: 0077 3cbc 1c38 51bd 7cc4 8abd 9624 923d
000003a0: 31e7 873d 649f e23d a4c1 31bd b7f2 55bd
000003b0: 5ee9 053d def2 e43d 715b 723d 2860 96bc
000003c0: 2eee aabd f32f 223d a87f e93d 71f6 9dbd
000003d0: 087d d3bd d2b3 a9bc 5c00 5d3d 8acc 19bd
000003e0: 6441 79bd 060b 3d3d 1994 8fbd d308 d33d
000003f0: 975c 47bd 4b84 b23d 28e2 91bd c4c4 153e
-0.000325019 0.09175725 -0.050851885 0.010418708 -0.074598655 0.009187398 -0.036014803 -0.034500018
0.014742985 -0.04507889 0.015313765 0.08266451 0.012443114 -0.057544883 -0.09705809 0.05916116
-0.0033771652 -0.121808596 0.052869458 -0.049157 0.020023918 0.06657553 0.08212563 -0.0465457
-0.08223549 -0.035689235 0.11976916 0.019507136 -0.0414671 -0.0145222265 0.09908504 -0.06869308
0.029828822 -0.035036292 0.10708418 -0.049464904 0.023261204 0.069791496 -0.023844574 0.092875235
0.07632132 0.067387894 -0.026961884 -0.054394167 0.094411515 0.0912978 0.050172154 0.025765827
-0.034691222 0.11459401 0.05526176 0.072420105 0.08410668 -0.0279654 0.016914716 0.09949542
0.007201329 0.040587425 0.005810683 0.11057802 -0.088998064 0.02297906 -0.09489281 0.04600071
0.03651396 0.048059314 0.019691225 0.1282111 0.034163006 -0.13986944 -0.09595896 -0.12246168
0.06929373 0.11885065 0.11748162 0.14168595 -0.009877789 0.01807144 0.009837106 0.058776602
0.10918773 0.00014217471 0.069259115 -0.08322944 0.079173684 -0.05589399 -0.0001010604 -0.033998124
-0.110135466 -0.034210056 -0.118875414 0.08496347 -0.009998977 -0.06311205 0.05934793 -0.10718911
0.1088038 0.02591398 -0.07116867 0.051147304 -0.10960074 0.00371812 0.0746882 -0.028882213
0.047028374 0.1243123 0.11188756 -0.118602514 0.0138039645 0.0266612 0.041952193 0.10692931
-0.05189477 0.029255396 -0.071197696 0.01356715 -0.12314517 -0.10184678 -0.01656276 -0.10183576
-0.04359944 -0.051711436 -0.029709158 0.0008807304 -0.015054606 -0.037491754 -0.05251184 0.10399279
0.04800668 0.107393324 0.07816397 0.06963132 -0.113155715 -0.09409629 -0.053356837 -0.01433756
0.11200639 -0.053887486 -0.10356213 -0.10334322 0.042060487 0.1296915 -0.11922328 -0.036132604
0.09254549 -0.05590102 -0.011076203 -0.04896097 -0.05200233 -0.029716864 0.005122244 -0.017331991
-0.07454626 -0.07650009 -0.047908172 -0.023564674 0.069962874 -0.010564119 -0.09484182 0.08340623
0.10730925 0.07086173 -0.087313995 0.020539597 0.051602054 -0.010296604 -0.10105645 -0.091001675
0.079546005 0.045457125 0.09451332 -0.006586252 0.046447746 -0.09842813 0.038332332 -0.0043157875
-0.09880358 0.10064147 0.008156394 -0.007609412 -0.06798799 -0.063586116 0.087636545 0.1164141
0.08773227 0.030986095 0.0069826245 -0.038667098 0.07024898 -0.054485947 0.026240364 -0.09727392
-0.073620245 0.03868796 -0.08050555 -0.10310082 -0.112781905 0.13239592 0.06424342 -0.111908995
-0.082240775 0.14556009 0.024740664 0.11829185 0.0993626 0.07403362 -0.047851752 0.036550827
0.07372929 -0.1292096 -0.11524176 0.07313874 -0.07002291 0.09002103 -0.080346115 -0.026752
-0.12208249 -0.018757265 0.07615345 0.09014463 0.0956057 0.08087858 -0.11537979 -0.070106864
0.018303016 0.04652108 0.047113538 -0.092258535 -0.011502981 -0.0510789 -0.06775758 0.071358845
0.06635893 0.110655576 -0.04339756 -0.052233424 0.03269326 0.11179136 0.059169237 -0.018356398
-0.083462104 0.03959651 0.114013016 -0.077130206 -0.10326582 -0.020715628 0.05395542 -0.03754858
-0.060853377 0.04615309 -0.07010669 0.103044175 -0.048672285 0.08716639 -0.07123214 0.14625841

lstm.weight_ih_l1 f4 [256, 64]
00000000: cdaf 00be 0fd0 a4bd 0a1e 12be bb5f cd3d
00000010: 5026 913d dcb7 1d3e f8d6 a03d bf26 f8bd
00000020: 4037 163e 42c9 c1bd 06c2 84bd 5aea 9b3d
00000030: fa55 b33b dbb4 dc3d aea3 1e3d 89ba 15bd
00000040: 4e6b 563d 0808 1ebd 7d99 2b3b ee4b dbbd
00000050: 5139 1bbd 726d fbbd 49f2 08bd 03f4 ec3c
00000060: 5ed9 77bd 6ed3 bbbd b831 aebd 4c8b 84bd
00000070: b063 0c3d e2fe 5b3d a357 b93d 80ce b33c
00000080: 4f3f 223c 2176 9e3c b8ed fcbc f280 c6bc
00000090: 0606 2d3c 8cc6 20be 1f8b e9bc 4203 10be
000000a0: 41bf 823c 5468 ef3c 602f 823c ec1b 113d
000000b0: 1965 14be 27e1 f6bc 65b7 dd3d b01c e6bd
000000c0: c7cb c5bd ada0 d3bd c97b 9a3d 7850 9e3c
000000d0: 753e a0bc e035 473d e620 eebc fb58 d6bd
000000e0: 7d3b 63bd f454 483c 81da 683d e855 be3b
000000f0: d92c c53d d3a6 1e3d c884 e1bd 6706 083b
00000100: cfc7 a33d c22e 0dbe 6ccc dcbd 0a6a a1bd
00000110: aa73 e63d d65b 673d 60f4 283d 59c1 7fbd
00000120: c0b7 c1bc c38c 9ebd 9fd8 ba3c 044c d83c
00000130: f6cb a0bc d63c a03d 3437 f63d ca3a 683c
00000140: d1d2 073e e353 c03b 4b7b 203e 924a f2bd
00000150: cd50 8ebd f894 203c 1a27 b7bd ae3a 9dbc
00000160: 6a87 b3bd a424 823d 4a6d bd3d 14fa f3bc
00000170: b0af d3bd 2cdc fe3d 8d62 6c3d 3904 66bd
00000180: e7fa d1bd b62c a33b 962a ea3d 8621 863c
00000190: a044 7abd 916f efbd ce8e 963b 932c a53d
000001a0: f8b1 b63d daff 193d 82e4 e6bc fe7d 953c
000001b0: d6d6 3b3d 4e39 25bc 5caf 893d 30f2 463d
000001c0: 64d6 873d 41e5 87bd ca97 bdbd 905d c1bb
000001d0: 4012 d53b 5637 e4bb 9202 3f3d facd 83bc
000001e0: a9fb b73d f2b0 b4bc 638d 803d 188a de3c
000001f0: 2cec 713d f569 87bd a186 1ebe f72b 253d
00000200: 5777 623d ac2f e53b 9bd1 723d 64ed d9bc
00000210: 43f8 3f3d a99d e9bd e249 be3d 2a4e 1ebd
00000220: d946 013d f448 a3bd a02b e43a cbd0 1e3e
00000230: c8bf 76bc aa99 94bd 3931 e0bb dbc6 2c3d
00000240: 1ea1 ef3d b8cc 4cbd e5f5 9abd 200b 443d
00000250: 515f 263d 349f 423d a716 cc3d 067f 43bd
00000260: 0b85 073d 7619 85bd e610 ebbd 4567 e93d
00000270: bf7f 983d bb40 5d3d c03f 0a3d 2f1e 243d
00000280: 8fef 28bd 25d2 4a3c e007 d3bd 60c5 cf3d
00000290: da0f 4dbc 912b 07be 8eae 8ebd 6a72 d23d
000002a0: 4f21 18bd 8dfc 89bd c1cd 3fbb 70c6 0dbe
000002b0: bc79 9938 051e 0b3e 8856 e83d bbd6 17bd
000002c0: 2da2 853d 5ecf 9f3d e175 b03c 80b7 c1bb
000002d0: 8142 c4bd f53a 363e 5fd4 67bc ed53 b53c
000002e0: f502 18bd ab79 8f3d d706 f2bc 3cd3 3c3d
000002f0: 585b 573d 630c 88bd 5783 ee3d 12df 223e
00000300: 46da f73d c740 973d 0be4 b03d 4251 0c3e
00000310: a396 843d 57b2 8a3d dba7 c5bd 450c 09bb
00000320: 88d8 063d 553e 033d d561 ce3d 3a6d 2abd
00000330: 2d82 0e3d e35e 2cbe 3b6f e73d 8c61 c23d
00000340: 4c7a edbc e30d 493e 808b debc afab 04be
00000350: 8e37 fd3d 60aa 00bd b4e2 ddbd c8dd 8c3d
00000360: bd21 9fbd 4e81 fcbd 8d54 ab3c adb6 923d
00000370: 9c69 ec3c 384e 233e 4c74 3cbd 2408 25bd
00000380: 0cf9 37bc d1ab f6bd 1c64 913d 2958 09bc
00000390: 70bb 8dbd 114d 1dbd c059 be3d 94f1 87bb
000003a0: de30 05be eef9 f53d a2ad fc3c ac5b 0a3e
000003b0: f322 b8bd 41f4 5c3d fa8b 94ba de4f dbbd
000003c0: 286e 46bd 95c1 c23b 5f76 98bd 485c 633d
000003d0: 4187 d7bd a32a 07bd 8ba7 55bc 31ff 8a3d
000003e0: 4502 863c e353 153d 141c 923c dc8f bd3c
000003f0: 509e 103d 22db f83d 07ea 13be dab7 663d
-0.12567063 -0.080474965 -0.14269271 0.10028025 0.07087386 0.15402168 0.07853502 -0.12116765
0.14669514 -0.09462215 -0.064823195 0.076130584 0.0054728957 0.10776683 0.038730316 -0.036554847
0.052348427 -0.038581878 0.0026184015 -0.10707842 -0.037896458 -0.122767344 -0.033434186 0.028924948
-0.060510032 -0.091711864 -0.08505577 -0.06471881 0.034274757 0.053709872 0.090499185 0.021949053
0.009902789 0.019343438 -0.030875072 -0.024231408 0.010560518 -0.1570074 -0.02850872 -0.14063743
0.015960338 0.029224552 0.01589173 0.03542702 -0.1449169 -0.030136658 0.10825995 -0.112359405
-0.09658008 -0.10333381 0.075431414 0.01932548 -0.019561032 0.048635364 -0.029068422 -0.104661904
-0.055476654 0.012227286 0.056849007 0.0058085807 0.09627695 0.038733315 -0.11011654 0.002075577
0.07997095 -0.13787368 -0.10781178 -0.078815535 0.1125253 0.056484066 0.04124868 -0.06244025
-0.02364719 -0.07741692 0.022808371 0.026403435 -0.019628506 0.078241035 0.12022248 0.014174173
0.13264014 0.005869375 0.15672033 -0.118306294 -0.06949005 0.009801142 -0.08943005 -0.01919302
-0.087660626 0.06354645 0.09249361 -0.029782332 -0.10336244 0.12444338 0.057711173 -0.05615637
-0.10252934 0.004979695 0.11433904 0.016373407 -0.061100602 -0.116912015 0.0045946604 0.080651425
0.089206636 0.037597515 -0.028185133 0.018248554 0.04585918 -0.010084463 0.067229 0.04857081
0.06632689 -0.066355236 -0.09257467 -0.005901046 0.0065024197 -0.0069646044 0.04663331 -0.016089428
0.08983547 -0.02205703 0.062769674 0.027165458 0.05906312 -0.066120066 -0.15481044 0.04032513
0.055289593 0.0069942083 0.059281927 -0.026602454 0.04686762 -0.114070244 0.09291436 -0.03864876
0.031561706 -0.07972899 0.0017408021 0.15509336 -0.015060373 -0.072558716 -0.0068418053 0.04218183
0.117006525 -0.049999923 -0.07566432 0.047862172 0.040618245 0.04751511 0.09965258 -0.04772856
0.033085864 -0.06498997 -0.114778325 0.1139665 0.07446241 0.05401681 0.033752203 0.040067848
-0.041244086 0.012379204 -0.103042364 0.10145068 -0.012515986 -0.13200213 -0.069668874 0.10275729
-0.03714114 -0.06737623 -0.0029266926 -0.13845229 7.318283e-05 0.1358567 0.113446295 -0.037070017
0.06525073 0.07803224 0.021540584 -0.0059117675 -0.09582997 0.17795928 -0.014149754 0.022134745
-0.037112195 0.07005628 -0.029544277 0.046099886 0.052577347 -0.066429876 0.11646145 0.15905407
0.12102179 0.07385402 0.08637246 0.13702872 0.06474044 0.06772297 -0.096511565 -0.0020911854
0.032921344 0.032041866 0.10077254 -0.041608073 0.034792114 -0.16833071 0.113005124 0.09491262
-0.02898898 0.19634204 -0.027166128 -0.12956117 0.12364112 -0.031412482 -0.10834256 0.06878239
-0.07770107 -0.123293504 0.02091434 0.07163749 0.028858952 0.15947807 -0.046009347 -0.040290967
-0.011228811 -0.1204449 0.070991725 -0.008382835 -0.069205165 -0.038403574 0.09294462 -0.0041486714
-0.13006923 0.12010561 0.030844513 0.13511533 -0.08991041 0.053943876 -0.001133322 -0.10708593
-0.048444897 0.005943487 -0.074444525 0.055507928 -0.105238445 -0.032999646 -0.013040434 0.06786955
0.016358504 0.036456954 0.017835654 0.023139887 0.03530723 0.12151171 -0.14444743 0.05632768

lstm.weight_hh_l1 f4 [256, 64]
00000000: 807f 293d ca5f 09be a816 593d c95a 8e3d
00000010: f658 a1bd 552c d8bd e6b0 773d b6d7 233d
00000020: 15b5 a53d 9565 fbbc e6af 1c3e 2a88 083d
00000030: c0d3 8cbc 7aad 4e3c e136 c23c 3702 903b
00000040: 86e9 db3d bd1e 48bc 76be cd3d 27af a3b9
00000050: 47f6 24bd fddd 933d be1d 85bd 250e adbd
00000060: 8560 b0bc 6bd5 4dbd 2f2c 983a c6a4 a8bd
00000070: a0c4 9a3d 2661 99bd 145f e33d c20a 8cbd
00000080: dec2 0fbc d6a9 c1bd c982 dc3d ab88 6dbd
00000090: afc8 8abd 5f0e 983d a19a 49bd 88c8 1e3d
000000a0: 4ab4 ca3d 9717 113d 5cf3 86bd 99e8 b9bc
000000b0: af97 27bd 36f0 19be 41fb d6bd 98bc e63b
000000c0: 3a48 3dbc 221d 523d f674 a03b b888 0ebe
000000d0: c097 c7bd 6955 063e 4ea0 873d 9be9 a33d
000000e0: c515 b6bd 8e7f d13c 83dc 0f3e 5273 a73d
000000f0: b080 273e 5795 d03d 3332 873d a562 113d
00000100: 9356 2d3c 41b0 1dbc 124a 873c ab86 5a3d
00000110: 8a1a ee3d e2cb f9bd ae93 af3b 36e3 1cbd
00000120: e89f 8cbd 86c3 acbd 60b7 1c3e 0305 d63b
00000130: 0d14 6dbd f85b ba3c 6333 3d3c 682a 183e
00000140: c079 97bd 9a66 79bc fee1 0bbd 163a a73c
00000150: 8a96 01be e91f aa3d d989 24bd 806b 55bd
00000160: 6989 c7bc f53c e5bc 709f b3bd 93e3 a13d
00000170: fddb 513d 441b a13c f782 f13d 4146 033e
00000180: 29b2 353d 0252 af3d 5a0f f73d e839 663c
00000190: 8113 c5bd bf25 bd3d f390 c93c abb4 1e3d
000001a0: 1553 c33d 9442 693d 20c5 343d 07ba f23d
000001b0: ba1d ce3d c572 6a3c d3d2 e53d f266 19be
000001c0: 2add b7bd e1fd d3bd 217b d03d 11d9 e3bc
000001d0: a2ff 7c3d de29 35bd b54c cb3c bb74 b73d
000001e0: 828e 81bc 560c b33d 580a 9a3d 0919 a2bd
000001f0: 6cfd 423d 8894 b3bd 26eb d13d 2825 0b3e
00000200: 6b8d 95bd 20b4 cdbc eac3 76bd b35d aabd
00000210: 359d bfbd 6bf6 d1bd b550 fdbc a355 08bd
00000220: ae49 cc3c ae29 84bd 06a6 a9bc 606a a43d
00000230: 545d ac3d c6f7 b3bd d2dc fe3c 5fa6 cbbd
00000240: e084 1bbe e02a 4d3d 72f1 1cbe b844 27bd
00000250: bafb 043e f1df c43d 7c47 9bbc 1a44 45bd
00000260: d9fa a33d f10b 27bd 320f ba3d ec7f 3a3d
00000270: ebc3 443e 7689 26be 62b0 ce3c be6e aa3d
00000280: 308c f83d b2f0 12be 825e 263e 2b95 c63b
00000290: 548d 013e ad25 7fbc 4602 eebc 2ed6 a3bd
000002a0: e275 4abd 6181 1b38 1b82 3bbd 4f2e 0dbc
000002b0: 11d0 58bd c528 28bd ccd6 3fbd fbc1 ac3d
000002c0: 8e46 893c c406 f3bc 961e 75bd 71b6 283c
000002d0: a589 babd ca9e ec3d 5da3 6e3d 9b4c 25bc
000002e0: 0fb0 33bd 5669 f3bd 19d2 873c f13c a33d
000002f0: 135c fb3d 62fa ed3d 27bb f23d 063d cd3b
00000300: f8d3 123d 58a9 5d3b 0475 0ebe 28b2 cebd
00000310: 0aeb 043d 9398 8d3c 5b22 bcbd 2d3a bf3d
00000320: 1167 8a3d ead9 a7bc 47b5 74bd 35f5 313d
00000330: 9de7 4c3d 0760 df3d ed01 20bd 2e17 123d
00000340: 0a16 77bc 5863 9fbc 52e2 a53d a6b8 90bd
00000350: b765 c7bd 4810 acbc 6bdd b9bc 2682 373d
00000360: a910 acbc e1f8 aabd ea2a a7bd 5f22 d3bd
00000370: ae5d 8bbd 9239 08bc 884f 633d aaf9 483e
00000380: 3930 1cbd efe6 393e 9a8d 153d 02de 81bd
00000390: 906c cdbd c6e4 a63c e3df 0f3d 307a d53d
000003a0: 1c29 69bd 475b c0bd 8333 403d 7a5e e8bd
000003b0: e5f2 713d b153 a8bd fd67 12bd abb0 cbbd
000003c0: 195e 103c f6fc 19bc 27fd 153d 1f09 febc
000003d0: fcf1 33bc a232 a0bc fef3 373d 9dab 74bd
000003e0: 1636 96bd dc77 c7ba dafa 07bc 17ac 8c3c
000003f0: e94c c1bb 891f fe3d 56b1 3f3d 5383 0b3e
0.04138136 -0.13415447 0.053000122 0.0695091 -0.07878296 -0.10555331 0.060471438 0.04000064
0.08091179 -0.030688087 0.15301475 0.03333298 -0.017190814 0.012614602 0.023707809 0.0043947953
0.107379004 -0.01221436 0.10046093 -0.0003122028 -0.04027393 0.07220075 -0.064998135 -0.084499635
-0.0215304 -0.05025236 0.0011609847 -0.08234553 0.075570345 -0.07489233 0.11102119 -0.068379894
-0.008774487 -0.09456222 0.10767133 -0.057991665 -0.067765586 0.07424616 -0.04921973 0.03876546
0.09897669 0.035422888 -0.06589386 -0.022693919 -0.04091614 -0.1503304 -0.10497142 0.007041525
-0.011552865 0.051297314 0.0048967553 -0.13919342 -0.09745741 0.13118519 0.066223726 0.08003541
-0.08890871 0.025573518 0.14048962 0.081762925 0.16357684 0.10184734 0.066013716 0.035494465
0.010579723 -0.009624542 0.016514812 0.053351086 0.11626156 -0.12197091 0.005358181 -0.038302623
-0.06866437 -0.08435731 0.15304327 0.006531359 -0.05788045 0.022748932 0.011547896 0.14859927
-0.07396269 -0.015222216 -0.03415107 0.02041344 -0.12655082 0.08306868 -0.040170524 -0.052104473
-0.024357514 -0.027983168 -0.08770645 0.079047345 0.051235188 0.019666322 0.11792558 0.12819768
0.04435936 0.085605636 0.12063475 0.014051892 -0.09622861 0.09235715 0.02460525 0.038746517
0.09537331 0.05694826 0.044133306 0.11851888 0.10064264 0.01430959 0.11221852 -0.14980677
-0.089777306 -0.10351158 0.10179735 -0.027813466 0.061767228 -0.04422938 0.02481685 0.089578114
-0.015815023 0.08742587 0.07521504 -0.07914931 0.047604963 -0.087685645 0.10249929 0.13588393
-0.07302364 -0.025110304 -0.060245432 -0.08318653 -0.09356157 -0.102520786 -0.030922273 -0.033284795
0.024937477 -0.06453262 -0.020709049 0.08028102 0.084162384 -0.087874934 0.031111155 -0.09943842
-0.15187407 0.050089717 -0.15326479 -0.04083702 0.12986651 0.09613026 -0.018954985 -0.04816065
0.0800683 -0.040782873 0.090849295 0.045532152 0.19215362 -0.16263375 0.02523059 0.08321904
0.12136114 -0.1434963 0.1624699 0.0060602627 0.12651569 -0.015572947 -0.029053818 -0.07999836
-0.049428828 3.7075373e-05 -0.045778375 -0.008616998 -0.052932803 -0.041054506 -0.046835706 0.08435436
0.016757276 -0.029666312 -0.059843622 0.010297404 -0.09108285 0.11553724 0.058261264 -0.010089065
-0.043869074 -0.118853256 0.016579675 0.07970608 0.12273421 0.11620022 0.11852103 0.006263378
0.03584668 0.003382286 -0.13911825 -0.10092574 0.032450713 0.017284667 -0.0918624 0.09337268
0.067579396 -0.020489652 -0.059743192 0.04344674 0.05002557 0.10906988 -0.039064337 0.035666637
-0.015080938 -0.01945655 0.08099808 -0.07066469 -0.097361974 -0.021003857 -0.022688588 0.044801854
-0.021004038 -0.08348251 -0.08162482 -0.1030929 -0.06804977 -0.008314507 0.05549577 0.1962649
-0.038131926 0.181545 0.036511995 -0.06341173 -0.10030472 0.02037276 0.035125624 0.10423696
-0.05692397 -0.0939241 0.046924125 -0.11346145 0.059069533 -0.08219088 -0.035743702 -0.09945806
0.008811497 -0.0093986895 0.036618378 -0.031010209 -0.010982987 -0.019555394 0.044910423 -0.059733976
-0.07334535 -0.0015218216 -0.008299554 0.017171903 -0.005899061 0.124083586 0.04679998 0.13624315

lstm.bias_ih_l1 f4 [256]
00000000: 136f 45bd 7b58 73bd e748 81bd b24f 20bd
00000010: b22a f9bd 90d8 a23c ebdc 92bd 258c 7d3d
00000020: 684c ca3d 2005 b83c 41de 01bd d980 fd3c
00000030: 4637 e63d e4af af3b 3ab5 41bd 5008 5c3d
00000040: b31f 1b3e 64cc 463d a2e3 a93d a4c1 89bd
00000050: f0fc 53bd 6081 393d 5b6f ac3d 6c0e 403d
00000060: e4b4 18bd 0769 fa3d 9500 da3d 2370 c7bc
00000070: 2a56 673c 7edb 253d 4c30 d7bc 4cec 993d
00000080: d46c 9dbc 4979 25bd 4665 903d e862 5c3d
00000090: 3d33 383c 6838 a4bd a5aa 983d a048 4c3c
000000a0: 5036 5abc d0d5 203d 585f e13d eae0 9d3c
000000b0: ddbe 78bd 5055 59bc 4ab4 e4bc 4959 103e
000000c0: 429b 613d 9622 b9bd df50 953c d8a7 febc
000000d0: a9bb 733d 04dc 0a3e 5bcf 32bd ea38 a8bd
000000e0: 9ef9 3b3d bf7f 0b3c 55c7 823d ac3d 3abd
000000f0: e4c5 023e b01a 933d a3e0 f33d 66be 9ebd
00000100: 7ece 523d da64 f13d 12f5 adbc 377f 803d
00000110: 8d98 aa3d ed46 e13d be83 773d 21b7 d03c
00000120: 9113 a73d 6f13 be3d bacf ba3d 1772 b03d
00000130: 1d97 86bd e88d 003e 90db ef3d 3217 df3d
00000140: 3828 263e 79b8 e23d 0cc6 e43d cbec b83d
00000150: 7163 643d b358 003e c046 e13b b0fb c63d
00000160: 63c9 0d3e c279 ab3d 9e57 913c 1b81 293d
00000170: 8a44 ce3d 3b2b 0c3e 8ff4 61bc 120c b63d
00000180: c4eb 0e3c 1692 17bd ee43 013e 97ad e03d
00000190: c6ce 953c a4c8 e73d 7b30 fabd 7a46 6c3d
000001a0: 070d d53d 045c 803c e424 c43d a1a9 1f3c
000001b0: f937 663c b8c4 ae3d 2f8b 503c e34b 803d
000001c0: f6e7 76bd 36f5 82bd 2ab6 043e 7712 ff3d
000001d0: 826e 47bd b1f4 2e3d e3ed d5bc f345 aabd
000001e0: b9c8 f23b f3a8 ddbc a67a 3dbd ad86 193e
000001f0: eeac 40bd a992 86bd a6fb c83d 64eb ffbc
00000200: 3abf 993d d753 e63c d79f c73d 9738 9abd
00000210: 87fe 5dbd eaa4 51bd 47d7 103e 85a0 82bd
00000220: 2dce b43d 0e4b 773d 2b50 edbd bd18 b63d
00000230: f438 fb3d c6bb b6bd 9192 2e3d 75c1 30bd
00000240: 4de7 b5bd 92ea 3e3d e0d0 743d 2b32 3e3d
00000250: d989 27bd c75b c1bd 78d8 17bd 125e f1bc
00000260: de9e febc f49a 6e3d 8190 2dbc 3304 c3bd
00000270: bc69 24bd 1a43 623d a97f a63d ceb5 d53d
00000280: 97c3 e73c 2b14 d63d 52ae 633d f0c6 60bd
00000290: 1c8d 59bd c320 c83d df82 7f3d aebd b8bd
000002a0: 121a a53d 3b92 b7bc d3a4 dbbd 81e2 1b3d
000002b0: f578 923c 4971 dcbd ced8 69bc bb92 3c3d
000002c0: 2494 be3b c7ed 17bc 0628 bc3d 8434 bbbd
000002d0: c026 03bd 1242 003e dc21 9c3c 774b a2bc
000002e0: 55f0 c53d f842 9bbd f749 733d 5e1a eebd
000002f0: 5dc2 71bd 892c 8bbd 1f88 e83d 6dd7 5abd
00000300: e9c8 283e 481d db3d e26f d23d 84ef a33d
00000310: 29c1 c93d 7794 a2bd b5d3 a9bd 69bf e53d
00000320: e419 0e3e 72b3 e63b a1da 873d 4142 853d
00000330: f0c9 893d cb27 603d fa01 133e eecc ce3c
00000340: 1e71 71bd c100 84bc f421 a3bd c9bc 02bd
00000350: 329f 64bd ce21 6c3d ff06 ab3d 8963 86bd
00000360: b6be 07bd cd32 a4bc 3e89 23bd ad27 82bd
00000370: c3e7 a43d 5685 e83d 5d75 30bd ac7c 8c3d
00000380: 828f c93d 006d af3d 453e fa3d 59b5 7e3d
00000390: cb98 e43c ab61 cd3d 2206 45bd e555 133e
000003a0: 61b6 413d 4dd8 7e3d a3ab d4bc 527e 84bd
000003b0: 8716 99bd 6095 103d 2363 7fbd 286c ba3c
000003c0: 1c02 ed3d 679b bf3d a1c6 df3d 63a8 f8bc
000003d0: fe2b a43b 64ab 313e 136e 95bd 7714 973d
000003e0: 5546 1a3d 99d0 243e 108d 29bd 19a4 113e
000003f0: a8e3 39bc 8486 d0bd 184d 71bc fb8b 12bd
-0.04820163 -0.059410553 -0.06312733 -0.039138503 -0.121663466 0.019878656 -0.07171043 0.06190123
0.098778546 0.022463381 -0.0317061 0.030945228 0.11241011 0.005361544 -0.04729197 0.053718865
0.15148811 0.048534766 0.08295371 -0.06726387 -0.051754892 0.045289397 0.08419677 0.046888754
-0.037281886 0.122270636 0.10644642 -0.024345463 0.014119664 0.040492527 -0.026268147 0.07515773
-0.019216932 -0.04039887 0.070505664 0.05380526 0.011242685 -0.08018571 0.07454423 0.012468487
-0.013318613 0.039266407 0.110045135 0.019272286 -0.060728896 -0.013264969 -0.027918 0.1409656
0.055079706 -0.090398 0.018227039 -0.031085894 0.05950514 0.13560492 -0.04365478 -0.082139805
0.04589235 0.008514344 0.06385676 -0.04546897 0.12770802 0.071828246 0.119080804 -0.07751159
0.051466458 0.11786814 -0.021235023 0.06274264 0.08329878 0.10999856 0.060428374 0.025477948
0.08158029 0.092810504 0.09121652 0.08615511 -0.06571791 0.12554133 0.117118 0.10893096
0.1622628 0.110703416 0.11170587 0.0902954 0.055758897 0.12533836 0.006874889 0.09715974
0.13846354 0.08372833 0.017741974 0.04138289 0.100716665 0.13688366 -0.0137912175 0.08889021
0.008723203 -0.037004553 0.1262357 0.1097061 0.018287074 0.11317566 -0.12216278 0.0576844
0.104028754 0.015668876 0.09577349 0.0097450325 0.014051431 0.08533615 0.012728496 0.06264474
-0.06027981 -0.063944265 0.12960115 0.12454694 -0.048689373 0.042713825 -0.02611441 -0.08314123
0.007409182 -0.0270581 -0.046259545 0.14992781 -0.04703992 -0.06570942 0.09813623 -0.031240173
0.07507177 0.02811615 0.09747284 -0.07530325 -0.054197814 -0.051182665 0.14144622 -0.06378273
0.088283874 0.060374312 -0.115875565 0.08891437 0.12266722 -0.08922534 0.042620245 -0.043153245
-0.08882008 0.046610422 0.05976951 0.046434563 -0.040902946 -0.09441333 -0.037071675 -0.029463802
-0.031081613 0.058253244 -0.010593534 -0.09522285 -0.0401399 0.055239774 0.08129818 0.10435067
0.028291507 0.104530655 0.055586167 -0.05487722 -0.053113088 0.09771874 0.062380668 -0.090205535
0.08061613 -0.022408595 -0.10724797 0.038057808 0.017879942 -0.10763795 -0.014272882 0.04603837
0.0058159996 -0.009272999 0.09187321 -0.09140876 -0.032019377 0.12525204 0.019059114 -0.019811375
0.0966498 -0.07581133 0.05939671 -0.11626123 -0.05902325 -0.06795604 0.11354088 -0.053428102
0.16482891 0.10698944 0.10275246 0.08004668 0.098512955 -0.07938474 -0.08292333 0.11218149
0.13877064 0.0070404345 0.06633497 0.065067776 0.0672797 0.05472545 0.14356223 0.025244202
-0.058945768 -0.01611364 -0.079654604 -0.03191832 -0.055815883 0.057649426 0.08350944 -0.065619536
-0.03314086 -0.020043755 -0.039925806 -0.06355224 0.080520175 0.11353557 -0.043080676 0.06859717
0.09841825 0.08565712 0.12218908 0.062184665 0.027904889 0.10028394 -0.04810155 0.14388235
0.04729307 0.062218 -0.025960749 -0.06469406 -0.07475 0.035298705 -0.062350404 0.022756651
0.11572668 0.093558125 0.10926557 -0.03035373 0.005010127 0.17350537 -0.072963856 0.0737695
0.03766473 0.16095199 -0.041394293 0.14222755 -0.011345781 -0.10181907 -0.014727853 -0.035778027
