RNNmodel.pth (torch, 218438 bytes, 10 tensors)

lstm.weight_ih_l0 f4 [256, 13]
-0.09720893 -0.025926884 0.028213054 -0.095467016 0.11543536 0.009557068 -0.056112945 0.03590338
-0.07576886 0.018080428 0.015255928 0.09434968 -0.042070746 0.0023444237 0.0003382552 -0.06510085
0.01791444 -0.049241114 -0.020569922 0.0595057 -0.13415718 0.05730556 0.07671691 0.084439434
0.02215112 -0.037595585 0.0065268083 0.023156624 -0.0013274273 0.1429222 -0.02076593 -0.020504892
-0.014779243 -0.07393647 -0.13178134 -0.018500563 0.03262798 -0.06829679 0.100763425 -0.056000058
0.032416847 -0.054301947 -0.114926875 -0.09817219 0.017317906 -0.069722824 0.07502597 -0.12560591
0.09641886 0.085472286 -0.030353902 -0.06408087 -0.053992786 -0.02724588 -0.028736506 0.058573037
-0.099974334 -0.0586226 0.06076637 -0.044526793 -0.06513236 -0.11735799 0.024233148 0.068481706
-0.065784544 -0.017071985 0.10461533 -0.026941204 -0.04007285 -0.014951321 -0.12466732 -0.02395445
0.03139214 -0.11689759 -0.02271529 -0.07159279 0.041757282 -0.02468965 -0.03299412 0.090044655
-0.060541928 -0.10390718 0.09888588 0.11243725 -0.102830976 0.061359446 0.046056252 0.02651538
0.066736385 -0.06053195 -0.0056008385 0.107634135 0.0070647583 -0.08592046 -0.029985327 -0.055121154
-0.028182443 0.024057964 0.112518206 -0.08605668 -0.026894089 -0.031042881 -0.040172163 0.006672614
0.06954956 0.07007767 -0.021261122 -0.10122303 0.060171705 -0.021608306 -0.022514751 0.06740304
-0.037047386 -0.08787286 0.041698024 0.019536477 0.056940522 -0.044218436 0.10360297 0.04190206
-0.07291648 0.09520683 -0.07192952 0.040004592 0.065193884 0.04616359 0.041615512 -0.048883226
0.035611823 0.117780134 0.11693172 0.039465547 0.05712454 -0.11360267 0.031506255 -0.11768782
-0.06355074 0.08488515 0.066479415 -0.020257995 -0.05384767 -0.0226828 0.077885106 -0.019718846
0.041768022 0.025760174 0.044996824 0.057779822 -0.040544767 0.01753116 -0.04274826 -0.018664064
-0.11150701 0.0006794396 0.029873561 0.095800884 -0.11372538 0.022490647 0.033090036 -0.02927209
-0.11448223 -0.06400816 0.07776802 -0.09006922 -0.11360839 0.08334861 0.015878977 -0.009302437
-0.05658159 -0.0064293863 -0.1006977 0.05070043 -0.049539663 0.03741826 0.06759664 0.040012363
-0.02136656 0.012845958 0.08933161 0.11002586 -0.11953541 -0.085746326 -0.04608951 0.022293735
-0.09865276 -0.0635712 -0.106054075 0.03614342 0.088127434 -0.08666789 -0.026007626 -0.061216414
0.07210901 0.0993787 -0.048075177 -0.034629 -0.07833536 0.016896687 -0.09673518 -0.008237796
0.06380079 0.04375039 -0.00015097283 -0.031006757 -0.009010569 -0.011979696 -0.02803133 0.095054924
0.09168878 0.13102184 0.08483908 -0.08195974 -0.067750074 -0.10151076 0.10861149 -0.021258626
0.016113201 -0.018737717 0.023681086 -0.08265488 -0.10547896 -0.012879072 0.05674653 0.07319783
0.08544324 -0.0447272 -0.08086977 0.09868396 -0.109137274 -0.019078407 0.0017770904 0.098018534
0.07438312 -0.02150152 -0.022421151 -0.038862616 0.0423662 0.06580596 -0.12569158 0.064090684
0.047872588 -0.037775613 0.037542038 0.12341171 -0.05624398 -0.04364905 -0.13076305 0.08588528
-0.06998629 -0.09588136 -0.116494775 -0.07363503 0.092916906 -0.032211438 0.016718045 0.09970443
00000000: 7a15 c7bd 9e64 d4bc 101f e73c 3684 c3bd
00000010: 6069 ec3d 4095 1c3c b0d6 65bd 6c0f 133d
00000020: b42c 9bbd 681d 943c 00f4 793c 683a c13d
00000030: 6052 2cbd e7a4 193b d857 b139 9853 85bd
00000040: 4ec1 923c 0db1 49bd 4182 a8bc 40bc 733d
00000050: 8060 09be 3cb9 6a3d c11d 9d3d 95ee ac3d
00000060: 4476 b53c d4fd 19bd d6de d53b f6b2 bd3c
00000070: 12fd adba 325a 123e 501d aabc e0f9 a7bc
00000080: a324 72bc 016c 97bd b0f1 06be 7e8e 97bc
00000090: eba4 053d 30df 8bbd 0e5d ce3d 5160 65bd
000000a0: 87c7 043d b86b 5ebd c85e ebbd 800e c9bd
000000b0: 48de 8d3c d7ca 8ebd 37a7 993d d69e 00be
000000c0: 4077 c53d 180c af3d bfa8 f8bc d53c 83bd
000000d0: 8a27 5dbd c032 dfbc d268 ebbc 48ea 6f3d
000000e0: 58bf ccbd 401e 70bd 28e6 783d ba61 36bd
000000f0: 1d64 85bd 6359 f0bd 9884 c63c 2340 8c3d
00000100: 0cba 86bd 8cda 8bbc 9040 d63d cdb3 dcbc
00000110: 6e23 24bd 63f6 74bc 9451 ffbd 1f3c c4bc
00000120: 0b95 003d 0168 efbd 6a15 babc 3e9f 92bd
00000130: af09 2b3d f341 cabc d824 07bd 5569 b83d
00000140: d0fa 77bd 4acd d4bd ae84 ca3d 8045 e63d
00000150: 0c99 d2bd 0b54 7b3d 7ba5 3c3d c836 d93c
00000160: 16ad 883d 5af0 77bd 3d87 b7bb 496f dc3d
00000170: 7d7f e73b 11f7 afbd caa3 f5bc b8c6 61bd
00000180: dede e6bc 3515 c53c f26f e63d 7c3e b0bd
00000190: fe50 dcbc a44d febc 918b 24bd f1a5 da3b
000001a0: 0070 8e3d e284 8f3d ce2b aebc 054e cfbd
000001b0: 9b76 763d e703 b1bc db70 b8bc 9b0a 8a3d
000001c0: 00bf 17bd b0f6 b3bd 8ccb 2a3d f60a a03c
000001d0: 773a 693d 641e 35bd cb2d d43d 7fa1 2b3d
000001e0: 3c55 95bd ccfb c23d c94f 93bd dbdb 233d
000001f0: 5f84 853d 0816 3d3d 0775 2a3d c739 48bd
00000200: b4dd 113d b636 f13d e679 ef3d a0a6 213d
00000210: 6cfb 693d 84a8 e8bd b40c 013d 5006 f1bd
00000220: e426 82bd 44d8 ad3d 5c26 883d 18f4 a5bc
00000230: 608f 5cbd 48d1 b9bc 3a82 9f3d 6b89 a1bc
00000240: f214 2b3d 0007 d33c 974e 383d 89aa 6c3d
00000250: 4512 26bd 829d 8f3c cd18 2fbd 61e5 98bc
00000260: ca5d e4bd 6b1c 323a 66b9 f43c 4133 c43d
00000270: dae8 e8bd 4e3e b83c 6b89 073d 06cc efbc
00000280: a975 eabd b616 83bd d744 9f3d 3676 b8bd
00000290: 84ab e8bd adb2 aa3d a114 823c 4069 18bc
000002a0: 19c2 67bd 9aad d2bb 993a cebd 41ab 4f3d
000002b0: 1aea 4abd e443 193d 1b70 8a3d 01e4 233d
000002c0: ed08 afbc da77 523c 7ef3 b63d 3d55 e13d
000002d0: fbce f4bd c59b afbd 5bc8 3cbd 5aa1 b63c
000002e0: 750a cabd 9e31 82bd e132 d9bd 1f0b 143d
000002f0: 287c b43d ef7e b1bd f20d d5bc 10be 7abd
00000300: e3ad 933d 0f87 cb3d 7aea 44bd 23d7 0dbd
00000310: 4a6e a0bd ec6a 8a3c 181d c6bd d2f7 06bc
00000320: fda9 823d 9c33 333d 764e 1eb9 e201 febc
00000330: 11a1 13bc 7d46 44bc f6a1 e5bc 28ac c23d
00000340: 54c7 bb3d 972a 063e 1dc0 ad3d 82da a7bd
00000350: 8dc0 8abd e0e4 cfbd b36f de3d 9226 aebc
00000360: d5ff 833c d77f 99bc d6fe c13c f646 a9bd
00000370: 5a05 d8bd be02 53bc 0d6f 683d bee8 953d
00000380: defc ae3d de33 37bd 0d9f a5bd d11a ca3d
00000390: 5d83 dfbd 524a 9cbc 42ed e83a f1bd c83d
000003a0: 2d56 983d f523 b0bc 90ac b7bc 682e 1fbd
000003b0: 2e88 2d3d 46c5 863d 4bb5 00be fa41 833d
000003c0: 0c16 443d 9aba 1abd aec5 193d 47bf fc3d
000003d0: 1660 66bd 59c9 32bd c0e6 05be 9fe4 af3d
000003e0: f954 8fbd 725d c4bd d094 eebd f6cd 96bd
000003f0: 384b be3d 24f0 03bd 48f4 883c d631 cc3d

lstm.weight_hh_l0 f4 [256, 64]
0.06877479 0.103661016 -0.0138309 -0.044227585 0.094372675 0.010694176 -0.05860667 -0.07976107
-0.10434149 -0.026878446 -0.01637724 0.10331166 -0.043138295 -0.111186296 0.12371768 0.029636487
-0.04363811 -0.036537036 0.10372242 -0.10323085 0.10076843 0.0012034327 -0.10240632 -0.08733556
-0.040895894 -0.068073064 -0.014738843 -0.09589717 -0.034660146 -0.02226086 -0.0070183426 -0.09681675
-0.04347822 -0.076368526 -0.027639702 -0.0011022538 0.07685655 0.023327082 0.065856114 -0.08199562
-0.09806915 0.04847592 -0.0046333373 0.023615062 0.08439538 -0.044988513 -0.035527766 0.05978827
-0.07857905 -0.098572865 -0.050657943 0.07619305 -0.013485238 -0.026339889 -0.10573807 0.07755731
-0.049998686 -0.02978462 0.017328188 -0.10024625 0.11576006 -0.017483443 -0.0029957592 -0.07590249
0.09823575 0.0024820287 0.09771002 0.121670604 0.012604323 0.11386784 0.042067524 -0.016875971
-0.074368015 0.023499243 -0.06516491 0.04194049 0.056007486 -0.091842934 0.040533066 0.119975716
-0.038926505 -0.054798823 0.10296279 -0.081186384 -0.12425812 -0.055184267 0.09927997 0.116971046
-0.057379726 0.025491778 -0.092465304 -0.108947866 -0.10530916 -0.042270735 -0.033704624 0.065686435
0.053036295 0.03469221 -0.040843774 -0.08441121 0.004083441 -0.080760494 0.109461665 -0.07673698
0.075376906 -0.014508914 -0.10885921 0.11871824 -0.084626615 0.102374434 -0.03161186 0.020463616
0.09024453 0.048770145 0.00084894156 -0.1240891 -0.08338513 -0.019018391 -0.04061261 -0.06255817
0.089170754 0.058711812 -0.10256267 -0.09609039 -0.11071539 -0.04505634 -0.0179903 -0.016419904
0.06529563 -0.009886857 -0.08787637 -0.09030851 0.0733886 0.07448263 0.071180716 0.11571635
0.03711377 0.008656859 -0.011232287 0.04196632 -0.004692253 0.089960225 0.117668666 -0.047350608
0.013346608 0.14313336 -0.04011235 0.06186664 -0.124480136 -0.0115781 -0.10754139 -0.11681561
0.021492088 -0.071647435 0.034004584 0.102461666 0.0975419 0.10022288 -0.10390225 0.056197666
-0.022296496 0.06498334 -0.10065375 -0.10943696 -0.0909341 0.09087528 -0.12501642 0.023876645
-0.11094227 -0.100833796 -0.0531068 0.052957922 0.1302764 -0.08239807 0.02327031 0.1147681
0.11439238 -0.040776774 0.11803333 -0.1157966 0.09474659 -0.0010042657 0.0045688925 0.03225716
-0.030803496 0.088543795 0.023943625 0.09262738 0.028818876 -0.051529706 -0.022418424 0.100721344
-0.03437011 0.12248053 0.06230729 -0.01294552 0.0017691808 -0.122744136 -0.07260419 -0.11149551
-0.07918699 0.10829043 -0.004938692 -0.07972687 0.029529942 -0.0927334 -0.035418153 0.079239145
0.06563452 -0.0737986 0.08480884 -0.030742511 0.0019491405 -0.051922172 0.032601915 0.055242732
0.048782244 -0.054884527 0.04297739 -0.12322201 0.014792339 0.037270986 0.017102322 0.1039297
0.07644591 -0.11366008 0.04310052 0.0010752827 -0.067288965 -0.054589227 -0.09770526 -0.0069841803
0.043893874 -0.092069566 -0.050475463 0.098292924 0.021224257 -0.016270041 0.10709083 -0.084006056
-0.11149884 -0.05219512 -0.047851823 -0.012008219 -0.045741796 0.024120197 -0.07178937 0.020075336
-0.061112966 -0.029988268 -0.024314607 0.04565227 -0.07811965 -0.124813 0.025754303 -0.09038025
00000000: ccd9 8c3d 3a4c d43d 009b 62bc fc27 35bd
00000010: 7646 c13d a036 2f3c 8c0d 70bd c659 a3bd
00000020: feb0 d5bd 3030 dcbc 9029 86bc 1095 d33d
00000030: c8b1 30bd a4b5 e3bd b25f fd3d 38c8 f23c
00000040: e0bd 32bd dca7 15bd 6c6c d43d b26a d3bd
00000050: ae5f ce3d 80bc 9d3a 68ba d1bd fcdc b2bd
00000060: 7482 27bd e469 8bbd 307b 71bc bc65 c4bd
00000070: ccf7 0dbd 685c b6bc 20fa e5bb dc47 c6bd
00000080: 3816 32bd 1a67 9cbd a86c e2bc 8079 90ba
00000090: f866 9d3d 7018 bf3c 92df 863d 52ed a7bd
000000a0: 7ad8 c8bd b08e 463d 40d3 97bb 6074 c13c
000000b0: 7cd7 ac3d e045 38bd 9085 11bd 8ce4 743d
000000c0: 0eee a0bd 92e0 c9bd b47e 4fbd 1a0b 9c3d
000000d0: 30f1 5cbc c0c6 d7bc 348d d8bd 5ed6 9e3d
000000e0: 6ccb 4cbd e0fe f3bc d8f3 8d3c e84d cdbd
000000f0: 9c13 ed3d 7039 8fbc 8054 44bb c472 9bbd
00000100: d32f c93d 88a9 223b 311c c83d 702e f93d
00000110: 5d82 4e3c 8b33 e93d ff4e 2c3d 7a3f 8abc
00000120: 424e 98bd 7c81 c03c 2e75 85bd cbc9 2b3d
00000130: 1b68 653d 2618 bcbd 0006 263d d4b5 f53d
00000140: 6671 1fbd bb74 60bd 28de d23d 0c45 a6bd
00000150: 0b7b febd e608 62bd 4c53 cb3d 848e ef3d
00000160: 0107 6bbd 22d4 d03c 735e bdbd 0f20 dfbd
00000170: 54ac d7bd 1424 2dbd dc0d 0abd 9c86 863d
00000180: 963c 593d 6b19 0e3d cd4b 27bd c9df acbd
00000190: 63ce 853b c265 a5bd 702d e03d 4728 9dbd
000001a0: 355f 9a3d ccb6 6dbc 94f1 debd 8c22 f33d
000001b0: b850 adbd b0a9 d13d 707b 01bd 50a3 a73c
000001c0: 20d2 b83d 34c3 473d 818b 5e3a 6d22 febd
000001d0: d3c5 aabd 75cc 9bbc 6859 26bd 7f1e 80bd
000001e0: 289f b63d cc7b 703d 610c d2bd 0acb c4bd
000001f0: c0be e2bd ff8c 38bd 6560 93bc 0983 86bc
00000200: b7b9 853d 7cfc 21bc 87f8 b3bd abf3 b8bd
00000210: c34c 963d 598a 983d 32c7 913d b2fc ec3d
00000220: 9c04 183d 80d5 0d3c a007 38bc e0e4 2b3d
00000230: 79c1 99bb 113d b83d 45fc f03d b6f2 41bd
00000240: bbab 5a3c 8d91 123e d94c 24bd e067 7d3d
00000250: 71ef febd 12b2 3dbc a93e dcbd 063d efbd
00000260: 2d10 b03c e4bb 92bd 6448 0b3d 6cd7 d13d
00000270: 0cc4 c73d a741 cd3d b4ca d4bd 862f 663d
00000280: 24a7 b6bc fc15 853d 8e23 cebd 7c20 e0bd
00000290: a83b babd d21c ba3d 4e04 00be f498 c33c
000002a0: b335 e3bd f381 cebd 8486 59bd 68ea 583d
000002b0: 2d67 053e 52c0 a8bd 61a1 be3c 8a0b eb3d
000002c0: 8d46 ea3d 8c05 27bd 75bb f13d c526 edbd
000002d0: 800a c23d 91a1 83ba a6b6 953b 1520 043d
000002e0: 9d57 fcbc 7356 b53d 6c25 c43c 6cb3 bd3d
000002f0: 9015 ec3c d010 53bd d8a6 b7bc fe46 ce3d
00000300: acc7 0cbd 12d7 fa3d ee35 7f3d 7219 54bc
00000310: dbe3 e73a 4761 fbbd 81b1 94bd c257 e4bd
00000320: ca2c a2bd 5fc7 dd3d c0d4 a1bb d747 a3bd
00000330: c7e8 f13c 02eb bdbd a012 11bd 2248 a23d
00000340: 646b 863d b823 97bd 42b0 ad3d b8d7 fbbc
00000350: 4d7a ff3a 58ac 54bd 9689 053d 3446 623d
00000360: e4cf 473d 99ce 60bd 0f09 303d d25b fcbd
00000370: 915b 723c 76a9 183d 2b1a 8c3c 18d9 d43d
00000380: ac8f 9c3d 9ec6 e8bd 2c8a 303d 80f0 8c3a
00000390: ccce 89bd f498 5fbd b219 c8bd 8ddb e4bb
000003a0: 10ca 333d f88e bcbd 5cbf 4ebd cd4d c93d
000003b0: 7ede ad3c c048 85bc 7052 db3d 5e0b acbd
000003c0: 8159 e4bd 8dca 55bd 4600 44bd 1fbe 44bc
000003d0: c05b 3bbd b897 c53c 4e06 93bd 0875 a43c
000003e0: 9751 7abd f5a9 f5bc 6d2f c7bc e0fd 3a3d
000003f0: 32fd 9fbd f59d ffbd b0fa d23c 4819 b9bd

lstm.bias_ih_l0 f4 [256]
-0.023879707 -0.121182024 0.13853729 0.11135782 -0.05106334 0.02722156 0.09881109 0.060915727
-0.041980512 0.07366208 0.10255517 0.1105385 0.116749294 0.020407932 -0.0731673 0.0632394
-0.07432926 0.124759205 0.09105416 0.11279698 -0.12453216 -0.07588213 -0.020721808 0.033473074
-0.0040856963 -0.07285454 -0.06628947 -0.10333463 0.12332724 0.10269824 -0.035414446 -0.03658074
-0.07168223 0.023091124 0.034734253 0.10181028 0.07854891 0.09019399 0.035725094 0.10719645
-0.059474558 0.033880524 -0.016562581 0.011287635 0.036003605 0.0017731284 -0.12443855 0.006154156
-0.058212608 0.021058714 0.108283736 -0.102637075 -0.023635898 0.019761566 -0.09112307 -0.05529542
-0.03736869 0.105075076 0.10311305 0.10165429 0.12273179 -0.011108642 0.040744163 -0.11675073
-0.093130425 0.014917346 -0.08275182 0.069032066 -0.0090782065 0.10938724 0.020050503 -0.08357577
0.104040846 0.043095123 -0.11340611 -0.09748405 -0.037437756 0.100873336 0.14130491 -0.004642981
0.00047475082 0.06832901 -0.0740324 -0.11388828 0.078108884 0.06823258 -0.10001203 -0.07822113
0.0914519 -0.0031838755 0.06571089 0.006473452 0.04776804 0.01917796 0.105885275 -0.11274026
0.079252735 -0.03477376 0.072994426 -0.046926517 -0.0679032 -0.116298765 0.00487965 -0.031430196
-0.081858985 -0.08282305 -0.0063997805 0.07631105 0.03630371 0.12072928 0.051409267 -0.0868435
0.059266858 0.07747008 -0.034113336 -0.007930619 0.014764205 -0.00822298 -0.09181015 -0.045983255
0.06930279 0.10704367 0.06540589 -0.03387825 -0.031225681 0.11453854 -0.124343194 -0.037272867
-0.08103229 0.12598066 0.09786257 -0.06965716 -0.108764276 0.066505335 0.011306743 -0.11201082
0.03579405 0.024497434 0.021565184 0.12062547 -0.015156709 0.06863484 0.0044965 0.035382494
-0.08432191 -0.034614757 -0.120215766 0.016966164 -0.09536394 -0.124591656 0.027112115 -0.10746929
0.0555941 -0.019882286 -0.010009132 0.046374723 -0.011029543 -0.008026127 0.1031898 -0.119623646
-0.08266996 -0.03151007 0.12251874 -0.1143135 0.043039225 -0.033478588 0.07830769 -0.10059667
0.031767573 -0.115086235 -0.09358671 -0.014006854 0.034416787 -0.029697135 -0.025989555 -0.06767151
-0.009261076 -0.04718024 0.04074638 0.1103026 -0.013186753 0.09521186 -0.040826812 0.091688275
-0.059106607 -0.11789493 -0.013823718 0.095087394 -0.11682518 -0.012053672 0.028630883 0.03980665
-0.12472455 -0.05809637 0.1080311 -0.07149602 -0.061256666 -0.049119063 0.04298523 0.115708426
-0.07749477 -0.074239835 -0.075331494 0.05553527 -0.0026574524 0.1358277 -0.027445674 -0.08093774
-0.04817935 -0.09752775 0.054958165 0.07500984 -0.021741081 -0.05407584 -0.07043292 -0.11524151
0.13645995 -0.09926619 -0.0250886 0.100619726 -0.011690383 0.024538279 0.1095776 -0.110424116
0.122936964 0.048369054 -0.05028201 0.0983186 0.08045103 -0.06947174 0.035999153 -0.013621577
-0.036913447 0.08628706 -0.04045424 -0.08643112 -0.025969287 0.092222065 -0.065214366 -0.052310705
-0.11884988 0.007414611 0.12883909 -0.035390858 -0.020226762 -0.0731076 -0.03792131 0.10623954
-0.09469867 -0.028521935 -0.101787806 0.05485046 -0.05853814 -0.057407413 0.12371093 0.116083965
00000000: 609f c3bc 482e f8bd b8dc 0d3e 920f e43d
00000010: cb27 51bd c0ff de3c 785d ca3d c582 793d
00000020: c2f3 2bbd 25dc 963d 7208 d23d 0262 e23d
00000030: 411a ef3d 892e a73c bdd8 95bd a983 813d
00000040: f039 98bd c181 ff3d 9a7a ba3d 1a02 e73d
00000050: b80a ffbd 1768 9bbd c8c0 a9bc 101b 093d
00000060: 4ee1 85bb c334 95bd c6c2 87bd 1ba1 d3bd
00000070: fe92 fc3d 7453 d23d bd0e 11bd b0d5 15bd
00000080: 22ce 92bd 9929 bd3c 8145 0e3d e881 d03d
00000090: 40de a03d a0b7 b83d 7a54 123d d089 db3d
000000a0: 989b 73bd 4ec6 0a3d 40ae 87bc c6ef 383c
000000b0: 8478 133d 5168 e83a a3d9 febd cda8 c93b
000000c0: 5870 6ebd 5383 ac3c ddc3 dd3d 6333 d2bd
000000d0: 12a0 c1bc 02e3 a13c bb9e babd 737d 62bd
000000e0: e90f 19bd 9a31 d73d ef2c d33d 2030 d03d
000000f0: ce5a fb3d 0601 36bc 5ae3 263d 021b efbd
00000100: 2abb bebd e267 743c c979 a9bd af60 8d3d
00000110: c2bc 14bc 6b06 e03d f440 a43c c629 abbd
00000120: 5e13 d53d 8384 303d 7641 e8bd b8a5 c7bd
00000130: 5558 19bd ae96 ce3d 3cb2 103e 2624 98bb
00000140: fae7 f839 14f0 8b3d 4d9e 97bd 423e e9bd
00000150: 8df7 9f3d 86bd 8b3d 1bd3 ccbd 6632 a0bd
00000160: 224b bb3d 91a8 50bb 6e93 863d 401f d43b
00000170: 6ca8 433d 191b 9d3c 61da d83d 5ee4 e6bd
00000180: 424f a23d ee6e 0ebd 1a7e 953d 0536 40bd
00000190: d510 8bbd 0c2e eebd 79e5 9f3b f3bc 00bd
000001a0: afa5 a7bd 229f a9bd 40b5 d1bb f848 9c3d
000001b0: 33b3 143d ea40 f73d 8692 523d 01db b1bd
000001c0: cec1 723d a2a8 9e3d 6dba 0bbd 6def 01bc
000001d0: 90e5 713c aeb9 06bc f606 bcbd f058 3cbd
000001e0: 9fee 8d3d b639 db3d 86f3 853d ebc3 0abd
000001f0: 00cd ffbc 2f93 ea3d a5a7 febd 6fab 18bd
00000200: 42f4 a5bd 1301 013e 2c6c c83d 6aa8 8ebd
00000210: cebf debd f333 883d eb3f 393c ee65 e5bd
00000220: c89c 123d d8ae c83c 78a9 b03c 7d0a f73d
00000230: d853 78bc 6c90 8c3d 6057 933b 3ced 103d
00000240: f7b0 acbd 34c8 0dbd af33 f6bd a0fc 8a3c
00000250: 2b4e c3bd e929 ffbd 3a1a de3c dc18 dcbd
00000260: a4b6 633d 2de0 a2bc 58fd 23bc 6cf3 3d3d
00000270: 42b5 34bc 0480 03bc 2d55 d33d 3efd f4bd
00000280: de4e a9bd b410 01bd 1beb fa3d 321d eabd
00000290: e649 303d d820 09bd c85f a03d a005 cebd
000002a0: b71e 023d 55b2 ebbd 64aa bfbd 017d 65bc
000002b0: 9ef8 0c3d 6847 f3bc 0ce8 d4bc 5c97 8abd
000002c0: c5bb 17bc 1140 41bd ade5 263d 54e6 e13d
000002d0: 400d 58bc 70fe c23d 043a 27bd 10c7 bb3d
000002e0: c519 72bd e672 f1bd e07c 62bc 2ebd c23d
000002f0: 0a42 efbd c47c 45bc 508b ea3c 4c0c 233d
00000300: 966f ffbd 76f6 6dbd 693f dd3d 816c 92bd
00000310: 45e8 7abd 1231 49bd 4811 303d 8af8 ec3d
00000320: 94b5 9ebd 0e0b 98bd 6647 9abd f478 633d
00000330: a728 2ebb 6b16 0b3e c0d5 e0bc b0c2 a5bd
00000340: b657 45bd a1bc c7bd d01b 613d c29e 993d
00000350: 5a1a b2bc a17e 5dbd 223f 90bd be03 ecbd
00000360: 28bc 0b3e 124c cbbd 9c86 cdbc b711 ce3d
00000370: 0589 3fbc 8004 c93c 396a e03d 0a26 e2bd
00000380: 60c6 fb3d a11e 463d 82f4 4dbd 435b c93d
00000390: 82c3 a43d 3347 8ebd d973 133d 092d 5fbc
000003a0: 8e32 17bd 45b7 b03d 58b3 25bd cd02 b1bd
000003b0: 8bbd d4bc ecde bc3d 1c8f 85bd c043 56bd
000003c0: 9167 f3bd 44f6 f23b 65ee 033e 01f6 10bd
000003d0: 98b2 a5bc 70b9 95bd 6053 1bbd 1e94 d93d
000003e0: 60f1 c1bd d5a6 e9bc 2076 d0bd e0aa 603d
000003f0: b0c5 6fbd 0924 6bbd 285c fd3d 6ebd ed3d

lstm.bias_hh_l0 f4 [256]
-0.062286302 -0.10319591 -0.07226248 0.04285741 -0.05400381 0.08266225 -0.01896454 0.038820926
-0.04710666 -0.060035817 -0.11535911 -0.0069986084 0.024730032 0.09861118 0.08912293 0.11256125
0.028298778 0.07792894 0.029303875 0.09911235 0.10024236 0.038703553 -0.0069648013 -0.033520356
-0.013193938 -0.04554642 -0.058649242 -0.0155199 0.058303587 -0.09488736 -0.071223356 0.09189993
-0.00066335726 -0.057811994 -0.008439257 -0.010119133 0.04527519 -0.036377784 -0.08372374 0.11469895
0.06726809 0.07008438 -0.017718911 -0.022231534 0.0027856238 -0.07536362 -0.09934693 0.09805783
-0.063467875 0.028506821 -0.018355604 -0.070860945 0.06344267 -0.052006032 0.0234933 0.017806357
0.08881231 -0.046328828 -0.024270613 -0.046627745 -0.046732724 -0.03884797 0.079758644 -0.09770909
-0.03528884 0.055151183 0.05536924 -0.00060970406 0.09636882 0.061576527 0.113987856 -0.055307582
0.09937759 -0.03184982 -0.019940063 -0.07764906 -0.12004317 -0.09845734 0.08219444 0.0002097305
-0.104081884 -0.12312433 0.011564113 0.024821788 -0.10072318 -0.06184551 0.13464443 0.023349404
0.079475105 -0.05950723 -0.023889206 -0.043828547 0.03526464 0.009585949 0.09869913 0.07887919
0.076069 0.08686031 -0.10672444 -0.10835909 0.10957984 -0.00047105836 -0.01918811 0.0810227
0.0823363 0.001335755 0.0030644983 -0.0020251044 0.07932346 0.102531165 -0.079963855 -0.12087146
0.07420771 0.0140427295 -0.05617088 -0.11120797 -0.109147996 0.02935855 0.12291348 0.090357676
-0.107185185 -0.039376035 0.025644077 0.11201522 -0.025581405 -0.10409678 0.008068123 0.047600824
-0.067986056 -0.054947156 -0.117975205 -0.039406464 0.07924798 0.09025241 -0.12543507 0.026497155
-0.005277049 -0.057854906 -0.0029717088 -0.061754733 -0.035221048 0.103488564 0.09594171 0.062372014
0.0028148096 0.06778434 -0.05524323 0.093544245 -0.0021709688 -0.046864424 0.030142484 -0.050921872
-0.034491315 -0.069144934 -0.02731085 -0.10514809 0.12222897 -0.0022679155 -0.06816045 -0.10703465
-0.043467924 -0.08498636 0.041691817 -0.060371295 0.025794629 0.09221861 0.03874558 -0.117909744
-0.122167975 0.004504897 0.04997219 0.003246885 0.00025447668 -0.048207 -0.0015475965 0.019599108
0.06634605 0.08139563 0.054925907 -0.072558016 -0.07266295 -0.12057981 -0.049800128 0.03247425
-0.074212976 -0.11004484 -0.005118683 0.04422836 -0.017322496 -0.029375918 0.035248756 -0.014236882
0.07169312 -0.03745093 0.04084489 0.024543999 0.019978762 0.017877616 0.12996113 -0.036783878
-0.01069029 0.031209394 0.0021021962 0.063435234 -0.0495276 0.08874476 -0.080231406 -0.039734155
-0.009855164 0.10392075 -0.032910302 0.010964379 0.026222568 -0.05519994 0.08121142 0.08587006
0.046706956 0.03199213 0.05299495 0.0040727 0.08298004 0.025195792 0.12326627 0.055157464
0.019693762 0.014299747 -0.051758848 -0.061372932 -0.097445145 -0.103764065 0.010612735 -0.089671664
-0.072441354 -0.10865902 -0.111203074 -0.08164025 0.12455104 0.029920578 0.028931266 0.09462835
-0.028822444 0.025786415 -0.043578908 -0.08921855 -0.0026685656 -0.030087063 -0.06944384 0.064071074
-0.11889912 0.13056853 -0.01064052 0.0821371 -0.11986968 -0.0839116 0.119787395 0.05139872
00000000: ec1f 7fbd 6158 d3bd 5afe 93bd 408b 2f3d
00000010: 1933 5dbd d34a a93d 865b 9bbc b102 1f3d
00000020: eaf2 40bd 1ee8 75bd 6641 ecbd 9554 e5bb
00000030: a396 ca3c a9f4 c93d 1586 b63d 8386 e63d
00000040: d7d2 e73c 3599 9f3d ae0e f03c 6afb ca3d
00000050: de4b cd3d 9e87 1e3d fd38 e4bb a44c 09bd
00000060: 632b 58bc e28e 3abd 303a 70bd 2e47 7ebc
00000070: becf 6e3d 4e54 c2bd 8ddd 91bd 0836 bc3d
00000080: 27e5 2dba 45cc 6cbd cf44 0abc b8ca 25bc
00000090: 7a72 393d df00 15bd 5a77 abbd 48e7 ea3d
000000a0: dac3 893d 6688 8f3d 4027 91bc e81e b6bc
000000b0: 038f 363b 3e58 9abd 6776 cbbd 8bd2 c83d
000000c0: 72fb 81bd 2387 e93c 7e5e 96bc 8b1f 91bd
000000d0: 3bee 813d 4704 55bd 0575 c03c a3de 913c
000000e0: 3ae3 b53d 4cc3 3dbd 2ad3 c6bc bcfc 3ebd
000000f0: d06a 3fbd 0d1f 1fbd 8058 a33d b41b c8bd
00000100: 088b 10bd 35e6 613d dbca 623d 8cd4 1fba
00000110: 045d c53d ab37 7c3d 7772 e93d 348a 62bd
00000120: 7a86 cb3d f574 02bd 5859 a3bc 7806 9fbd
00000130: 32d9 f5bd 00a4 c9bd 8f55 a83d 1aeb 5b39
00000140: e228 d5bd 9c28 fcbd 6877 3d3c 1057 cb3c
00000150: f447 cebd b851 7dbd 3be0 093e 4047 bf3c
00000160: d8c3 a23d dabd 73bd 4cb3 c3bc 9085 33bd
00000170: a871 103d 620e 1d3c c522 ca3d 6a8b a13d
00000180: 10ca 9b3d d1e3 b13d 5892 dabd 5feb ddbd
00000190: 656b e03d 62f8 f6b9 6230 9dbc 3bef a53d
000001a0: ef9f a83d 8014 af3a c0d5 483b 9db7 04bb
000001b0: 5774 a23d dcfb d13d 17c4 a3bd 758b f7bd
000001c0: 36fa 973d 7a13 663c 7013 66bd 01c1 e3bd
000001d0: fc88 dfbd 5881 f03c 10ba fb3d 720d b93d
000001e0: e883 dbbd c448 21bd 8713 d23c 3c68 e53d
000001f0: 1890 d1bc b130 d5bd 2930 043c 15f9 423d
00000200: 463c 8bbd 4510 61bd fc9c f1bd ac68 21bd
00000210: c44c a23d 41d6 b83d 0d72 00be 9010 d93c
00000220: 18eb acbb 44f9 6cbd 00c1 42bb 88f2 7cbd
00000230: f243 10bd d0f1 d33d 167d c43d cc79 7f3d
00000240: ab78 383b 84d2 8a3d ba46 62bd 2094 bf3d
00000250: d046 0ebb e9f4 3fbd 5fed f63c 7493 50bd
00000260: c446 0dbd dc9b 8dbd 01bb dfbc e257 d7bd
00000270: 2f53 fa3d 4fa1 14bb b597 8bbd fc34 dbbd
00000280: 6c0b 32bd 540d aebd 0ac5 2a3d e447 77bd
00000290: 424f d33c 1cdd bc3d afb3 1e3d aa7a f1bd
000002a0: 3433 fabd d19d 933b a4af 4c3d b1c9 543b
000002b0: 486b 8539 b474 45bd b9d8 caba 4f8e a03c
000002c0: 70e0 873d c1b2 a63d fdf9 603d 4c99 94bd
000002d0: 50d0 94bd 8cf2 f6bd 38fb 4bbd b803 053d
000002e0: f9fc 97bd 305f e1bd a0ba a7bb cc28 353d
000002f0: e8e7 8dbc c4a5 f0bc 0061 103d d041 69bc
00000300: d8d3 923d 2566 19bd f94c 273d 7f10 c93c
00000310: 80aa a33c 1474 923c 8814 053e b1aa 16bd
00000320: 5326 2fbc d8aa ff3c 00c5 093b 55ea 813d
00000330: 74dd 4abd d0bf b53d 5d50 a4bd 48c0 22bd
00000340: 8e77 21bc 67d4 d43d f4cc 06bd f0a3 333c
00000350: b6d0 d63c 5519 62bd 2c52 a63d a4dc af3d
00000360: cb4f 3f3d 2e0a 033d 3c11 593d 4974 853b
00000370: 70f1 a93d 6867 ce3c 0773 fc3d cbec 613d
00000380: d054 a13c 7c49 6a3c 1601 54bd 2f62 7bbd
00000390: 5291 c7bd 4182 d4bd 09e1 2d3c c7a5 b7bd
000003a0: 225c 94bd 9f88 debd 70be e3bd 0133 a7bd
000003b0: 9e14 ff3d 001c f53c 4301 ed3c 82cc c13d
000003c0: 0c1d ecbc 083e d33c cc7f 32bd 37b8 b6bd
000003d0: 1ae3 2ebb 2579 f6bc 9238 8ebd b237 833d
000003e0: 6281 f3bd c2b3 053e 9355 2ebc 7f37 a83d
000003f0: 3c7e f5bd d8d9 abbd 1853 f53d 7787 523d

lstm.weight_ih_l1 f4 [256, 64]
0.0074949367 0.056244284 -0.028580848 -0.027159894 -0.11018673 -0.0031388705 -0.017291287 0.07716951
0.09245734 -0.02780026 -0.09958622 0.0928216 0.018391639 0.02402825 -0.042163834 0.10286717
-0.124141105 0.008132258 -0.094101824 -0.042985126 0.14071698 0.11959307 0.115329325 -0.03528285
-0.09775317 0.1138023 0.014609496 0.025943568 -0.025813606 -0.02102824 -0.026756922 -0.07366791
-0.10639964 0.06473266 0.012137461 -0.09823149 -0.081812724 0.11386581 0.04939879 0.05007791
-0.053639315 0.11686134 -0.01822579 0.09791469 0.056373175 -0.055514783 -0.09829771 -0.1010661
-0.103918985 0.11904635 -0.11863142 -0.04006419 -0.093712986 0.008612795 -0.06767735 0.046705607
0.010128118 -0.11157649 0.13443087 -0.01408987 0.02155444 -0.05872721 0.045837477 0.04586561
-0.02026172 -0.039542116 -0.0523337 0.07106606 -0.11000963 -0.0854997 0.116248466 -0.10778968
0.07553193 -0.086781256 0.05693239 -0.024370013 0.12664688 -0.07957561 0.038614023 0.12983583
0.07592622 -0.059422284 -0.028584454 -0.08657105 0.0065833316 0.09514833 -0.06289812 0.054519966
-0.055310056 0.017014693 -0.00010900764 -0.09852457 -0.08832115 -0.041678663 0.11883974 0.067217395
0.060178503 -0.10746526 0.056908622 -0.062293064 0.090950996 0.0151299955 -0.08115778 0.08596234
0.08346816 -0.07926391 0.004496038 0.12088541 -0.14384788 -0.03160818 0.086879894 0.09668748
-0.09322561 0.00090676465 0.0052918326 0.05341867 0.034791186 0.05723162 -0.02600817 -0.105943196
0.044028793 -0.09181056 0.06433558 -0.07665931 -0.0296603 -0.058134608 0.028999403 0.01889656
0.08347972 0.020381536 0.065762565 -0.031573314 -0.108979285 0.078378804 -0.09441138 -0.11873376
-0.11136085 0.100954056 -0.07438463 -0.008196474 0.09080306 -0.13118394 0.10907444 0.112132035
-0.10953496 -0.0944896 -0.1369113 -0.021110803 0.06891785 -0.012759644 0.096108206 -0.025897518
-0.037677415 -0.10377687 0.020606102 0.05384542 0.0063528237 0.1365421 0.063040644 0.098809786
0.06670159 0.019930396 -0.121809855 0.002330562 0.083099104 -0.085989006 -0.013209552 -0.058097996
0.0077368515 -0.03772883 -0.043539807 -0.08089051 0.08591747 -0.11304633 -0.08170496 -0.10406317
-0.055702157 0.032403603 -0.021043373 0.06632644 -0.06786093 -0.026917275 0.08270109 0.06009632
0.09910889 0.026286218 -0.07447995 0.030671744 0.07974136 0.053925302 -0.018516287 -0.1166417
0.112029076 0.02549101 -0.006837043 -0.04917968 0.03883742 -0.021347672 -0.0810534 0.10798353
-0.07081735 -0.10721171 0.04089667 0.013582065 -0.03708554 0.051984422 0.09806715 -0.10183423
0.013960932 0.070647076 -0.05784947 0.03030534 0.001258649 -0.03144296 -0.06937412 0.09889226
-0.031118374 0.028229836 0.108199574 0.011992119 0.013284499 0.13301575 -0.1128183 0.001185054
0.121066645 0.10377976 -0.038330447 0.025285581 0.06912171 0.0059204814 -0.06937945 -0.0032073269
-0.01086689 -0.0967468 0.11988439 -0.027444398 -0.03813118 0.05644773 -0.08897834 -0.08878083
-0.050749443 0.06264115 -0.030344345 -0.11199962 0.001088813 0.10574621 0.05274405 -0.05674217
-0.08590699 -0.05479457 0.042640217 -0.11815338 -0.01818274 -0.0034241613 0.071977556 -0.07394757
00000000: 1698 f53b 6860 663d 6222 eabc 6d7e debc
00000010: 95a9 e1bd 82b5 4dbb 75a6 8dbc 0c0b 9e3d
00000020: 465a bd3d 5fbd e3bc dcf3 cbbd 4019 be3d
00000030: 10aa 963c e4d6 c43c fcb3 2cbd 06ac d23d
00000040: b13d febd 2a3d 053c 75b8 c0bd 2c11 30bd
00000050: 1d18 103e 36ed f43d c831 ec3d c084 10bd
00000060: d032 c8bd 2e11 e93d ab5c 6f3c 9b87 d43c
00000070: 0e77 d3bc 6a43 acbc 5531 dbbc 34df 96bd
00000080: 0ee8 d9bd 8f92 843d 34dc 463c 972d c9bd
00000090: 6e8d a7bd 7a32 e93d 6356 4a3d 7f1e 4d3d
000000a0: e6b4 5bbd 0055 ef3d 404e 95bc 7f87 c83d
000000b0: 8fe7 663d 7863 63bd 4f50 c9bd befb cebd
000000c0: 7ad3 d4bd 93ce f33d 08f5 f2bd 591a 24bd
000000d0: 98ec bfbd ae1c 0d3c 6c9a 8abd 614e 3f3d
000000e0: 68f0 253c 3782 e4bd 3fa8 093e 33d9 66bc
000000f0: f092 b03c f18b 70bd 14c0 3b3d 94dd 3b3d
00000100: e8fb a5bc eaf6 21bd dd5b 56bd 158b 913d
00000110: bb4c e1bd 771a afbd ad13 ee3d d6c0 dcbd
00000120: 7cb0 9a3d 5fba b1bd f031 693d 9fa3 c7bc
00000130: b8af 013e 8af8 a2bd bd29 1e3d aff3 043e
00000140: 357f 9b3d c864 73bd f229 eabc 2a4c b1bd
00000150: fdb8 d73b 21dd c23d bbd0 80bd 5450 5f3d
00000160: cc8c 62bd 6662 8b3c 089b e4b8 40c7 c9bd
00000170: b8e1 b4bd 3fb7 2abd 4062 f33d 46a9 893d
00000180: bc7d 763d bf16 dcbd 0419 693d 0327 7fbd
00000190: 8444 ba3d cde3 773c 0d36 a6bd 060d b03d
000001a0: 5bf1 aa3d 1e55 a2bd 8053 933b c592 f73d
000001b0: dc4c 13be 9477 01bd 16ee b13d 1604 c63d
000001c0: 12ed bebd f2b3 6d3a 1c67 ad3b 89cd 5a3d
000001d0: 3481 0e3d b46b 6a3d 160f d5bc bff8 d8bd
000001e0: 8957 343d 2d07 bcbd 5fc2 833d 8eff 9cbd
000001f0: 28fa f2bc 8e1e 6ebd 2890 ed3c f5cc 9a3c
00000200: 6af7 aa3d 2ef7 a63c 86ae 863d 0553 01bd
00000210: 8830 dfbd 1185 a03d c15a c1bd b02a f3bd
00000220: 2811 e4bd 00c1 ce3d f856 98bd 814a 06bc
00000230: f4f6 b93d 1555 06be 6c62 df3d 7ba5 e53d
00000240: dd53 e0bd c383 c1bd 7a32 0cbe 90f0 acbc
00000250: cd24 8d3d d30d 51bc 61d4 c43d 0827 d4bc
00000260: a253 1abd f888 d4bd 21ce a83c 048d 5c3d
00000270: 592b d03b b1d1 0b3e 741b 813d c95c ca3d
00000280: d89a 883d 1245 a33c 7277 f9bd 58bc 183b
00000290: dd2f aa3d 011b b0bd e06c 58bc 2af8 6dbd
000002a0: 6a85 fd3b 8c89 1abd cc56 32bd eca9 a5bd
000002b0: 80f5 af3d d684 e7bd ee54 a7bd 121f d5bd
000002c0: f227 64bd a4b9 043d 2763 acbc 28d6 873d
000002d0: acfa 8abd 9e81 dcbc 305f a93d 8f27 763d
000002e0: 9af9 ca3d 3256 d73c f288 98bd 4f43 fb3c
000002f0: 704f a33d c7e0 5c3d 78af 97bc d8e1 eebd
00000300: 806f e53d 86d2 d03c 4609 e0bb a270 49bd
00000310: fd13 1f3d 50e1 aebc 53ff a5bd 7826 dd3d
00000320: b008 91bd d091 dbbd 4483 273d 4f87 5e3c
00000330: 02e7 17bd 9eed 543d 6ed7 c83d 778e d0bd
00000340: 65bc 643c 6aaf 903d 91f3 6cbd e842 f83c
00000350: 41f9 a43a 55ca 00bd 0514 8ebd 0688 ca3d
00000360: f6eb febc 4242 e73c bd97 dd3d 987a 443c
00000370: 3aa7 593c 4835 083e 480d e7bd d053 9b3a
00000380: caf1 f73d 7c8a d43d 6300 1dbd b523 cf3c
00000390: af8f 8d3d 9900 c23b d016 8ebd 0432 52bb
000003a0: 0a0b 32bc 3023 c6bd f285 f53d 13d3 e0bc
000003b0: 712f 1cbd bc35 673d 473a b6bd b9d2 b5bd
000003c0: a6de 4fbd 014a 803d b494 f8bc 0f60 e5bd
000003d0: 80b6 8e3a 7891 d83d 250a 583d 7a6a 68bd
000003e0: 01f0 afbd 4570 60bd 82a7 2e3d 66fa f1bd
000003f0: f8f3 94bc e567 60bb f868 933d d371 97bd

lstm.weight_hh_l1 f4 [256, 64]
-0.026917534 0.022699405 -0.044330955 -0.0038954003 0.074979685 -0.0026379605 0.11166117 0.13554089
-0.025671681 -0.05819395 0.059310682 0.010760863 -0.10327355 0.04444234 0.059909943 -0.0015326119
0.1415477 -0.027526563 0.11072925 0.031808574 0.0572493 -0.09645244 0.029235626 -0.07734842
0.050131623 0.07101348 -0.11208888 0.08432865 -0.035485405 0.11937542 0.06537911 0.11901527
0.07765148 0.06097311 0.14167759 0.078384355 0.09222444 0.020131135 -0.0056280894 0.011530915
0.09866862 0.07431279 -0.03468206 -0.008951131 0.087427974 -0.005251327 -0.041154865 0.03267349
-0.056763347 0.08296407 0.015043684 0.020313496 -0.101413906 -0.059396494 0.12191157 -0.024056861
-0.04631304 -0.09895755 -0.0065098037 -0.11695164 -0.092402145 0.046797965 -0.10516655 -0.02638001
-0.021502977 -0.111051336 -0.085179076 0.018658118 -0.06815653 -0.030727025 0.09996886 0.100276
-0.0785318 -0.041396365 0.048721045 0.047483746 0.107559495 0.03682937 -0.11812485 -0.028228726
0.041149125 0.12562178 0.11680583 -0.05772065 0.103990175 -0.054060146 -0.0346865 -0.09793226
-0.068836756 0.026407871 -0.06633017 -0.13270372 -0.033870578 0.045201723 0.062616386 -0.111139074
-0.0034984255 -0.09604626 -0.11466465 0.038725488 -2.52428e-05 0.121461004 0.017818773 -0.07564814
0.09200296 0.060835697 -0.08847344 -0.106129244 -0.08498276 -0.045584425 0.09693363 0.08150933
0.066333756 0.082354546 0.07187223 0.09942216 0.00024965557 0.14256078 0.027668772 0.13703291
-0.040222798 0.0049598585 0.0762561 -0.10500087 -0.034760483 0.015129701 -0.032482777 -0.024762431
-0.039914493 -0.040574178 0.08327667 -0.13833228 -0.007839695 -0.03523906 0.08877204 0.06597171
0.035677813 -0.07974962 -0.09167811 0.008421486 0.12443299 -0.011600581 0.058071606 -0.037909262
0.09336285 0.07376205 0.09635317 0.04324357 -0.04770165 -0.08261015 0.06550288 -0.094762035
-0.114641584 -0.004322581 -0.0056323707 0.059770167 0.13575657 0.008934037 0.0010242612 -0.09409765
0.012264736 -0.018090617 0.024457974 0.01961632 -0.0041799303 -0.091182254 -0.110394865 0.09116949
0.057407945 0.10262896 0.05852574 0.03585155 -0.12039654 -0.041224543 -0.06561704 0.048798878
0.13435784 -0.03228666 0.068618834 -0.082054876 -0.058616035 -0.017494775 -0.017045047 -0.0779264
-0.029396508 -0.011759292 0.0034778677 0.12348483 -0.07534213 -0.08984342 -0.10360858 -0.0063140495
0.023334756 0.041036267 0.1418909 -0.08820355 0.052072585 0.034091454 0.049668577 0.07469346
0.07997311 0.004070928 -0.10360284 0.06490167 0.048961237 -0.086601116 0.09492751 0.10046745
0.02384669 0.015825393 0.025789212 -0.027913079 0.13108021 -0.12859218 -0.029593475 0.04281145
0.13445033 0.07845117 0.00825924 -0.05656256 0.07623599 0.08310146 0.061478302 -0.027606094
-0.10340065 -0.07207346 -0.07778975 -0.0966559 0.09886852 -0.113757975 -0.015655885 0.07432179
0.03671423 -0.09380075 0.07558112 -0.045280736 0.038781848 -0.10026863 0.030821512 0.029168025
-0.014138666 0.091392934 -0.0870232 0.06294355 -0.08673579 0.07657423 -0.12158629 0.057092804
-0.0024717741 0.0030937446 0.088050865 0.107434355 0.032583594 -0.08021249 0.07830431 0.10734692
00000000: 2982 dcbc 1af4 b93c 6094 35bd f949 7fbb
00000010: f38e 993d a2e1 2cbb 9dae e43d 3bcb 0a3e
00000020: 6b4d d2bc c85c 6ebd c2ef 723d 554e 303c
00000030: 1581 d3bd 2c09 363d 2164 753d ece1 c8ba
00000040: e1f1 103e 637f e1bc 04c6 e23d b549 023d
00000050: 3e7e 6a3d db88 c5bd 8d7f ef3c d968 9ebd
00000060: d156 4d3d 846f 913d db8e e5bd 80b4 ac3d
00000070: 2559 11bd 1a7b f43d 7ce5 853d 47be f33d
00000080: bd07 9f3d f1be 793d ee13 113e fa87 a03d
00000090: 2be0 bc3d 0dea a43c d66b b8bb 2aec 3c3c
000000a0: c612 ca3d 4e31 983d c70e 0ebd c4a7 12bc
000000b0: 700d b33d 5313 acbb 0192 28bd a3d4 053d
000000c0: af80 68bd 11e9 a93d c979 763c 7d68 a63c
000000d0: 18b2 cfbd bd49 73bd c6ac f93d e512 c5bc
000000e0: beb2 3dbd 42aa cabd 3150 d5bb 5784 efbd
000000f0: 563d bdbd 39af 3f3d 8f61 d7bd e41a d8bc
00000100: 0327 b0bc e26e e3bd 5e72 aebd e9d8 983c
00000110: a795 8bbd 3eb7 fbbc 79bc cc3d 815d cd3d
00000120: 48d5 a0bd 3c8f 29bd b88f 473d 517e 423d
00000130: 2748 dc3d 65da 163d 71eb f1bd ee3f e7bc
00000140: fc8b 283d ffa2 003e e537 ef3d 7d6c 6cbd
00000150: cdf8 d43d 2c6e 5dbd 6e13 0ebd b590 c8bd
00000160: 49fa 8cbd 5255 d83c 1dd8 87bd 7ce3 07be
00000170: e0bb 0abd 7125 393d 053d 803d e29c e3bd
00000180: d745 65bb e7b3 c4bd 4dd5 eabd 9e9e 1e3d
00000190: 80c0 d3b7 8cc0 f83d adf8 913c 69ed 9abd
000001a0: 0c6c bc3d da2e 793d 9031 b5bd 4a5a d9bd
000001b0: 710b aebd bcb6 3abd 2485 c63d 5dee a63d
000001c0: fed9 873d 80a9 a83d bf31 933d d89d cb3d
000001d0: 34e4 8239 74fb 113e 9fa9 e23c 5b52 0c3e
000001e0: a9c0 24bd 4f86 a23b 282c 9c3d b20a d7bd
000001f0: 0261 0ebd 91e2 773c a90c 05bd 95da cabc
00000200: 617d 23bd 1c31 26bd f58c aa3d faa6 0dbe
00000210: 1072 00bc d556 10bd 1ece b53d 2d1c 873d
00000220: e622 123d c553 a3bd bcc1 bbbd 46fa 093c
00000230: b9d6 fe3d 5d10 3ebc 7edc 6d3d be46 1bbd
00000240: 0635 bf3d 8f10 973d d054 c53d 2b20 313d
00000250: ce62 43bd 832f a9bd 6026 863d 9912 c2bd
00000260: 35c9 eabd 70a4 8dbb c08f b8bb 90d1 743d
00000270: c503 0b3e 1160 123c 8140 863a 45b6 c0bd
00000280: 08f2 483c c632 94bc 175c c83c 68b2 a03c
00000290: ccf7 88bb c3bd babd b416 e2bd 12b7 ba3d
000002a0: 9824 6b3d 222f d23d b0b8 6f3d 13d9 123d
000002b0: 7692 f6bd 11db 28bd 3a62 86bd 55e1 473d
000002c0: 1a95 093e 043f 04bd 0888 8c3d 630c a8bd
000002d0: 5e17 70bd 3451 8fbc 0ea2 8bbc e097 9fbd
000002e0: f2d0 f0bc 0caa 40bc f0ec 633b 9de5 fc3d
000002f0: fa4c 9abd d4ff b7bd bc30 d4bd 16e6 cebb
00000300: 8828 bf3c a515 283d d94b 113e 10a4 b4bd
00000310: 104a 553d 7ba3 0b3d 4771 4b3d e2f8 983d
00000320: f1c8 a33d 6b65 853b ba2d d4bd 2beb 843d
00000330: 948b 483d ed5b b1bd 5b69 c23d e1c1 cd3d
00000340: 225a c33c 41a4 813c e643 d33c f8a9 e4bc
00000350: e439 063e abad 03be 046e f2bc 0f5b 2f3d
00000360: 59ad 093e 02ab a03d c351 073c 25ae 67bd
00000370: 9d21 9c3d 1931 aa3d acd0 7b3d 2d26 e2bc
00000380: b8c3 d3bd 409b 93bd 3c50 9fbd 87f3 c5bd
00000390: 947b ca3d f1f9 e8bd c540 80bc 0636 983d
000003a0: a961 163d 9c1a c0bd 46ca 9a3d 4b78 39bd
000003b0: b7d9 1e3d a459 cdbd 657d fc3c c8f1 ee3c
000003c0: dda5 67bc 382c bb3d 3839 b2bd 8ce8 803d
000003d0: 89a2 b1bd f3d2 9c3d 3c02 f9bd 25da 693d
000003e0: 7dfd 21bb 6cc0 4a3b 0354 b43d 8b06 dc3d
000003f0: 6076 053d 7246 a4bd 035e a03d b4d8 db3d

lstm.bias_ih_l1 f4 [256]
0.074433565 -0.07574909 0.0014312259 0.121944964 -0.05340611 -0.062427487 -0.11476196 -0.074737094
0.09559205 0.12015861 0.059308197 0.12423782 -0.062656395 -0.053902462 -0.0051062084 0.017712548
0.14045043 -0.11103763 -0.094702505 -0.039376076 0.009617753 -0.06369696 -0.090710014 -0.0012673768
0.07656595 -0.03904863 0.100703515 0.051638205 0.030053262 0.0059856116 0.02897363 0.13520804
-0.009109305 -0.0003819205 -0.07026428 0.08817196 -0.013122268 -0.10954747 0.014149963 0.09341427
0.050615694 -0.030555591 -0.010314886 -0.0224883 0.100047596 -0.10591396 -0.04615997 -0.059649494
-0.09076535 -0.068618596 0.13790795 0.06461782 -0.019634146 0.10186412 0.026295323 0.08889858
0.04216757 -0.05555284 0.09824118 0.08542934 -0.03639482 -0.08574959 -0.07401901 -0.06586564
0.09298938 0.07447267 -0.019110417 0.042313922 -0.02387971 0.06278911 0.13036186 0.07600971
0.112540044 -0.028066486 -0.007672933 0.018414186 -0.027057067 0.04064831 0.024765277 0.07712577
0.008841958 0.073743865 0.07312651 0.08499722 -0.047728717 -0.05405345 0.039705463 -0.054476123
-0.094056584 0.12182255 0.058344807 0.04688721 -0.11466075 0.08389298 -0.05818035 0.04865592
-0.012801279 0.070280336 0.024427507 -0.081559345 0.06317336 0.019552946 -0.059438065 -0.091328695
0.1377213 -0.080862515 0.0151508935 0.12064195 -0.025694694 -0.09982522 0.094494835 0.11347636
0.12599215 0.03653972 -0.09573567 -0.008254334 -0.083059445 0.10230007 0.08644386 0.054417208
-0.10740014 -0.008314798 0.09780951 -0.09266192 -0.07476997 0.020237155 0.04008968 -0.10512086
0.016925141 -0.11946099 -0.0022775992 -0.058434203 -0.08296646 -0.10193587 -0.026659487 -0.11020537
0.12591818 -0.07747112 -0.07156104 0.06367375 -0.09307935 0.062120456 -0.09151883 -0.114740364
-0.0008556411 -0.0889685 0.052972235 -0.03620332 0.09255574 0.1421369 0.10756803 -0.080052435
-0.040785708 -0.09259815 -0.09350588 0.007676967 -0.06360072 -0.02520673 0.11682135 0.1345129
-0.10067142 -0.032029055 0.11143103 -0.0022960294 0.04835026 -0.0012630534 0.049725473 0.09940761
-0.008947472 0.07413719 0.06951127 0.080178574 0.08666315 -0.10793463 -0.124177806 0.059175804
0.09523342 0.029885473 0.10315748 0.020724056 -0.09043198 0.09208093 -0.031426813 -0.10665122
-0.015742876 0.08820886 0.048868608 0.08028061 -0.003443373 0.049981244 0.085661076 -0.03246538
-0.08128113 -0.069878295 -0.07181066 -0.07926601 -0.080822095 -0.0679158 0.054939758 0.040772937
0.058875244 0.12081586 0.057829756 0.040614203 -0.067786574 -0.04996923 -0.015233267 0.112280995
0.12994002 0.0022626952 0.03926772 0.10515983 -0.078655444 0.08662092 0.11756912 0.04088091
-0.09659897 0.13169701 -0.12812185 0.034086384 0.015307029 -0.07134424 -0.11008384 0.052916523
0.08443312 0.11591182 -0.038145676 0.12292367 0.11286039 0.042955764 -0.034931984 -0.053745363
-0.03904626 -0.085647784 0.03327905 0.1048172 0.08375681 0.05328185 0.07962897 -0.010916804
-0.06955105 -0.03423628 0.098124295 0.105916746 0.03144508 -0.0072800005 0.06907523 0.049769986
-0.100396685 0.09497336 -0.08239023 0.04832247 -0.013584519 -0.021573082 -0.07568692 0.025326245
00000000: a070 983d 5722 9bbd f997 bb3a 48be f93d
00000010: 5dc0 5abd f7b3 7fbd 5208 ebbd c30f 99bd
00000020: c4c5 c33d b815 f63d 27ed 723d 6670 fe3d
00000030: ff51 80bd d4c8 5cbd fb51 a7bb e819 913c
00000040: 3dd2 0f3e b267 e3bd 63f3 c1bd cf48 21bd
00000050: c893 1d3c 8d73 82bd 2cc6 b9bd 1c1e a6ba
00000060: 9cce 9c3d 75f1 1fbd a53d ce3d 9582 533d
00000070: 4232 f63c f322 c43b 1b5a ed3c fa73 0a3e
00000080: 323f 15bc 803c c8b9 b8e6 8fbd 8093 b43d
00000090: c8fe 56bc 6d5a e0bd 3fd5 673c fb4f bf3d
000000a0: 6752 4f3d b84f fabc c5ff 28bc 6239 b8bc
000000b0: c1e5 cc3d 6be9 d8bd 3d12 3dbd 0753 74bd
000000c0: 2fe3 b9bd e887 8cbd be37 0d3e 5956 843d
000000d0: cad7 a0bc 239e d03d 4a69 d73c 7510 b63d
000000e0: e7b7 2c3d 608b 63bd ac32 c93d 94f5 ae3d
000000f0: bc12 15bd 7b9d afbd 4797 97bd 91e4 86bd
00000100: 3771 be3d 2185 983d 738d 9cbc 5d51 2d3d
00000110: 629f c3bc 9497 803d 947d 053e fbaa 9b3d
00000120: 657b e63d b0eb e5bc 3a6d fbbb 59d9 963c
00000130: c8a6 ddbc d87e 263d 8de0 ca3c 1ef4 9d3d
00000140: dcdd 103c 0607 973d 5ac3 953d 0613 ae3d
00000150: 307f 43bd 2667 5dbd 32a2 223d 5b22 5fbd
00000160: bda0 c0bd 1a7e f93d f7fa 6e3d ce0c 403d
00000170: 41d3 eabd 15d0 ab3d 854e 6ebd 6e4b 473d
00000180: 75bc 51bc 23ef 8f3d 321c c83c 9608 a7bd
00000190: 0961 813d 802d a03c 5475 73bd 8a0a bbbd
000001a0: d006 0d3e 3f9b a5bd 743b 783c 2013 f73d
000001b0: ae7d d2bc 2a71 ccbd 8286 c13d 4b66 e83d
000001c0: 1604 013e acaa 153d 1011 c4bd 303d 07bc
000001d0: 121b aabd b382 d13d 7a09 b13d 94e4 5e3d
000001e0: 9bf4 dbbd ca3a 08bc 5a50 c83d 88c5 bdbd
000001f0: ff20 99bd 64c8 a53c 1435 243d 9b49 d7bd
00000200: 98a6 8a3c f7a7 f4bd c643 15bb b458 6fbd
00000210: 52ea a9bd c1c3 d0bd ff64 dabc 5ab3 e1bd
00000220: b2f0 003e 2ea9 9ebd 988e 92bd 6267 823d
00000230: 63a0 bebd 0572 7e3d 396e bbbd fffc eabd
00000240: 1a4d 60ba 1e35 b6bd 6af9 583d ef49 14bd
00000250: dd8d bd3d 568c 113e a14c dc3d 88f2 a3bd
00000260: ea0e 27bd 19a4 bdbd 0380 bfbd 118f fb3b
00000270: 1841 82bd 587e cebc 0840 ef3d c0bd 093e
00000280: d12c cebd e630 03bd f435 e43d fb78 16bb
00000290: ec0a 463d 0a8d a5ba f0ac 4b3d 3896 cb3d
000002a0: 6b98 12bc 3dd5 973d ed5b 8e3d aa34 a43d
000002b0: 737c b13d d50c ddbd ef50 febd 5462 723d
000002c0: bd09 c33d 61d2 f43c 3b44 d33d 7fc5 a93c
000002d0: 6734 b9bd ed94 bc3d 67b9 00bd f46b dabd
000002e0: 34f7 80bc d9a6 b43d 732a 483d 296a a43d
000002f0: 36aa 61bb 22b9 4c3d 136f af3d 6bfa 04bd
00000300: b976 a6bd 5a1c 8fbd 7811 93bd 3856 a2bd
00000310: 0e86 a5bd 7017 8bbd 8308 613d 8601 273d
00000320: 2b27 713d 4e6e f73d e5de 6c3d 145b 263d
00000330: b0d3 8abd 89ac 4cbd f494 79bc 94f3 e53d
00000340: ff0e 053e ba49 143b 30d7 203d 095e d73d
00000350: 1b16 a1bd 4f66 b13d 14c8 f03d be72 273d
00000360: aed5 c5bd 95db 063e 6032 03be 2a9e 0b3d
00000370: 55ca 7a3c ee1c 92bd a373 e1bd ffbe 583d
00000380: 46eb ac3d 2d63 ed3d a43e 1cbd 68bf fb3d
00000390: 5923 e73d 62f2 2f3d d714 0fbd 1924 5cbd
000003a0: f9ee 1fbd 1b68 afbd 9d4f 083d 66aa d63d
000003b0: b188 ab3d 123e 5a3d 8314 a33d 65dc 32bc
000003c0: c870 8ebd 573b 0cbd 64f5 c83d e1ea d83d
000003d0: 8ecc 003d 128d eebb 5077 8d3d 9ddb 4b3d
000003e0: c79c cdbd 6581 c23d 35bc a8bd c8ed 453d
000003f0: 9a91 5ebc 08ba b0bc be01 9bbd fc78 cf3c
